models/convNN2_ll_training_75-25_split_original.txt.pt (torch, 384591 bytes, 8 tensors)

conv1.weight f4 [32, 3, 5, 5]
000000 0a 93 b4 3d 06 d7 bb 3d 8c fd 0a bd 84 13 c7 3d
       0.08817108 0.09171872 -0.033933207 0.09720519
000010 bb c9 12 bd ee 10 bf 3c a5 6e 78 bd f2 02 78 3d
       -0.035836916 0.023323502 -0.060652394 0.060549684
000020 08 fe ba 3d f9 34 c8 bd 20 8f ce 3d 25 e9 92 3c
       0.09130484 -0.09775729 0.10085893 0.017933438
000030 3f 57 a0 3d 77 ca 90 3b 46 04 2d 3d 3e 14 86 bc
       0.07829141 0.004418667 0.042240404 -0.016367074
000040 14 d6 ae 3d aa 3b 18 3c c9 9d 87 bd e9 55 77 3c
       0.08536926 0.009291569 -0.06621892 0.015096166
000050 64 e6 5a bd 8b 7c 8c bc bb 8d 5e bd 26 63 85 3d
       -0.053442374 -0.01714923 -0.054334383 0.06513052
000060 ed 2a d6 bd d8 43 a4 bd 2b a2 82 bd 4f 09 d3 bd
       -0.10457406 -0.08020753 -0.06378587 -0.1030451
000070 1e 16 c9 bc db 1e 1a be b4 30 9e 3d 7d eb 04 be
       -0.02454668 -0.15050833 0.07724133 -0.12980457
000080 39 a7 60 3d 22 76 94 bc eb fd 9c bd e9 e4 37 3d
       0.054846976 -0.018122736 -0.076656185 0.04489604
000090 ee ef 51 bc 3a 41 73 3d 2d 7f ce bc d5 72 9b bd
       -0.012813551 0.059388377 -0.025207127 -0.07590262
0000a0 83 08 8b 3b 98 b5 7d bd 9c 30 68 3c ee fc 83 3d
       0.004242958 -0.06194076 0.014171746 0.06444727
0000b0 25 1e da 3c 1a 90 9d bd 4f 37 16 3d d5 26 53 bc
       0.026625702 -0.07693501 0.03667384 -0.012887676
0000c0 9e 1f ae 3c 76 6f df bd 2e 42 14 be c6 5a a2 bd
       0.02125531 -0.10909931 -0.1447837 -0.0792747
0000d0 d4 86 00 be b1 ed 65 3d d3 92 c7 bb 72 3a 8d 3c
       -0.12551433 0.056134883 -0.006090501 0.017239783
0000e0 2a 47 a1 3a c7 b2 22 bd e3 b2 4b 3d 34 74 fe bd
       0.0012304534 -0.039721277 0.049731147 -0.12424508
0000f0 32 c3 b9 bc e6 cb e7 bd da 8d d7 ba aa c9 a5 bd
       -0.022676084 -0.113181874 -0.0016445473 -0.08095105
000100 04 51 e6 bb f5 e8 5e bd f3 1d 7c 3d df da d9 bd
       -0.007028701 -0.054421384 0.061552 -0.106374495
000110 16 84 e3 bd a2 a4 e5 bd 02 b7 97 3d 80 79 a6 3b
       -0.11109178 -0.11213042 0.07407953 0.005080402
000120 a8 47 98 3d f0 3c 0b be 55 e5 1f be fa 03 b9 bd
       0.07435542 -0.13597465 -0.15614827 -0.090339616
000130 53 14 9f bd d8 91 3f 3d 24 5b 29 3d 82 7f c4 3d
       -0.077675484 0.046769947 0.041346684 0.09594633
000140 54 40 74 bd 88 36 a1 bd f4 f1 7a 3d c4 2c 3f bd
       -0.05963166 -0.07871729 0.0612659 -0.04667355
000150 e5 86 8f 3d c4 77 e0 bc 6b 47 87 3d 50 bd b7 bd
       0.07008151 -0.027400859 0.06605419 -0.08971655
000160 8c ae 6e bd 2e 32 10 3d b0 fa c7 3c 57 2c f1 bc
       -0.05827193 0.035204105 0.02441153 -0.029440088
000170 cc f5 8c 3d 5b c3 a0 3d ad 7d ab bd f2 7f 7c bd
       0.068828195 0.07849761 -0.0837358 -0.061645456
000180 f3 89 d8 3d fe 97 1f bd 8d ac 27 bd bf d1 e4 bd
       0.10573187 -0.03896331 -0.04093604 -0.111728184
000190 36 6d 87 bd 01 4c ec 3c 92 b6 79 bc fb a8 ab bd
       -0.06612627 0.028844835 -0.015241282 -0.0838184
0001a0 b1 79 31 3b 70 89 a1 bd 90 a1 c8 bd df 38 82 bd
       0.002708059 -0.07887542 -0.097964406 -0.063585036
0001b0 f5 f8 ce bd d8 93 96 bd 05 64 ec 3d a4 a9 b2 3c
       -0.101060785 -0.07352418 0.11542515 0.021809407
0001c0 b2 bf 11 3d 4e 90 dc bd cc 50 9b bd 98 6d 1d bd
       0.035583206 -0.107697114 -0.0758377 -0.038434595
0001d0 8f ea 93 3c 0a 16 d0 bd b7 c9 4b bd 23 93 8d bd
       0.018056182 -0.101604536 -0.049752917 -0.0691283
0001e0 bd ef a7 39 9d fd 2f bd f6 18 03 bc 6c 3f a0 bd
       0.0003203134 -0.042966474 -0.008001557 -0.07824597
0001f0 0f 52 a2 bd e6 f6 89 bd 13 e5 21 bd b9 a6 ba bd
       -0.07925808 -0.06736545 -0.039525103 -0.09113831
000200 6e 48 c6 3d bc bc bb bc 11 78 cb 3d 18 5e 13 3d
       0.096817836 -0.022917144 0.0993501 0.035978407
000210 b7 40 c8 bd 84 a7 a3 3d 4a 22 02 bd 85 4c 35 bd
       -0.097779684 0.079909354 -0.03177098 -0.044262428
000220 1a 4c c4 bd 0e 1a eb bd 09 52 07 3d f9 a1 ce bc
       -0.09584828 -0.11479579 0.03303722 -0.025223719
000230 2f 23 38 3d 9a 12 c2 bd 55 92 af 3d 4a 97 ad bd
       0.04495543 -0.09476204 0.085728325 -0.08476122
000240 45 56 a3 bc 34 94 c5 3c a2 2b 74 3d 3b ea be 3d
       -0.019938597 0.02411852 0.059611924 0.0932202
000250 0f 6d d7 3d 27 83 bb bd 8e ac ee 3c f4 27 4b bd
       0.10518848 -0.09155875 0.029135015 -0.04959865
000260 41 15 4e bc c2 db b0 bd fe 89 d7 3d c5 62 ad bd
       -0.0125783095 -0.086356655 0.10524367 -0.084661044
000270 ba 19 7d 3d fb 82 26 3d 3b ef 19 3d 25 76 7f bd
       0.061792113 0.040652256 0.037581664 -0.06236853
000280 18 31 d7 3d 7f b4 d0 3c a0 b3 74 3c 53 47 d0 bd
       0.10507411 0.025476692 0.014935404 -0.10169854
000290 2a c7 46 3d e1 f2 8c bc 31 3e 58 bd 7c 52 cb 3d
       0.04852978 -0.017205657 -0.052793685 0.09927842
0002a0 b4 7c d3 3c c5 b9 82 bd 6c fb 6e bd 27 7c b1 bb
       0.025816299 -0.06383089 -0.058345243 -0.0054164114
0002b0 b2 39 84 3d 5a 27 f1 bc 72 d2 86 bd 15 9d 21 bd
       0.06456317 -0.02943771 -0.06583108 -0.039456446
0002c0 2f 82 b0 bd e8 07 29 3d d8 37 b7 3d ea 78 de bd
       -0.086185805 0.041267306 0.08946198 -0.10862906
0002d0 89 80 dc 3c f0 b2 74 3d 94 34 ac 3c b4 24 28 bd
       0.02691676 0.05974096 0.021021165 -0.041050628
0002e0 3f 28 77 3d be 12 79 3d 57 51 31 3d ce 75 a5 bc
       0.060341116 0.06080889 0.043290462 -0.020197775
0002f0 96 e4 f9 bc 4a 87 4b 3c 10 0e a6 bc dc 76 0c bd
       -0.030504506 0.012422392 -0.020270377 -0.03429304
000300 7d 61 97 3d f6 67 cb 3d b9 2a 3a bc df e4 d2 bc
       0.07391641 0.09931938 -0.011362725 -0.0257439
000310 43 29 eb 3a d1 9f de bb 47 13 e4 3c 6b cf 04 3d
       0.0017941374 -0.006793954 0.027841223 0.03242437
000320 73 af d6 bd 56 5d 2e bd f9 40 c7 3d 44 71 38 3d
       -0.10482683 -0.04256948 0.097291894 0.045029894
000330 de be ba bb 95 72 8e bd ed 91 90 bd 38 bc d3 bd
       -0.0056990227 -0.069554485 -0.07059083 -0.10338634
000340 43 05 1a bd e7 e0 1f 3d 95 f9 96 3d 22 af 5a 3d
       -0.037602674 0.039032843 0.07371823 0.053389676
000350 41 eb d0 bd 75 22 8e bd 45 fe 94 bc 4b f3 e4 3d
       -0.10201121 -0.06940166 -0.018187651 0.11179217
000360 4b 81 89 3c b2 60 f4 bc ac e0 43 3d 46 00 34 bd
       0.016785285 -0.029831264 0.047821686 -0.043945573
000370 9c e9 98 bd e6 c1 ac 3d e7 c9 56 bd 54 3e bd bc
       -0.074664325 0.08435421 -0.052438643 -0.02310101
000380 fa 2f eb bd a6 45 a1 3d 77 0f ae 3d fd 07 1d 3d
       -0.1148376 0.078746125 0.084990434 0.038337696
000390 cf f2 ab bd 3b 73 ea bd a8 64 c4 bd b3 dc a3 3d
       -0.083959214 -0.1144776 -0.09589511 0.080010794
0003a0 09 71 45 3d 8d 87 b9 3d 22 86 6a 3d 51 80 d6 3c
       0.0482035 0.090590574 0.057256825 0.026184233
0003b0 55 b8 0b bc b7 16 c5 bd a8 30 da bd 30 2f e5 bd
       -0.008527835 -0.09623473 -0.10653812 -0.11190641
0003c0 44 7e 38 3d fd b2 81 bd 3a 23 fc bc 7e 62 95 bd
       0.04504229 -0.063329674 -0.030778516 -0.072941765
0003d0 d9 88 c0 bc b6 dd a4 bd ee ed a0 bd 7b 28 0e 3d
       -0.023502754 -0.080501005 -0.078578815 0.034706574
0003e0 54 13 16 bd f4 45 95 3d e4 51 21 bd b3 75 b9 bd
       -0.036639526 0.07288733 -0.039384738 -0.090556525
0003f0 d8 cb de bc b0 65 7f bd 30 79 1f bd b1 5c ec bd
       -0.02719681 -0.062352836 -0.038933933 -0.11541117

conv1.bias f4 [32]
000000 ea 27 b3 3e 11 a6 8b bd 11 ab 41 bd 33 c1 d4 3e
       0.3499139 -0.06818784 -0.047282282 0.4155365
000010 06 0c a9 3b 59 bb 44 bd 52 1c ad 3e 3f 39 85 bd
       0.005158904 -0.04803023 0.3381067 -0.065050595
000020 bd b2 c0 bd 79 f6 ad 3e 70 88 82 bd b1 5b 08 3f
       -0.094090916 0.33977106 -0.0637368 0.5326491
000030 6d 7b 33 3f 79 a7 5f bd fe 7b e8 3d 21 c1 06 3e
       0.7011021 -0.054603074 0.11351775 0.1315961
000040 12 e0 9b bd b0 a5 bf 3f 68 9c 60 bd 0d d3 bf 3e
       -0.076110974 1.4972439 -0.05483666 0.37465706
000050 91 7d a4 3f 99 3e a1 bd 80 f7 4c 3f 51 67 e1 3f
       1.285082 -0.07873268 0.80065155 1.7609655
000060 d4 46 51 3f d6 95 41 3f 02 2e da bb b6 76 86 bc
       0.817487 0.75619256 -0.0066583166 -0.016414028
000070 40 43 06 40 89 a8 db bc cd 8a 4e 3c 20 d8 df bd
       2.0978546 -0.026813762 0.012606335 -0.109298944

conv2.weight f4 [64, 32, 3, 3]
000000 65 70 43 bd ab 0d 23 3d 64 2f 14 bd 40 a1 42 3d
       -0.04771461 0.039807957 -0.036178008 0.04751706
000010 e9 cc ce 3b f6 98 56 3c 9d 06 60 3d 1a 78 06 bd
       0.0063110483 0.013097992 0.054693807 -0.03282938
000020 2b dc 26 bc f4 0b 2b 3c d0 ea a4 3c e1 e4 6a bd
       -0.010184328 0.010439862 0.020131499 -0.057347182
000030 35 91 ab 3c f0 55 0e bd 2c 9f fd 3b a1 4a 23 3d
       0.020943264 -0.034749925 0.007739922 0.039866094
000040 0d 58 c0 bb 92 53 f4 ba dc 15 90 bb 8b 6e 49 3d
       -0.0058698715 -0.0018640629 -0.004397137 0.049177688
000050 7e 2f 09 3d a0 71 22 3c d5 3a 11 bd 8d 0b 03 bd
       0.033492558 0.009914786 -0.035456497 -0.031993438
000060 9d 46 40 3d df a7 2d 3d 2e c5 0b 3d b6 38 32 bd
       0.046942342 0.042396422 0.034123592 -0.043511115
000070 8a 68 45 3d 1f 3b 72 bb b3 60 3c 3d a0 49 5b 3d
       0.0481954 -0.0036961508 0.045990657 0.05353701
000080 e2 07 09 3c fb 93 b4 bc 3f 24 6c 3d 95 ea ec bc
       0.008363696 -0.022043219 0.057651754 -0.028920451
000090 44 80 1e 3d 12 90 66 bd f3 0c 96 bc 91 ad 51 bd
       0.038696542 -0.05628974 -0.018316722 -0.051190916
0000a0 bf d8 d6 bc ae c1 ce 3c a1 30 2c bd 0e eb 4f bd
       -0.0262264 0.025238838 -0.042038564 -0.050761275
0000b0 8c 73 2d 3d 0d 07 01 3d ed cf 1a ba d4 de 29 bd
       0.042346522 0.031500865 -0.0005905617 -0.04147227
0000c0 7f f1 7e bc 13 c3 9b bc 4d 5b 15 3d 4f 7b 9d bc
       -0.015560507 -0.019013917 0.036464024 -0.019223837
0000d0 d7 77 8a bc 15 cc 2a bd ca 36 d2 bc d5 0a 0d 3d
       -0.016902847 -0.041698534 -0.025660891 0.03443416
0000e0 db b1 26 3d 86 50 30 3c 26 61 9e bc fc bf 74 3d
       0.04069696 0.010761386 -0.019333433 0.059753403
0000f0 ba 10 5e 3c f4 18 a7 bc c0 87 91 bc 49 62 01 bc
       0.013553793 -0.02039764 -0.017764926 -0.007896968
000100 76 88 e8 3c 14 1d b4 3c 8e 3a 30 3d 3b bc 12 bb
       0.028385382 0.021986522 0.043024592 -0.0022390026
000110 7d 51 49 3d f5 ea c1 bc 16 28 db bc 30 ff ae bc
       0.04914998 -0.023671607 -0.026752513 -0.021361917
000120 a3 71 62 bd 66 6f 1e bd e1 65 5a bd a2 33 64 bb
       -0.055284154 -0.038680457 -0.053319816 -0.0034820815
000130 f5 c1 11 3a 91 90 7a bc 8b f0 24 bd 19 fc 5a 3d
       0.0005560213 -0.015293256 -0.040268462 0.053463075
000140 d3 f0 9f bc 20 e0 f7 3c 1a d0 2f 3d 49 47 1b bd
       -0.019524014 0.030258238 0.04292307 -0.03790978
000150 b0 7e 9e bb 35 df 15 3d 93 e1 70 3d 78 22 b6 bb
       -0.0048368797 0.03658982 0.058808874 -0.005558308
000160 f8 18 36 3d f4 05 39 bd 6f bf 1c bd 0f 92 46 3d
       0.044457406 -0.045171693 -0.038268503 0.048479136
000170 36 12 b6 bb c1 85 6e 3d 8c 1e 8d 3b ee 01 c8 bc
       -0.00555637 0.058233026 0.00430662 -0.024414983
000180 8f 4d 65 3d 05 29 53 3d 7a ee b3 3b 3b 69 07 bd
       0.05598217 0.05155279 0.005491075 -0.03305934
000190 68 6f f4 b9 1a fc dc bc c7 c5 39 3d 4e 77 92 3b
       -0.0004662231 -0.02697568 0.04535463 0.0044697886
0001a0 9f 4c 5d 3c 84 2e 1d 3d 9d 51 af 3c f1 01 11 bd
       0.013507037 0.03837444 0.021401221 -0.035402242
0001b0 d4 48 5e 3d 05 b5 29 3d 9f 96 01 bd af 35 4c 3d
       0.054268673 0.0414324 -0.031637784 0.049855884
0001c0 9e 6c b2 3c 97 76 ea bb d7 b1 17 bd 95 a7 a2 bb
       0.021780308 -0.0071552503 -0.037034836 -0.004963825
0001d0 2e 9d 5b bd 9f c2 09 3d bf ce 2e 3d 35 f8 8a bc
       -0.053616695 0.03363287 0.042677637 -0.016964057
0001e0 05 c1 5f 3d 4e bd b2 bc a0 56 25 3c 41 33 28 bd
       0.054627437 -0.021818783 0.010091454 -0.041064505
0001f0 c1 39 23 bb 71 22 c3 3c 1f 38 d1 3c fb 05 10 bb
       -0.002490625 0.023820134 0.025539456 -0.002197622
000200 32 d0 f8 bc 90 a8 2b 3d 36 28 22 3d b7 ae 1b 3c
       -0.030372713 0.0419088 0.03958913 0.0095021045
000210 17 03 dd bc df f0 4e 3c 0c 9b 9f b8 10 32 62 3d
       -0.026979012 0.01263067 -7.6105905e-05 0.055223525
000220 6c b3 24 3c b8 be c6 3b a6 e0 a3 3b be 90 03 3d
       0.010052543 0.006065216 0.0050011454 0.03212046
000230 5f 73 3e 39 18 fd 53 3d 4f 0c 02 3d 0d c7 31 bd
       0.00018162791 0.05175504 0.03175002 -0.04340272
000240 f3 0f 04 ba f5 f8 4f bd 2a df 3c bd 61 0b 39 3c
       -0.0005037777 -0.050774533 -0.046111263 0.011294217
000250 80 5d 50 3c b8 80 c0 bb 4e 9a 65 3d f4 ed 02 bd
       0.012717605 -0.0058747195 0.05605536 -0.03196521
000260 b4 78 ce bc a8 9c f9 bb 3e 33 e1 39 05 bf df bb
       -0.02520404 -0.007617552 0.00042953523 -0.006828191
000270 cb 0e 64 3d 38 99 c7 bc 75 79 05 bd 5d b8 04 3c
       0.05567817 -0.024365053 -0.032586534 0.008100596
000280 64 c5 39 3d fc 85 54 3c fc 0c 02 3d bb 01 3b 3c
       0.045354262 0.0129713975 0.031750664 0.011413987
000290 50 bb 4d 3d 88 fc 10 3d 7e bb 2c 3d 34 f3 01 bc
       0.050227463 0.035397083 0.042170994 -0.007931519
0002a0 4d cd 47 bd ae f0 e4 bc b2 7a a4 3c 39 0b 34 3d
       -0.048779774 -0.027946796 0.020078037 0.043956015
0002b0 77 36 a8 bc 11 54 51 3d 24 01 35 3c 6d c4 2d 3b
       -0.020533783 0.051105563 0.011047635 0.0026514784
0002c0 b7 3c 94 3b d6 33 01 bc 22 c2 6b 3d ca 2f 9d 3b
       0.0045238393 -0.007885894 0.057558186 0.0047969567
0002d0 65 6c 18 3d 01 de 50 bd bd 8a 0b bd 6c b8 10 3c
       0.037212748 -0.05099297 -0.034067858 0.008833032
0002e0 25 02 40 3d 78 3c cf 3c 48 08 5c 3c 92 5c 6f bd
       0.046877045 0.025297388 0.013429709 -0.05843789
0002f0 e2 b0 b9 ba 96 49 1f bd 1c 08 4e bd a9 3f 04 3c
       -0.0014167095 -0.038888536 -0.050300702 0.008071818
000300 64 ac 18 bd 31 21 5b 3d f3 21 03 bd 40 a4 9b 3c
       -0.03727378 0.05349845 -0.0320148 0.018999219
000310 0d bc 0d 3d 4f 8a 3b bd 4a 6e 03 3d 4b 68 d9 bb
       0.034603167 -0.0457862 0.0320876 -0.006634747
000320 8d ba 00 3d ea c1 71 3d 6e 33 c4 bc 5d eb cb bc
       0.03142791 0.05902282 -0.023950305 -0.024892503
000330 78 69 49 3d 1a 22 07 3c 06 80 99 bb b3 10 37 3d
       0.04917285 0.008247877 -0.004684451 0.04469366
000340 61 a2 f9 bc 2d 55 f8 bb 84 0c 2a 3d a3 77 b2 3c
       -0.030472936 -0.007578513 0.041515842 0.021785563
000350 35 a6 2e bd 5b 79 89 3c 0d 7c 3b bd 03 b4 13 bd
       -0.042638976 0.0167815 -0.0457726 -0.036060344
000360 eb 7f 25 3d 21 57 5d bc d1 41 e7 bc d0 1d e3 3b
       0.040405195 -0.013509543 -0.028229626 0.006931044
000370 07 a6 8a 3c 2a 72 0c bd 18 91 17 bd 93 77 60 bd
       0.016924871 -0.034288563 -0.037003607 -0.054801535
000380 46 91 8d 3c f9 5a 05 bd 0a 1b 22 3c a0 00 07 bc
       0.017281186 -0.03255746 0.009894142 -0.008239895
000390 ff 1d 07 bd 49 b5 5b bc bd aa 25 bd 32 9e d3 bc
       -0.03298759 -0.013409921 -0.04044603 -0.02583227
0003a0 b7 c9 58 3b 82 a7 3b bd f7 ad 53 bd 01 cb 34 3d
       0.0033079216 -0.045814045 -0.051679578 0.044138912
0003b0 2f b2 b5 3b c8 7b d5 bc d9 64 00 bb db fb 32 3d
       0.005544923 -0.02606 -0.001959136 0.04369722
0003c0 83 5b 49 bd d5 ed ff bc 4c 89 2e bd 2e c5 8b bb
       -0.049159538 -0.031241337 -0.042611405 -0.004265449
0003d0 59 aa 03 bb 08 05 3c bd 4e 99 27 3d c1 43 39 bd
       -0.0020090549 -0.045903236 0.040917687 -0.04523063
0003e0 a4 6a 61 3d b5 15 26 bd 7d 06 04 bc 6b c3 34 3c
       0.05503334 -0.040548045 -0.008058188 0.011032919
0003f0 4e 27 cd bc e9 c2 59 3d 72 f4 36 bd 9f a3 c3 b9
       -0.025043156 0.053164396 -0.044666715 -0.00037315206

conv2.bias f4 [64]
000000 0c 96 28 3e 16 bc fd 3a 84 65 a2 3e 47 31 f7 bb
       0.16463488 0.0019358422 0.31718075 -0.007543716
000010 51 d5 66 bc ed af 65 3d dd c2 52 3d 76 1b 5b 3f
       -0.0140889445 0.05607598 0.051455367 0.8558878
000020 9d 17 97 3d 56 2f 20 3e df 39 89 bc 6c b0 01 3d
       0.07377551 0.15643057 -0.016751228 0.03166239
000030 db 37 dd 3c 93 c8 f8 3e 05 6d 2c bd a9 47 31 3f
       0.027004173 0.48590526 -0.042096157 0.6924997
000040 82 84 cc 3d 5f b8 8f bc e6 4b c7 bb b7 e4 63 3f
       0.09986211 -0.01754397 -0.006082046 0.89020866
000050 9b 3e 74 3f 85 a7 4a 3f 99 1f 6e bd a2 af b1 3a
       0.9540803 0.79161865 -0.058135603 0.0013556371
000060 f5 b3 c3 3f ca 53 6c 3f 01 a7 41 3d 1b 91 5d bc
       1.5289294 0.9231535 0.047278408 -0.013523365
000070 d3 8a 10 40 ae 7e 93 3f 60 14 a1 bc 8f c4 6e 3e
       2.2584732 1.1523035 -0.019663036 0.23317169
000080 7e 67 0a 3d cf 35 82 bc 0f d2 ea 3b 43 0c e6 bc
       0.033790104 -0.015894799 0.007166154 -0.028082019
000090 8d bb 4a 3f fb 7f 80 3c b6 17 2c 3d d1 88 1d 3f
       0.7919243 0.015686026 0.0420148 0.6153689
0000a0 e9 37 d8 3f 18 02 b6 bc 36 7f 2c bd 50 b3 e5 3c
       1.6892062 -0.022217795 -0.042113505 0.028039604
0000b0 09 54 fe 3a 0e a3 37 bd 7a 9e b8 3b 6b 2c a3 3f
       0.0019403707 -0.044833235 0.0056341263 1.274793
0000c0 e9 1b cd bb 21 91 49 bd 58 51 ad 3f 59 63 2c 3d
       -0.0062594307 -0.04921067 1.3540449 0.042086933
0000d0 35 1f 90 3f 04 31 87 bd 14 46 53 bd b4 ba 55 3e
       1.1259524 -0.06601146 -0.051580504 0.20872003
0000e0 ed d6 c5 bc 27 97 79 bd e6 b4 68 bb 88 12 ff bc
       -0.024150336 -0.060935166 -0.0035508214 -0.031136766
0000f0 41 29 a5 3f e0 78 be bc 77 c1 a8 3e 92 0c 91 3f
       1.2903215 -0.023250997 0.32960102 1.1331961

conv3.weight f4 [128, 64, 3, 3]
000000 b5 28 14 bc b4 b6 db bc 7c d0 c6 bb eb 7f d8 bc
       -0.009042908 -0.026820518 -0.0060673337 -0.026428184
000010 71 24 17 3b e5 8d ee 3c ce a6 8e bc f7 98 c0 bb
       0.0023062492 0.029120395 -0.017413523 -0.00587761
000020 a7 af f4 bb ff eb 64 bc e8 e5 ed bc ff f4 29 3c
       -0.0074672285 -0.0139722815 -0.029040292 0.010373353
000030 5f ad 74 bb 97 e2 ff 3a 67 8e 32 bc bf 1a db bc
       -0.0037334783 0.0019522485 -0.010898209 -0.026746152
000040 45 6b 7c bc 5f ef ad 3c 86 60 ea 3c 66 a1 5d bc
       -0.015406434 0.021232305 0.02861048 -0.01352725
000050 18 37 b1 3c 3f b4 c5 bc 34 65 29 bb 31 ea 1a bd
       0.021632716 -0.0241338 -0.0025847675 -0.037821
000060 e2 d5 c5 bb e4 89 43 3c fb 72 ce 3c b6 e5 6e 3c
       -0.0060374597 0.011934731 0.025201311 0.014581135
000070 45 08 a1 3c 08 77 12 bc 3f dd 27 3d 68 91 0d bd
       0.019657264 -0.008939512 0.04098248 -0.0345625
000080 6a d2 19 bc bb 41 d6 bb c4 59 e5 3c fb 1f 05 3c
       -0.0093885455 -0.0065385974 0.027996905 0.0081253005
000090 2e 99 26 3d a9 62 e6 bc 4a 84 62 3c 31 8f 0f bd
       0.040673427 -0.028123217 0.0138254855 -0.035048667
0000a0 29 23 58 3c cc c9 9c bc 0f c4 95 bc 5a ac 95 3b
       0.013191977 -0.019139193 -0.018281965 0.004567665
0000b0 e9 35 87 3b fa fe 27 3d 47 95 08 3d e9 42 09 3b
       0.0041262996 0.04101465 0.033345487 0.0020944423
0000c0 4b ff 67 3c c0 7c 0b 3c 4a 6f 13 bc 84 5d f7 bc
       0.014159988 0.008513629 -0.008998701 -0.030195959
0000d0 8b 64 09 bd 04 78 81 3b f5 69 86 bc e7 4b 1b 3d
       -0.03354315 0.0039510746 -0.016407946 0.037914183
0000e0 60 5d 97 bc 88 ab 36 3c d1 6d a6 bc 1d 35 29 3d
       -0.018477142 0.011149295 -0.020316036 0.04131042
0000f0 60 1d 91 3c 0e 20 ba 3c f9 65 36 3c 02 84 f2 bb
       0.017714202 0.022720363 0.011132711 -0.0074009905
000100 3c d2 7e bc e7 34 a3 bc 51 ba 17 bd 94 36 05 bc
       -0.0155530535 -0.019922687 -0.03704292 -0.008130688
000110 50 d3 92 bc 86 bf 16 3d 1c 83 1e 3d 97 79 e9 bc
       -0.017923027 0.036803745 0.038699254 -0.028500361
000120 c8 ab 1d 3b 9c 89 0c bd 32 8a a1 3c d0 f2 fc 3c
       0.0024058688 -0.034310922 0.019719217 0.0308775
000130 23 e5 c6 bc 42 4d f6 bc fc 27 04 bc 51 79 07 3d
       -0.024279183 -0.030066136 -0.008066174 0.03307468
000140 59 b2 eb 3c 52 34 b7 bc f0 4b b7 3a 30 af 04 bd
       0.028771566 -0.022363815 0.0013984423 -0.032393634
000150 52 6f 1d 3d b4 10 91 3c 8a ff 8d bc d7 25 97 3c
       0.03843624 0.01770816 -0.017333765 0.01845066
000160 e4 86 23 3b 44 0c cf bc 8a 1d 25 bd d6 4a d1 3c
       0.0024952227 -0.025274403 -0.040311374 0.02554838
000170 cd 50 ff bc 83 7f e1 3c f6 12 4c bc 08 0a c3 3c
       -0.031166459 0.027526623 -0.0124556925 0.023808494
000180 f4 6a 8c 3c af e7 d3 3c 3a 22 98 bc 63 79 a7 3c
       0.017140843 0.025867311 -0.018571008 0.020443624
000190 ff 34 20 3c 77 9e 26 3a 87 4b de b9 f8 67 17 3a
       0.00977826 0.00063560106 -0.00042399412 0.00057756854
0001a0 81 25 c6 3c 0c 1b ca 3c 4a 33 7e bc c5 d5 82 ba
       0.024187805 0.0246711 -0.015515158 -0.0009981921
0001b0 70 17 19 bc 16 c7 75 bc 43 08 96 3c cf ba 1d 3d
       -0.009343967 -0.015001079 0.018314486 0.038508233
0001c0 13 73 ac 3c 60 82 2b bc 08 3c cc 3c 75 55 25 3d
       0.021050965 -0.010468096 0.024930969 0.0403647
0001d0 11 36 33 3c 23 ee 12 3d 54 1b 4e 3c 71 f5 16 bc
       0.010938183 0.035871636 0.012579758 -0.009213791
0001e0 db de 56 3c 7d be 16 3c f3 de 3a 3c e7 9b 34 bc
       0.013114656 0.009200689 0.011405694 -0.011023498
0001f0 68 4a 00 bd 05 30 21 bd 71 35 dc bc e6 21 ce 3c
       -0.03132096 -0.039352436 -0.026880952 0.025162648
000200 94 40 23 bc 1d 6e 0a bd 00 cb 01 3d c6 d7 1c bd
       -0.009964127 -0.03379642 0.031687737 -0.038291715
000210 be e7 f3 3b 72 29 13 3d aa ec a9 bc 63 20 c4 ba
       0.0074433973 0.035928197 -0.020742733 -0.0014963265
000220 b2 7c 26 3d b1 18 0f 3d c7 ae ef 3c 4f 12 04 bc
       0.040646262 0.034935657 0.029258145 -0.008061006
000230 b7 eb c4 3c 2a 1d 85 3c 3c 96 ea 3a 5e 6a 1b 3d
       0.024038179 0.016249258 0.0017897557 0.037943237
000240 4c 70 41 3c 26 24 d5 3c ed 4e 01 bd d1 df 4c 3c
       0.011806559 0.026018213 -0.03156941 0.012504534
000250 f5 65 1d bd 30 8c e2 3b 6c 98 36 3c ee f4 c9 3c
       -0.038427312 0.0069136843 0.011144739 0.024652924
000260 51 07 b5 3c e6 37 98 bc 56 db ca 3c 41 57 2a bd
       0.022098215 -0.018581342 0.02476279 -0.041587118
000270 76 ea 0d 3d 3d dd a3 3c 63 e2 d1 bb 9d 53 48 3c
       0.034647427 0.020002956 -0.006405161 0.012226966
000280 80 0a bc 3c b6 e1 08 bd 1f 87 dd 3c 5d c3 4b 3c
       0.022954226 -0.03341838 0.02704197 0.012436715
000290 cf 19 26 3d 71 81 f0 3a 2d 4f 88 3b b6 f9 1c 3c
       0.040551957 0.0018349123 0.004159829 0.00958102
0002a0 f9 08 0a 3d 30 29 0e bd 7a b9 bc 3c 32 37 b8 3c
       0.033699963 -0.03470725 0.02303766 0.022487257
0002b0 79 72 9d bb 61 a9 f3 bc 5f 6f fc 3c 9c e5 c4 3c
       -0.004804906 -0.029743852 0.030814825 0.024035268
0002c0 1a 71 33 bc 0f 90 c7 3b e6 3a 63 bc 03 ed a2 bc
       -0.0109522585 0.006090171 -0.013869023 -0.019888407
0002d0 90 8a 24 3d 37 e4 7f 3c c2 ef c9 3a d7 27 d1 3c
       0.040171206 0.0156183755 0.0015406536 0.025531692
0002e0 0a 3d dd 3c b6 91 af 3c 9c 31 92 3c 8a 2e 02 bd
       0.027006645 0.021431785 0.017845921 -0.031782664
0002f0 75 f0 8d bc 80 58 0a 3d 4a 20 42 3c a0 1e 2e 3c
       -0.017326573 0.033775806 0.011848519 0.010627419
000300 1b c0 e5 bc ee f1 a8 bc f2 e8 85 bc dd 5d 9d 3c
       -0.028045705 -0.020623174 -0.016346429 0.019209797
000310 9f 0f 8e bc d3 09 00 3d 81 f7 f2 bc 4f dc ed bb
       -0.017341433 0.03125937 -0.029659035 -0.007258929
000320 3d 76 10 3d d0 e0 8f bc 99 75 2c 3a 08 22 4a bc
       0.03526901 -0.017563254 0.0006578803 -0.012337215
000330 af 15 70 3c 89 af ac bc 70 3b 01 bd 32 88 80 bc
       0.014653607 -0.021079795 -0.031550825 -0.015689943
000340 5d 97 89 3c 0e 24 31 bc 29 e7 02 bd 8a 8c 0e bc
       0.016795808 -0.010811819 -0.031958733 -0.008700499
000350 8b fc 94 bc d7 dd 0d 3d f6 97 c6 bb 02 6e 97 3c
       -0.018186828 0.03463539 -0.0060605956 0.018485073
000360 be 88 1b 3d 3b 90 ff bc 3f a0 65 3c ab cb 81 3b
       0.037972204 -0.031196704 0.014015256 0.0039610467
000370 5b f0 09 3d 6f f5 b1 b9 5b ae 31 3c ef 6a 2c bd
       0.033676486 -0.00033942933 0.010844792 -0.042094167
000380 50 15 1e 3d 6b 98 07 bd b7 51 f1 3c fb 70 ea bc
       0.038594544 -0.03310434 0.02945791 -0.028618326
000390 5f 73 fa 3b 24 0f 4d ba 14 a0 f4 3c f9 7e 23 bd
       0.007643148 -0.00078223855 0.029861487 -0.039916012
0003a0 de 5f 0a 3d 01 da 20 3d 6b 8b 43 3c e3 26 1d 3d
       0.033782832 0.039270405 0.011935095 0.038367163
0003b0 5b 62 09 3d 21 f5 f4 3a 70 81 bf 3c 27 58 35 3b
       0.033541065 0.0018688777 0.02337715 0.002767095
0003c0 f0 2c 25 3c 22 82 ed bc 1f 93 39 bc e3 cc b9 bc
       0.010081515 -0.028992716 -0.01132658 -0.022680705
0003d0 80 f0 c8 bc 20 6c d9 bc 48 9a 91 bc 16 24 ee 3b
       -0.024528742 -0.026540816 -0.017773762 0.0072674854
0003e0 d6 c0 a3 ba d0 9f 99 3c bb 67 95 3c 10 b6 3f bc
       -0.0012493383 0.018752962 0.01823794 -0.011701122
0003f0 6c 29 db 3c 33 05 01 bd 5a 61 d5 bc e1 24 1c 3d
       0.02675315 -0.0314991 -0.026047397 0.038121108

conv3.bias f4 [128]
000000 c7 29 d8 3c 60 e4 0a bd c8 84 b6 3e ba d0 07 3c
       0.026387108 -0.0339092 0.3564818 0.00828951
000010 56 63 b9 bc 98 55 90 3e 45 4b 38 3e 14 12 1e bd
       -0.022630375 0.28190303 0.17997463 -0.03859146
000020 9d b3 2f bc ac dd bf ba 82 37 aa 3e c8 a5 86 bc
       -0.0107239755 -0.0014638207 0.33245474 -0.016436473
000030 54 a5 08 bd 37 1e 03 bd 67 0f 56 3c 79 a9 90 3c
       -0.033360794 -0.032011237 0.013065196 0.017658936
000040 69 bd 30 bb 6e d7 90 3e 4e cd 13 3b 4f 17 1b 3c
       -0.0026968366 0.2828936 0.002255279 0.009466006
000050 f1 c8 c1 bc 31 93 80 3e d7 cf 74 3c f3 b2 e8 bc
       -0.023655387 0.25112298 0.014942131 -0.028405642
000060 dc 08 06 3d cd 8e 34 3e c6 2e b1 3b c8 c0 f2 3b
       0.032723293 0.17632599 0.005407187 0.007408235
000070 f5 df f4 bc dc 96 80 bc 8f d5 31 3e 39 4b 75 3e
       -0.029891947 -0.015696935 0.17366622 0.23954476
000080 49 ad f8 3d 0b 6e a0 3e a3 04 5a 3e 55 7e 97 3e
       0.121424265 0.31333956 0.21290831 0.2958857
000090 c6 b9 19 3c 5f db 0c 3e a8 54 2b 3b 3e 4f f7 3c
       0.009382671 0.13755558 0.0026142988 0.030189153
0000a0 18 1c b6 3e a4 bd 8a 3e a2 bc e6 3c e0 a0 4b 3c
       0.3556831 0.2709781 0.028166119 0.012428492
0000b0 17 0f 60 bc 1c 6a de 3d 43 bd 20 3d 0f 9c 97 3e
       -0.013675473 0.108600825 0.039242994 0.2961125
0000c0 d9 22 94 3e cf ef a3 3d c9 2e ec 3b dd 40 09 bd
       0.28932837 0.08004724 0.0072077257 -0.033509124
0000d0 a1 45 07 3c d7 4a 8e bc fd bd e5 bc 9b 81 1e bd
       0.008256347 -0.01736967 -0.028044695 -0.03869782
0000e0 58 d7 ba 3e 0e 2c 45 3e 0f 12 1d bc 64 e5 05 bd
       0.3649242 0.19255087 -0.009586825 -0.032689467
0000f0 58 cf d6 38 cd 56 82 3d 9d 98 b3 3d d6 54 8c bc
       0.00010242936 0.06364212 0.08769343 -0.017130297
000100 92 11 a6 3d 81 c6 09 3c 2a 87 c7 bc c4 99 9b bc
       0.0810882 0.008409143 -0.024356443 -0.01899422
000110 f8 e6 95 3c 34 65 2e bd 8c dd a3 3e 8b 7c 81 3c
       0.018298611 -0.042576984 0.32004964 0.015806457
000120 80 70 cc bc 6c 28 c6 bc 45 b9 8f 3e bd 16 02 bc
       -0.024955988 -0.024189197 0.28071037 -0.007939992
000130 59 68 8c 3b 61 a1 01 3d ff 86 c1 3d 69 c1 03 bc
       0.0042849 0.031648044 0.094495766 -0.008041718
000140 b8 11 4a 3e 30 3e ce 3d af fd 70 3c d2 eb a1 3e
       0.19733322 0.10070455 0.01470892 0.3162523
000150 4e 7e 27 bd 80 7d 0b bd 55 b1 d5 3d 6c 7a 40 3c
       -0.040891938 -0.034055233 0.10434214 0.011747938
000160 14 b6 88 3e ca cd 23 3d c4 d3 b2 bc 2d 42 37 3e
       0.26701415 0.039991178 -0.021829493 0.17896338
000170 a6 6c 00 3d d8 25 be bb 68 6a f9 bc db b9 96 3e
       0.031353615 -0.005802851 -0.030446246 0.2943867
000180 9f 9a a4 3e a6 b4 bd 3e 07 9c cf 3d 13 58 6e 3e
       0.32149217 0.37051886 0.10137182 0.23275785
000190 0c 35 9e 3e 6b 24 9c 3c cc 53 10 3e eb 40 af bb
       0.30899847 0.019060334 0.14094466 -0.005348315
0001a0 11 06 b7 3b de a5 9f 3e d9 ac ab 3e 73 10 10 bc
       0.00558544 0.31181234 0.3353031 -0.008792984
0001b0 4e 4f 0d 3d 79 1d c1 bb db d9 99 bc df 9f 79 3e
       0.03449946 -0.005893406 -0.01878064 0.24377392
0001c0 46 e8 f5 3c 16 41 4d 3e 91 83 6b 3e bb 4a 76 3e
       0.030017983 0.2004436 0.22999407 0.24051945
0001d0 87 f6 0e bd 65 23 97 bc ed c6 b3 bb 81 b1 d6 3c
       -0.034903076 -0.018449495 -0.0054863603 0.026207687
0001e0 4c 0e a0 3e 28 41 5f 3e ea 67 a5 3e da 9e e6 3c
       0.31260908 0.21802199 0.32305843 0.028151918
0001f0 22 3c a8 3c 41 8a fc 3d b9 f2 00 3c 4c f4 75 3e
       0.020536486 0.12331057 0.00787037 0.24018973

fc1.weight f4 [6, 128]
000000 22 ac 49 bd ef ff 9e 3d 7a 9a 0c 3e b3 24 82 3c
       -0.049236424 0.07763659 0.13730803 0.01588664
000010 be 4f 0c bc fa e4 ba 3d 11 a4 e4 3d 94 5d 71 bc
       -0.008563934 0.09125705 0.11164106 -0.014731783
000020 41 c5 63 3d 14 19 1b bd 6e a5 bd 3d b8 85 00 3d
       0.055608038 -0.037865713 0.09260069 0.031377524
000030 a1 b1 72 bd 15 ed a4 bd ac dc a4 3d d0 ec b4 3d
       -0.05925143 -0.08053032 0.08049902 0.08834231
000040 6a 31 68 bc 08 4b f2 3d 49 11 8b 3a ee 52 90 3d
       -0.0141719375 0.11830717 0.001061001 0.070470676
000050 f2 76 83 bd 94 f0 d7 3d 41 69 9f bd e8 99 16 bd
       -0.064191714 0.105439335 -0.077837475 -0.03676787
000060 25 69 89 3d 61 a1 c8 3d ab b6 f2 3c cd 20 60 3d
       0.06709508 0.097964056 0.029628119 0.05471878
000070 93 50 3a bd 21 4e ad bd fb b9 3d 3d 09 39 c8 3d
       -0.045486998 -0.084621675 0.046319943 0.097765036
000080 7b 83 03 3d 5e b7 06 3e 54 b8 ad 3d f7 df 0e 3e
       0.03210781 0.13155887 0.084824234 0.13952623
000090 fc 4e a3 bd b6 9f ba 3d d4 a9 2d bd e4 33 8d 3d
       -0.079740494 0.09112494 -0.04239829 0.06894663
0000a0 58 58 d5 3d 33 ff ff 3d 13 b7 3f bd 41 f4 1f 3d
       0.10417241 0.12499847 -0.046805453 0.039051298
0000b0 cc 58 90 3d e4 c2 06 3e b6 73 bd 3c 56 6b e0 3d
       0.07048187 0.13160282 0.023126464 0.10957973
0000c0 17 54 d9 3d f4 be ff 3d 66 bf 16 bd d1 6e b7 3c
       0.10611742 0.12487593 -0.036803626 0.022391709
0000d0 6c 7e 53 bc fc 8a a0 bd ff 8d 8d bd 0a 28 f4 3c
       -0.012908559 -0.07839009 -0.06911849 0.029804248
0000e0 2d 46 ee 3d cd 44 cb 3d c2 6a 30 bd 4c ea 46 3c
       0.11634479 0.09925232 -0.043070562 0.012140822
0000f0 f0 2d 36 3d d8 3c ca 3d 3d ae 1e 3d 46 54 56 3d
       0.044477403 0.09874886 0.038740385 0.052326463
000100 d6 ed 63 3c d0 8c 24 bd 64 00 1d bd 46 70 96 bd
       0.013911685 -0.04017335 -0.03833045 -0.07345633
000110 82 97 92 3d 10 2d b9 3c 46 a9 ff 3d 46 38 8c 3d
       0.07157804 0.022604495 0.12483458 0.06846671
000120 58 21 18 bd 12 a3 69 bc ad bb e2 3d 9d 8b a8 3d
       -0.037141174 -0.01426007 0.110709526 0.08229754
000130 5f f4 b1 3d 07 a2 01 3d cd 57 6a 3d 55 75 11 bd
       0.08689188 0.031648662 0.05721264 -0.035512287
000140 70 d8 e8 3d dd 03 c9 3d 24 95 2b bd 88 60 03 3e
       0.11369407 0.0981519 -0.04189028 0.12829792
000150 f5 34 43 bd 75 13 0c bc d5 7d e4 3d e1 1f 9b 3b
       -0.047657926 -0.008549561 0.11156813 0.004734025
000160 41 10 03 3e da eb cc 3d 9e 16 d9 bc 04 22 c1 3d
       0.12799169 0.100059226 -0.026500043 0.09430316
000170 3b 34 2d 3d 7a 11 b8 bc bc dd 97 bc 36 8f c7 3d
       0.04228614 -0.022469271 -0.018538348 0.09744112
000180 a3 ca 05 3e 62 c5 03 3e 6b 0d ac 3d 67 bb dc 3d
       0.13065581 0.12868264 0.08400997 0.10777932
000190 c5 92 f7 3d c8 be 85 3d 20 7f fa 3d 22 d1 90 bd
       0.12088541 0.06530529 0.122312784 -0.07071139
0001a0 da 07 84 bc 12 e6 f4 3d f7 c7 eb 3d 0b 8a 83 bd
       -0.016117025 0.11957945 0.1151275 -0.06422814
0001b0 08 81 b2 3d 54 43 a4 3d b4 c8 71 3d 5c 16 fa 3d
       0.08716017 0.08020654 0.059029296 0.12211296
0001c0 3a 95 90 bd cb 46 f4 3d 51 8d 08 3e 05 1f 0e 3e
       -0.07059713 0.11927565 0.13335158 0.1387902
0001d0 6a 0d 1e bd 05 a9 31 38 b6 ce 9d 3d 31 98 87 3d
       -0.03858701 4.23575e-05 0.077054426 0.06620825
0001e0 d8 85 01 3e 11 92 d5 3d d4 8e f7 3d 55 34 1c 3b
       0.12648714 0.104282506 0.12087789 0.0023834903
0001f0 cb 26 2a 3d 8f 0d d9 3d e0 4f 06 bd 5e 52 e3 3d
       0.041540902 0.10598289 -0.03279102 0.11099695
000200 0a c2 e4 bc 18 52 29 bd cd c6 36 3e 96 f5 2f bd
       -0.027924556 -0.041338056 0.17849274 -0.04295882
000210 52 28 c7 3c 22 b9 0a 3e 59 17 4a 3e 2b 7f a2 bd
       0.024311218 0.13547185 0.19735469 -0.079344116
000220 93 27 9c 39 be 52 15 bd 88 77 01 3e 99 f1 77 3c
       0.00029784124 -0.036455862 0.12643254 0.015133285
000230 08 53 89 3d f6 4e 08 3d c3 44 9d bc 7f 8a 69 bd
       0.0670529 0.033278428 -0.019197827 -0.057016846
000240 a4 3e 8f 3d 32 17 27 3e 13 ec 42 3d 6a b0 f6 3c
       0.069943696 0.16317442 0.04758842 0.030113418
000250 7d 58 11 3c b5 c3 1d 3e 91 6e 45 bb 51 0c 2a bd
       0.008871195 0.15406688 -0.0030125717 -0.041515652
000260 e1 a3 90 ba e3 24 f3 3d 5c 27 da 3d 61 c8 8e bd
       -0.0011035168 0.1187227 0.106520385 -0.06971813
000270 4c 8c 99 bd af 21 0e 3a e5 63 0f 3e fd dd ff 3d
       -0.07497463 0.00054218894 0.1400295 0.12493513
000280 c7 03 7d 3d 43 ae 3c 3e fe a1 13 3e 68 25 47 3e
       0.06177118 0.1842585 0.14417264 0.19447863
000290 9b c8 63 bd 10 5f 1b 3e 4b 2f 1b 3d c3 fc 36 3d
       -0.055611234 0.15172982 0.0378869 0.044674646
0002a0 27 72 02 3e 13 67 2f 3e cc 7c 65 bd a5 c5 71 3d
       0.12738858 0.17129163 -0.05602722 0.05902638
0002b0 4d 45 47 bd 09 71 fb 3d 1f 11 1f bd f6 15 13 3e
       -0.048650075 0.12277419 -0.038834687 0.14363846
0002c0 30 7e 05 3e 48 13 58 3d 59 1e c2 3c 3c 7c 8d 3c
       0.13036418 0.052752763 0.023696112 0.017271154
0002d0 f4 41 45 bc ce 12 fe bc 00 9d 82 bc fa 82 e4 3c
       -0.01203965 -0.031014826 -0.015944004 0.027894486
0002e0 a7 21 23 3e 20 e4 10 3e d0 c2 63 3d 61 df 2a 3d
       0.15930806 0.14149523 0.05560571 0.041716937
0002f0 78 83 7b 3d d6 cb ae 3d ea 97 25 3e 4b 19 7c 3d
       0.061404675 0.08534972 0.16171232 0.06154756
000300 37 b0 e0 3d 49 b4 69 bd ff 82 aa bd bf b0 89 bd
       0.1097111 -0.0570567 -0.08325767 -0.06723165
000310 b5 d3 6f bd 6a 3e fa bc ee 3e 2a 3e 4a 35 19 3c
       -0.05855151 -0.03054734 0.16625568 0.009351084
000320 68 89 a7 bd 3c 5a 44 3c 7e cf 2f 3e 94 21 4c bd
       -0.08180505 0.011984404 0.17168996 -0.04983671
000330 77 d7 24 3d db 96 16 bd 34 25 16 3e 95 67 a1 3d
       0.040244546 -0.03676496 0.1466263 0.07881085
000340 85 89 db 3d 66 74 0e 3e dc 3d 04 3d b8 e7 26 3e
       0.10719589 0.1391159 0.032285556 0.16299331
000350 8f 94 55 3d 25 20 2e 3d 0c 0e 91 3d 54 53 bd 3b
       0.05214363 0.042511124 0.07082757 0.0057777558
000360 8f bf 3c 3e 48 37 d5 bb 6e 7f 83 bd 1e 98 40 3e
       0.18432449 -0.006506834 -0.0642079 0.18808028
000370 1f 15 a6 3c b1 c2 a2 3b 32 40 8c 3d 80 14 03 3e
       0.020273743 0.0049670567 0.06848182 0.12800789
000380 1d bc 36 3e 72 6b 2f 3e fb 6c 12 3e 24 81 22 3e
       0.17845197 0.17130831 0.14299385 0.15869576
000390 a5 07 21 3e b1 3d 49 bd 54 70 45 3e 52 e3 13 bb
       0.15725572 -0.0491311 0.19281131 -0.0022565913
0003a0 9e 53 de bb b8 67 1d 3e fb a5 1d 3e 8d 21 c7 3b
       -0.0067848703 0.15371597 0.15395348 0.0060769976
0003b0 3e c5 f5 bc 3c 04 42 bb 3b 07 9b 3d 6f 5a 24 3e
       -0.030001279 -0.0029604575 0.075697385 0.16050123
0003c0 a0 74 2c bd 31 ed 0f 3e 78 e8 3f 3e 11 28 2b 3e
       -0.04210341 0.14055325 0.18741024 0.16714503
0003d0 e1 15 0e 3c 07 00 9d 3d 08 26 a2 bd 06 ce 3e 3d
       0.0086722085 0.07666021 -0.0791741 0.046583198
0003e0 12 cc 35 3e d4 9e 39 3e 5a c5 22 3e 7f cd 94 ba
       0.17753628 0.18126994 0.15895596 -0.0011352747
0003f0 73 bf b6 3c 33 be 1f 3d d1 b3 77 3d 5f 7a 2b 3e
       0.022308087 0.038999747 0.06047422 0.167459

fc1.bias f4 [6]
000000 39 bd 1b 3f 69 1a 50 3f 35 84 3b 3f 43 7c 4b 3f
       0.60835606 0.812903 0.73248607 0.79486483
000010 b1 e3 38 3f 46 d2 76 3f
       0.7222243 0.964146
