models/convNN2_ll_training_25-75_split.txt.pt (torch, 384591 bytes, 8 tensors)

conv1.weight f4 [32, 3, 5, 5]
0	0x3da03241	0.07822085
1	0x3da56d20	0.080774546
2	0xbd3aa6e5	-0.04556932
3	0x3dae677f	0.08515834
4	0xbd43a859	-0.04776797
5	0x3c54d116	0.012989303
6	0xbd93553f	-0.07193994
7	0x3d47a047	0.048736837
8	0x3da28f9b	0.07937547
9	0xbde01f22	-0.10943438
10	0x3db92fe9	0.09042341
11	0x3bd87078	0.006605204
12	0x3d881c51	0.06646026
13	0xbbf24977	-0.0073940116
14	0x3cfc4388	0.03079392
15	0xbcd89296	-0.026437085
16	0x3d989478	0.07450193
17	0xbb02c339	-0.0019952788
18	0xbd9e9795	-0.07743756
19	0x3b8af5a5	0.004240709
20	0xbd81011f	-0.06299042
21	0xbce1d8fb	-0.027569285
22	0xbd8556c5	-0.065106906
23	0x3d5eb022	0.054367192
24	0xbdebba94	-0.11510196
25	0xbdaa9457	-0.08329075
26	0xbd8a1472	-0.06742181
27	0xbddb6429	-0.107124634
28	0xbcec1d7d	-0.028822655
29	0xbe1e5703	-0.1546288
30	0x3d972b60	0.0738132
31	0xbe08f544	-0.13374811
32	0x3d4f60ec	0.05062954
33	0xbcb652f1	-0.022256346
34	0xbda4df67	-0.08050423
35	0x3d292ce2	0.04130257
36	0xbc8a2b9b	-0.016866496
37	0x3d619b13	0.05507953
38	0xbcf00b45	-0.029302249
39	0xbda302a5	-0.07959489
40	0x3a6a32e4	0.0008933975
41	0xbd8673e1	-0.06565071
42	0x3c286ce8	0.0102798715
43	0x3d7913a0	0.06080973
44	0x3cbfa01e	0.02339178
45	0xbda3c592	-0.07996668
46	0x3d07f305	0.033190746
47	0xbc870839	-0.016483413
48	0x3c92589c	0.017864518
49	0xbde5d5ac	-0.11222395
50	0xbe15b7ad	-0.14620848
51	0xbda6247c	-0.081124276
52	0xbe02c791	-0.12771441
53	0x3d5c3032	0.0537569
54	0xbc07645d	-0.008263675
55	0x3c7dba4e	0.015486313
56	0xba70f523	-0.00091918017
57	0xbd2c4bfb	-0.042064648
58	0x3d4289d2	0.047494717
59	0xbe013115	-0.1261638
60	0xbcc9313d	-0.024559611
61	0xbdec5975	-0.115405
62	0xbb84b7af	-0.004050217
63	0xbdaa37f1	-0.08311451
64	0xbc0fe801	-0.008783341
65	0xbd6586f5	-0.05603691
66	0x3d7474c1	0.059681658
67	0xbddde743	-0.10835125
68	0xbde6f8ae	-0.11277901
69	0xbde842a6	-0.11340837
70	0x3d952359	0.07282133
71	0x3b63a4ac	0.0034735603
72	0x3d94e6d5	0.0727059
73	0xbe0caede	-0.13738582
74	0xbe211119	-0.15729178
75	0xbdb903e2	-0.09033944
76	0xbd9f1437	-0.077675276
77	0x3d3f926b	0.046770494
78	0x3d295f1c	0.04135047
79	0x3dc48221	0.095951326
80	0xbd743e97	-0.059630003
81	0xbda13671	-0.07871712
82	0x3d7af24a	0.06126622
83	0xbd3f2c48	-0.04667309
84	0x3d8f877c	0.070082635
85	0xbce07662	-0.0274002
86	0x3d87476e	0.06605421
87	0xbdb7bd34	-0.089716345
88	0xbd6eae4c	-0.05827169
89	0x3d1032b0	0.03520459
90	0x3cc7fcbf	0.02441251
91	0xbcf12b80	-0.029439688
92	0x3d8cf60e	0.06882869
93	0x3da0c373	0.07849779
94	0xbdab7d98	-0.083735645
95	0xbd7c7f6a	-0.06164495
96	0x3dd88a2d	0.1057323
97	0xbd1f980d	-0.038963366
98	0xbd27ace6	-0.040936373
99	0xbde4d1a1	-0.11172796
100	0xbd876d35	-0.066126265
101	0x3cec4c0c	0.028844856
102	0xbc79b5e0	-0.015241116
103	0xbdaba753	-0.08381524
104	0x3b31c860	0.002712749
105	0xbda18899	-0.07887382
106	0xbdc8a188	-0.09796435
107	0xbd8238d8	-0.06358498
108	0xbdcef8e4	-0.10106066
109	0xbd96937a	-0.07352348
110	0x3dec644c	0.115425676
111	0x3cb2a9a0	0.0218094
112	0x3d11bfd9	0.03558335
113	0xbddc9047	-0.10769706
114	0xbd9b50c5	-0.07583765
115	0xbd1d6c9d	-0.03843366
116	0x3c93eb48	0.018056527
117	0xbdd015d4	-0.101604134
118	0xbd4bc993	-0.049752783
119	0xbd8d931e	-0.06912826
120	0x39a81891	0.0003206176
121	0xbd2ffd24	-0.042966023
122	0xbc0319d6	-0.008001765
123	0xbda03fc7	-0.078246646
124	0xbda2520f	-0.07925808
125	0xbd89f6e8	-0.06736547
126	0xbd21e508	-0.03952506
127	0xbdbaa6b9	-0.09113831
128	0x3dc64a34	0.09682122
129	0xbcbbb2cb	-0.022912404
130	0x3dcb78ea	0.09935172
131	0x3d135e24	0.03597845
132	0xbdc840b1	-0.09777964
133	0x3da3a78d	0.07990942
134	0xbd0221a3	-0.03177036
135	0xbd354bd6	-0.044261776
136	0xbdc44c18	-0.09584826
137	0xbdeb19fc	-0.114795655
138	0x3d075217	0.03303727
139	0xbccea193	-0.025223529
140	0x3d382446	0.044956468
141	0xbdc2126e	-0.094761714
142	0x3daf928e	0.08572875
143	0xbdad973b	-0.084761105
144	0xbca35653	-0.019938624
145	0x3cc594cf	0.024118809
146	0x3d742c26	0.059612416
147	0x3dbeea11	0.093219884
148	0x3dd76cb9	0.10518784
149	0xbdbb8327	-0.09155875
150	0x3cf4abe1	0.029867114
151	0xbd48528b	-0.048906844
152	0xbc433628	-0.011914767
153	0xbdaf8ea6	-0.0857213
154	0x3dd8bc54	0.10582796
155	0xbdabed11	-0.08394826
156	0x3d7fe7c0	0.062476873
157	0x3d295545	0.041341085
158	0x3d1cbc17	0.038265314
159	0xbd7cf707	-0.06175902
160	0x3dd88f74	0.105742365
161	0x3cd5e3ea	0.026109654
162	0x3c7f2a10	0.015573993
163	0xbdcef315	-0.10104958
164	0x3d492a0a	0.049112357
165	0xbc87c720	-0.016574442
166	0xbd55d16f	-0.052201685
167	0x3dcc940b	0.099891745
168	0x3cd8c1c4	0.026459582
169	0xbd817d46	-0.06322722
170	0xbd6c7e40	-0.05773759
171	0xbb9dda59	-0.004817289
172	0x3d857c95	0.06517903
173	0xbcebe88f	-0.028797416
174	0xbd859aaf	-0.06523644
175	0xbd1e22f9	-0.03860757
176	0xbdaed666	-0.08536987
177	0x3d2c4621	0.042059068
178	0x3db8c9cb	0.09022864
179	0xbddd01a6	-0.1079133
180	0x3ce3500e	0.027748134
181	0x3d780343	0.060549986
182	0x3cb2e6f7	0.021838648
183	0xbd24cf64	-0.040236846
184	0x3d7a3018	0.061081022
185	0x3d7c4b6f	0.061595377
186	0x3d346ae2	0.044047244
187	0xbc9f2f5a	-0.019431759
188	0xbcf3861d	-0.029727036
189	0x3c572d69	0.013133385
190	0xbc9fece7	-0.019522144
191	0xbd098a31	-0.033579055
192	0x3d98e52a	0.074655846
193	0x3dccfc0f	0.10009014
194	0xbc2e3001	-0.010631562
195	0xbcccf671	-0.025019856
196	0x3b24c386	0.0025140955
197	0xbbc665a2	-0.006054596
198	0x3cea5a2e	0.028607454
199	0x3d07c2cd	0.03314476
200	0xbdd627af	-0.10456788
201	0xbd2d7a46	-0.042352937
202	0x3dc7a29f	0.097478144
203	0x3d391678	0.045187443
204	0xbbb74ee3	-0.005594121
205	0xbd8df8e5	-0.069322385
206	0xbd9027c2	-0.07038833
207	0xbdd35161	-0.10318256
208	0xbd1936bc	-0.037405714
209	0x3d20619d	0.03915559
210	0x3d975b45	0.07390455
211	0x3d5b4c97	0.05353984
212	0xbdd09a31	-0.1018566
213	0xbd8dcd2b	-0.06923898
214	0xbc94384c	-0.01809325
215	0x3de54346	0.11194472
216	0x3c8a6bd6	0.016897123
217	0xbcf34e9d	-0.029700572
218	0x3d44883d	0.04798149
219	0xbd338448	-0.043827325
220	0xbd98a37e	-0.07453059
221	0x3dad02bb	0.084477864
222	0xbd5638da	-0.05230031
223	0xbcbbe734	-0.022937395
224	0xbdeaf2ff	-0.11472129
225	0x3d900b1b	0.07033368
226	0x3d9a948f	0.075478666
227	0x3ce4062e	0.027834978
228	0xbdc37427	-0.09543639
229	0xbe030003	-0.12792973
230	0xbdd2e18a	-0.102969244
231	0x3d94546f	0.07242667
232	0x3d23a271	0.039949838
233	0x3da6e141	0.081484325
234	0x3d3cb5ea	0.046071924
235	0x3c9f0a26	0.019414019
236	0xbc7eca24	-0.015551124
237	0xbdd46f64	-0.103728086
238	0xbdeb16b9	-0.114789434
239	0xbdfa701c	-0.122284144
240	0x3d1a5343	0.03767706
241	0xbd90cab7	-0.07069915
242	0xbd1dee7c	-0.038557515
243	0xbda6e3fa	-0.08148952
244	0xbd0c7d42	-0.034299143
245	0xbdb83e2f	-0.089962356
246	0xbdb43517	-0.087991886
247	0x3cca9c55	0.024732748
248	0xbd42abf5	-0.047527272
249	0x3d74ad4c	0.05973558
250	0xbd1d4bba	-0.038402297
251	0xbdb81e6c	-0.089901775
252	0xbcdb78d1	-0.026791008
253	0xbd7f166a	-0.062277235
254	0xbd249425	-0.040180344
255	0xbde7fb9d	-0.11327288

conv1.bias f4 [32]
0	0x3eb22c3a	0.34799367
1	0xbd8ba26e	-0.068180904
2	0xbd3cc034	-0.046081737
3	0x3e852213	0.2600256
4	0x3cb15fc0	0.021652102
5	0xbd457784	-0.048209682
6	0x3e3323e5	0.17494161
7	0xbe042852	-0.12906006
8	0xbdbfee68	-0.09371644
9	0x3e4fad71	0.20281006
10	0xbd818e72	-0.063259974
11	0x3e984aba	0.29744512
12	0x3f14c8d1	0.5811892
13	0xbd5fd488	-0.054646045
14	0x3dea0f56	0.11428706
15	0x3c553a5a	0.0130144
16	0xbda69b56	-0.08135097
17	0x3fa7c2f5	1.3106371
18	0xbd5e35c1	-0.054250482
19	0x3e99cd5f	0.30039498
20	0x3fa7d196	1.3110836
21	0xbd9d9c2c	-0.07695803
22	0x3f2c4496	0.67292154
23	0x3fdbdc6d	1.7176644
24	0x3f3b1910	0.7308512
25	0x3f2883ee	0.6582631
26	0xbbd7890f	-0.006577618
27	0xbc8d9f7a	-0.017287958
28	0x3fe953f9	1.8228751
29	0xbcdc2a47	-0.026875628
30	0x3a1b46d9	0.0005923338
31	0xbddf8e19	-0.10915775

conv2.weight f4 [64, 32, 3, 3]
0	0xbd44bbe0	-0.048030734
1	0x3d21bf51	0.039489094
2	0xbd157ffd	-0.036499012
3	0x3d40fd41	0.04711652
4	0x3bc12f32	0.0058955187
5	0x3c503a57	0.012709222
6	0x3d5d9e0f	0.054105815
7	0xbd08e39f	-0.0334202
8	0xbc2f4037	-0.010696462
9	0x3c2b0b8a	0.010439763
10	0x3ca4eaa1	0.020131411
11	0xbd6ae500	-0.057347298
12	0x3cab9101	0.020943167
13	0xbd0e5605	-0.034750003
14	0x3bfd9e33	0.007739806
15	0x3d234a77	0.039865937
16	0xbbc058c6	-0.0058699576
17	0xbaf45620	-0.001864139
18	0xbb8fb439	-0.004385498
19	0x3d497ccf	0.049191292
20	0x3d0943ed	0.033512045
21	0x3c22a63e	0.009927331
22	0xbd112c5c	-0.035442695
23	0xbd02fab4	-0.03197737
24	0x3d4054bf	0.04695582
25	0x3d2dba07	0.042413738
26	0x3d0bdab3	0.034144115
27	0xbd38e9fa	-0.045145012
28	0x3d3f67a3	0.046729695
29	0xbba3e1dd	-0.0050012902
30	0x3d3594ef	0.044331487
31	0x3d554dbe	0.052076094
32	0x3be8270b	0.0070847324
33	0xbcc26c4a	-0.023733277
34	0x3d65e191	0.05612332
35	0xbcf7ec0c	-0.030263923
36	0x3d1e4dd0	0.038648427
37	0xbd66bf8f	-0.05633503
38	0xbc9651a4	-0.018349476
39	0xbd51dce0	-0.051236033
40	0xbcd73001	-0.026268007
41	0x3cce8c10	0.025213271
42	0xbd2c660c	-0.042089507
43	0xbd5018b9	-0.050804827
44	0x3d2d5c93	0.042324614
45	0x3d0071ff	0.031358715
46	0xba4c52dd	-0.000779433
47	0xbd2a785a	-0.041618682
48	0xbc80a1da	-0.015702177
49	0xbc9d58ca	-0.019207377
50	0x3d14c0d7	0.03631672
51	0xbc9e8da0	-0.019354641
52	0xbc8bec80	-0.017080545
53	0xbd2b6692	-0.041845866
54	0xbcee8462	-0.02911586
55	0x3cfea613	0.03108505
56	0x3d19ea3a	0.03757689
57	0x3bf6ef8e	0.0075358814
58	0xbcb7be4a	-0.022429604
59	0x3d68ea70	0.056864202
60	0x3c33e786	0.010980492
61	0xbcbba842	-0.02290738
62	0xbca54053	-0.020172274
63	0xbbea0696	-0.0071418984
64	0x3cede858	0.029041454
65	0x3cb805b9	0.022463666
66	0x3d332dac	0.043744728
67	0xbacedafe	-0.0015781817
68	0x3d4b618e	0.049653582
69	0xbcbc95de	-0.023020681
70	0xbcd5fa85	-0.026120434
71	0xbcaaa0f5	-0.020828703
72	0xbd6283db	-0.05530153
73	0xbd1e82ce	-0.038698964
74	0xbd5a6e95	-0.053328115
75	0xbb652b07	-0.0034968273
76	0x3a0c9cf3	0.00053639634
77	0xbc7ab7a1	-0.01530257
78	0xbd2502b6	-0.04028579
79	0x3d5ae677	0.053442445
80	0xbca0055e	-0.01953381
81	0x3cd661eb	0.026169738
82	0x3d1ca829	0.038246308
83	0xbd2ee3a1	-0.042697553
84	0xbc0be51d	-0.008538512
85	0x3d03fc11	0.03222281
86	0x3d5e513c	0.05427669
87	0xbc0af34e	-0.00848086
88	0x3d2727cb	0.040809434
89	0xbd49249e	-0.049107186
90	0xbd1d14cd	-0.038349915
91	0x3d46432a	0.048403896
92	0xbbb780fd	-0.0056000934
93	0x3d6e2d3f	0.05814862
94	0x3b8ab752	0.0042332793
95	0xbcc867f4	-0.024463631
96	0x3d64ff5a	0.055907585
97	0x3d52d4c8	0.051472455
98	0x3bb24f81	0.0054416065
99	0xbd1db174	-0.03849931
100	0xbbbffca4	-0.0058589745
101	0xbd01b5c7	-0.031667497
102	0x3d20692b	0.039162796
103	0xbadfed25	-0.0017084224
104	0x3c0687f7	0.0082111275
105	0x3d026625	0.031835694
106	0x3c75ee52	0.015010433
107	0xbd26fbd6	-0.040767513
108	0x3d5700ec	0.052491114
109	0x3d23eea9	0.040022526
110	0xbd0673ee	-0.032825403
111	0x3d44e865	0.04807319
112	0x3ca6de20	0.02036959
113	0xbc08c9a0	-0.008348852
114	0xbd1fd473	-0.039020967
115	0xbbdb1545	-0.006685885
116	0xbd61a97d	-0.055093277
117	0x3d09c260	0.033632636
118	0x3d2ece39	0.042677138
119	0xbc8af970	-0.016964644
120	0x3d5fc0a1	0.054627065
121	0xbcb2bef1	-0.021819564
122	0x3c2553ac	0.01009075
123	0xbd283415	-0.041065294
124	0xbb2347d7	-0.0024914646
125	0x3cc32060	0.023819149
126	0x3ccd73b9	0.025079595
127	0xbb3271fe	-0.002722859
128	0xbcfd55c1	-0.03092468
129	0x3d2a5e54	0.041593865
130	0x3d2076a3	0.03917564
131	0x3c146a85	0.009058599
132	0xbcde1f3f	-0.027114509
133	0x3c4abad7	0.012373648
134	0xb9cc22da	-0.0003893588
135	0x3d5df9aa	0.054193176
136	0x3c16d667	0.009206391
137	0x3bb3e6a0	0.005490139
138	0x3b655868	0.0034995321
139	0x3cfc79f7	0.030819876
140	0xba442474	-0.00074822386
141	0x3d4b983d	0.049705733
142	0x3cf5d13c	0.030006997
143	0xbd36dc88	-0.04464391
144	0xb9b70b75	-0.00034913016
145	0xbd4f36e2	-0.05058945
146	0xbd3c15a6	-0.045919083
147	0x3c39d3dd	0.011342016
148	0x3c521d3b	0.012824352
149	0xbbbc09de	-0.005738481
150	0x3d65a61d	0.05606662
151	0xbd02aa90	-0.031900942
152	0xbccdc08d	-0.02511623
153	0xbc4e3ac9	-0.012587258
154	0xbbad7867	-0.005293894
155	0xbc5cfdbc	-0.013488229
156	0x3d4fe3f9	0.05075452
157	0xbcf70149	-0.03015198
158	0xbd204599	-0.039128873
159	0x3b1efa4e	0.002425808
160	0x3d1ece82	0.03877116
161	0x3bc3b428	0.005972404
162	0x3d01d311	0.03169543
163	0x3c3a3a76	0.011366477
164	0x3d4da1bc	0.05020307
165	0x3d10c37c	0.03534268
166	0x3d2c87de	0.04212176
167	0xbc025f8c	-0.00795735
168	0xbd480381	-0.048831467
169	0xbce559bb	-0.027996888
170	0x3ca44245	0.020051131
171	0x3d30978d	0.04311328
172	0xbcad1278	-0.02112697
173	0x3d4f68d0	0.050637066
174	0x3c267b84	0.010161284
175	0x3b0239f5	0.001987097
176	0x3b82de1e	0.0039937636
177	0xbc11b8e6	-0.008894181
178	0x3d68595e	0.056725852
179	0x3b868d93	0.0041062324
180	0x3d134220	0.035951734
181	0xbd5744e7	-0.052555945
182	0xbd136045	-0.03598048
183	0x3bf99b58	0.0076173954
184	0x3d38ef58	0.04515013
185	0x3cbf87de	0.023380216
186	0x3c3ddcab	0.011588256
187	0xbd790175	-0.060792405
188	0xbb7012b9	-0.0036632253
189	0xbd1fc010	-0.039001524
190	0xbd4e93ea	-0.05043403
191	0x3c030f3f	0.00799924
192	0xbd192299	-0.03738651
193	0x3d5a8e54	0.05335839
194	0xbd037147	-0.03209045
195	0x3c9abae8	0.018887952
196	0x3d0d2a4f	0.034464177
197	0xbd3bda95	-0.045862753
198	0x3ce2d16f	0.027687756
199	0xbc357f76	-0.011077752
200	0x3cdc52b5	0.026894907
201	0x3d5d0677	0.053961243
202	0xbced898d	-0.028996253
203	0xbcf3d4a7	-0.029764486
204	0x3d304f55	0.043044407
205	0x3b0ccec4	0.0021485547
206	0xbc2a0b7d	-0.010378716
207	0x3d2f3a43	0.042780172
208	0xbd08911c	-0.033341512
209	0xbc3b4360	-0.011429638
210	0x3d22906b	0.03968851
211	0x3c99847c	0.018739931
212	0xbd3e6513	-0.04648311
213	0x3c6215a7	0.013799108
214	0xbd4cc7c3	-0.049995195
215	0xbd26457b	-0.040593605
216	0x3d06cf56	0.032912575
217	0xbcad60de	-0.021164354
218	0xbd11fa86	-0.03563931
219	0xb9b80df6	-0.00035105617
220	0x3c1adfbd	0.009452757
221	0xbd29f64e	-0.04149466
222	0xbd343e31	-0.044004623
223	0xbd7e0c53	-0.062023472
224	0x3c285705	0.010274653
225	0xbd0bf9cc	-0.03417377
226	0x3c0ed8e2	0.008718701
227	0xbc166710	-0.009179845
228	0xbd0dd5e1	-0.0346278
229	0xbc6fb414	-0.014630336
230	0xbd29bcb4	-0.041439727
231	0xbce2eefa	-0.027701844
232	0x3ae63b03	0.0017565194
233	0xbd40fb4f	-0.047114667
234	0xbd53aeba	-0.051680304
235	0x3d34ca9d	0.04413854
236	0x3bb5b203	0.0055449023
237	0xbcd57ce7	-0.026060535
238	0xbb006a76	-0.0019594706
239	0x3d32fbf2	0.043697305
240	0xbd495c2c	-0.049160168
241	0xbcffeea3	-0.03124172
242	0xbd2e8953	-0.04261143
243	0xbb8c5a34	-0.004283214
244	0xbb051810	-0.0020308532
245	0xbd3c0d71	-0.045911256
246	0x3d27891e	0.04090225
247	0xbd3957d2	-0.045249768
248	0x3d616483	0.055027496
249	0xbd26233e	-0.040560953
250	0xbc04411a	-0.008072162
251	0x3c34c75c	0.011033859
252	0xbd06633a	-0.032809474
253	0x3d34da96	0.044153772
254	0xbd6232a8	-0.05522409
255	0xbbf71e4a	-0.0075414525

conv2.bias f4 [64]
0	0x3e6fc9c8	0.23416817
1	0x3b89450e	0.00418914
2	0x3ec7a738	0.38994765
3	0xbbcaeef5	-0.0061930367
4	0xbcccea33	-0.025014019
5	0x3d9bff76	0.07617085
6	0x3d4e1894	0.05031641
7	0x3f919c99	1.1375915
8	0x3de2f10d	0.11081133
9	0x3e4b62a4	0.19861847
10	0x3d0e0642	0.034673937
11	0x3cec4322	0.028840605
12	0x3cd9e206	0.026597034
13	0x3f237814	0.638551
14	0xbd31056f	-0.043218073
15	0x3f631565	0.8870452
16	0x3db488b1	0.08815134
17	0xbc919bef	-0.01777455
18	0xbbc478e2	-0.0059958557
19	0x3f9daa07	1.2317513
20	0x3fa78b72	1.308943
21	0x3f8632c6	1.0484245
22	0xbd82b501	-0.0638218
23	0x3d3ae725	0.045630593
24	0x40004e1e	2.004768
25	0x3f975440	1.1822586
26	0x3db6ee4b	0.089321695
27	0xbc599c3d	-0.013281879
28	0x40402edb	3.0028598
29	0x3fc2c9ec	1.5217872
30	0xbca218a0	-0.019787133
31	0x3e9292f4	0.2862774
32	0x3d0ecbb9	0.034862254
33	0xbc5c49aa	-0.013445297
34	0x3b2a9b35	0.0026032452
35	0xbce613fd	-0.028085703
36	0x3f86f149	1.0542384
37	0x3cc4d1c7	0.02402581
38	0x3d4b1247	0.049577978
39	0x3f53a89d	0.8267916
40	0x4013699c	2.303321
41	0xbcb7a27d	-0.022416348
42	0xbd2c8987	-0.042123344
43	0x3cf992eb	0.030465564
44	0x3ccb9ba3	0.024854487
45	0xbd4689b2	-0.04847116
46	0x3bc7c2f6	0.006096239
47	0x3fdd6200	1.7295532
48	0xbbeda50e	-0.007252342
49	0xbd4a7b22	-0.049433835
50	0x3fe1e4e4	1.7647977
51	0x3d2bd4e0	0.04195106
52	0x3fb9ad7f	1.4506072
53	0xbd9a221f	-0.07526039
54	0xbd6f1311	-0.058367793
55	0x3e9cf0f3	0.3065258
56	0xbcca1697	-0.024668975
57	0xbd7f89ea	-0.062387384
58	0xbba74b56	-0.0051054163
59	0xbd04d004	-0.03242494
60	0x3fe1186f	1.7585582
61	0xbcbe809c	-0.023254685
62	0x3eb630c8	0.35584092
63	0x3fc1b073	1.5131973

conv3.weight f4 [128, 64, 3, 3]
0	0xbc140539	-0.009034448
1	0xbcdbaf47	-0.026816977
2	0xbbc6d0d8	-0.0060673766
3	0xbcd86cb9	-0.02641903
4	0x3b174b98	0.002308583
5	0x3cee8969	0.029118257
6	0xbc8e9c08	-0.017408386
7	0xbbc098fb	-0.0058776117
8	0xbbf4c1e4	-0.0074694026
9	0xbc64a659	-0.013955676
10	0xbcedc2e3	-0.029023593
11	0x3c2a33c3	0.0103883175
12	0xbb738ef5	-0.0037164066
13	0x3b011348	0.001969533
14	0xbc325001	-0.010883332
15	0xbcdaf616	-0.026728671
16	0xbc7c2475	-0.015389551
17	0x3cae0ce3	0.02124638
18	0x3cea62f5	0.02861164
19	0xbc5d9571	-0.013524399
20	0x3cb13daf	0.021635858
21	0xbcc5b30f	-0.024133233
22	0xbb294f40	-0.002583459
23	0xbd1ae95a	-0.037820198
24	0xbbc5d53f	-0.006037384
25	0x3c438c01	0.011935235
26	0x3cce73bb	0.025201669
27	0x3c6ee5b4	0.014581133
28	0x3ca10846	0.019657265
29	0xbc127707	-0.008939511
30	0x3d27dd3e	0.040982477
31	0xbd0d916a	-0.034562506
32	0xbc19d27c	-0.009388562
33	0xbbd641d5	-0.0065386095
34	0x3ce559bc	0.02799689
35	0x3c051fee	0.008125288
36	0x3d2699f2	0.040674157
37	0xbce65f58	-0.028121635
38	0x3c628f2f	0.013828083
39	0xbd0f8ef1	-0.03504843
40	0x3c582759	0.013192975
41	0xbc9cc486	-0.019136678
42	0xbc95c31f	-0.018281518
43	0x3b95b1a1	0.004568294
44	0x3b8744b6	0.004128064
45	0x3d280d79	0.041028474
46	0x3d08a38b	0.03335909
47	0x3b0a1f89	0.0021075925
48	0x3c683b35	0.014174272
49	0x3c0bb84b	0.008527826
50	0xbc13364e	-0.008985115
51	0xbcf73f7a	-0.030181635
52	0xbd0954f5	-0.033528287
53	0x3b81ea01	0.003964663
54	0xbc867323	-0.016412323
55	0x3d1b47e0	0.037910342
56	0xbc976556	-0.018480938
57	0x3c369fe5	0.01114652
58	0xbca672b4	-0.020318367
59	0x3d293297	0.04130801
60	0x3c911ada	0.017713
61	0x3cba1d1b	0.022718957
62	0x3c366095	0.011131425
63	0xbbf26402	-0.0073971758
64	0xbc7ed47c	-0.01555359
65	0xbca3320a	-0.019921321
66	0xbd17bc76	-0.037044965
67	0xbc055e11	-0.008140103
68	0xbc92e584	-0.017931707
69	0x3d16b3ec	0.03679268
70	0x3d1e7396	0.03868445
71	0xbce9926c	-0.028512202
72	0x3b1dae03	0.0024060018
73	0xbd0c8917	-0.034310427
74	0x3ca18e6b	0.01972123
75	0x3cfcf4d7	0.030878467
76	0xbcc6e2e8	-0.02427812
77	0xbcf6481d	-0.030063683
78	0xbc0420cc	-0.00806446
79	0x3d077b5e	0.033076636
80	0x3cebb94a	0.028774876
81	0xbcb6d0c8	-0.022316352
82	0x3abd0d16	0.0014423456
83	0xbd04852b	-0.03235356
84	0x3d1d9dc2	0.038480528
85	0x3c9163ec	0.017747842
86	0xbc8db352	-0.01729742
87	0x3c977692	0.018489156
88	0x3b25e31a	0.0025312365
89	0xbccec594	-0.025240697
90	0xbd252eeb	-0.040327948
91	0x3cd12922	0.025532309
92	0xbcff7006	-0.031181347
93	0x3ce16a40	0.027516484
94	0xbc4c36aa	-0.012464205
95	0x3cc2f80b	0.023799917
96	0x3c8c528b	0.017129203
97	0x3cd3d34f	0.025857596
98	0xbc983507	-0.018579973
99	0x3ca796c6	0.020457637
100	0x3c206f9e	0.009792237
101	0x3a2a022f	0.0006485311
102	0xb9d79d67	-0.0004112527
103	0x3a1ad2c5	0.0005906041
104	0x3cc63ef7	0.024199946
105	0x3cca33d8	0.024682924
106	0xbc7dffb9	-0.015502864
107	0xba815692	-0.0009867719
108	0xbc191770	-0.009343967
109	0xbc75c716	-0.015001079
110	0x3c960843	0.018314486
111	0x3d1dbacf	0.038508233
112	0x3cac7311	0.021050962
113	0xbc2b8261	-0.0104680965
114	0x3ccc3c0d	0.024930978
115	0x3d255576	0.040364705
116	0x3c33361a	0.010938192
117	0x3d12dd50	0.03585559
118	0x3c4dded1	0.012565331
119	0xbc17262f	-0.009225412
120	0x3c5698bb	0.013097937
121	0x3c167c40	0.009184897
122	0x3c3aa44e	0.011391712
123	0xbc34e1f8	-0.011040203
124	0xbd005ae6	-0.031336688
125	0xbd213f63	-0.03936709
126	0xbcdc2878	-0.026874766
127	0x3cce2bb3	0.025167322
128	0xbc232fa3	-0.009960088
129	0xbd0a6a45	-0.033792753
130	0x3d01cdbf	0.031690355
131	0xbd1cd515	-0.03828915
132	0x3bf3f568	0.007445026
133	0x3d132b44	0.035929933
134	0xbca9e767	-0.020740224
135	0xbac362ff	-0.0014906822
136	0x3d26836c	0.040652677
137	0x3d0f2237	0.03494474
138	0x3cefb2d1	0.029260071
139	0xbc04133b	-0.0080612255
140	0x3cc4f00f	0.02404025
141	0x3c851360	0.01624459
142	0x3aea1da3	0.0017861616
143	0x3d1b6b75	0.037944276
144	0x3c418ca3	0.011813316
145	0x3cd537bf	0.026027558
146	0xbd0144f6	-0.031559907
147	0x3c4cfbf1	0.012511239
148	0xbd1d5c1f	-0.03841793
149	0x3be2e0c8	0.0069237687
150	0x3c36b528	0.011151589
151	0x3cca0722	0.024661604
152	0x3cb51aaa	0.022107441
153	0xbc982efd	-0.018577093
154	0x3ccae478	0.024767146
155	0xbd2a53a8	-0.041583687
156	0x3d0df072	0.034653135
157	0x3ca3e64c	0.020007275
158	0xbbd1cb0a	-0.006402378
159	0x3c486546	0.012231177
160	0x3cbc0f00	0.022956371
161	0xbd08e087	-0.03341725
162	0x3cdd8788	0.027042165
163	0x3c4bc455	0.012436946
164	0x3d261a06	0.04055216
165	0x3af0838c	0.0018349751
166	0x3b884ff4	0.004159922
167	0x3c1cfa4d	0.009581161
168	0x3d0a08f8	0.03369996
169	0xbd0e293b	-0.03470729
170	0x3cbcb976	0.023037653
171	0x3cb82cf8	0.02248238
172	0xbb9da033	-0.004810357
173	0xbcf3afcf	-0.029746918
174	0x3cfc6494	0.030809678
175	0x3cc4d1b4	0.024025775
176	0xbc3398fd	-0.010961768
177	0x3bc746aa	0.006081422
178	0xbc6369fe	-0.013880251
179	0xbca300cb	-0.019897839
180	0x3d249aa1	0.040186528
181	0x3c800449	0.015627043
182	0x3acb0d2f	0.00154916
183	0x3cd13f4c	0.025542878
184	0x3cdd3b85	0.02700592
185	0x3caf8a58	0.021428272
186	0x3c9232b2	0.017846439
187	0xbd0236b6	-0.031790458
188	0xbc8dfd80	-0.017332792
189	0x3d0a6bea	0.03379432
190	0x3c426abc	0.011866268
191	0x3c2e6fa4	0.010646734
192	0xbce5a082	-0.028030638
193	0xbca8d9d5	-0.020611683
194	0xbc85d223	-0.016335553
195	0x3c9d7266	0.019219588
196	0xbc8dff0a	-0.017333526
197	0x3d0011ce	0.03126698
198	0xbcf2e8e7	-0.029652072
199	0xbbed9d9b	-0.007251454
200	0x3d107eb6	0.03527709
201	0xbc8fd25f	-0.017556367
202	0x3a2e67c2	0.00066530344
203	0xbc49fcdc	-0.012328353
204	0x3c70308d	0.014660013
205	0xbcaca24e	-0.021073487
206	0xbd0133c1	-0.031543497
207	0xbc808ad0	-0.015691191
208	0x3c899507	0.016794695
209	0xbc3128a9	-0.010812917
210	0xbd02e7d1	-0.03195936
211	0xbc0e8de6	-0.008700823
212	0xbc94fd99	-0.018187331
213	0x3d0dddc1	0.03463531
214	0xbbc69895	-0.0060606697
215	0x3c976d4c	0.018484734
216	0x3d1b8eb8	0.037977904
217	0xbcff8c9b	-0.031194976
218	0x3c65c144	0.014023129
219	0x3b81d7d0	0.0039624944
220	0x3d09e7cf	0.033668336
221	0xb9b4db5c	-0.0003449571
222	0x3c318229	0.010834255
223	0xbd2c7998	-0.04210815
224	0x3d1e0efb	0.038588505
225	0xbd0784d1	-0.033085648
226	0x3cf176a9	0.029475527
227	0xbcea4580	-0.028597593
228	0x3bfaec6a	0.0076575773
229	0xba4a5f97	-0.00077199325
230	0x3cf4b9bb	0.02987372
231	0xbd237883	-0.03990985
232	0x3d0a654f	0.03378802
233	0x3d20e4e5	0.03928079
234	0x3c439a03	0.011938575
235	0x3d1d26b1	0.038366977
236	0x3d095e01	0.033536915
237	0x3af5ab2b	0.0018743029
238	0x3cbf8082	0.023376707
239	0x3b35041c	0.0027620858
240	0x3c253c01	0.010085107
241	0xbced8786	-0.028995287
242	0xbc39a817	-0.01133158
243	0xbcb9cce3	-0.022680705
244	0xbcc8f080	-0.024528742
245	0xbcd96c20	-0.026540816
246	0xbc919a48	-0.017773762
247	0x3bee2416	0.0072674854
248	0xbaa3c0d6	-0.0012493383
249	0x3c999fcf	0.01875296
250	0x3c9567bb	0.01823794
251	0xbc3fb610	-0.011701122
252	0x3cdba432	0.026811693
253	0xbd00d335	-0.031451423
254	0xbcd4fcc6	-0.025999438
255	0x3d1c52c9	0.038164888

conv3.bias f4 [128]
0	0x3cd8b3b0	0.02645287
1	0xbd0c3846	-0.034233354
2	0x3ea5d61b	0.32389912
3	0x3c0a3c89	0.008437284
4	0xbcb96356	-0.022630375
5	0x3e88d862	0.26727587
6	0x3e04fe41	0.12987615
7	0xbd1e113b	-0.03859065
8	0x3d414b28	0.047190815
9	0xbabd9a6e	-0.0014465579
10	0x3ed06f0b	0.4070972
11	0xbc86a5f6	-0.016436558
12	0xbd08a677	-0.03336188
13	0xbd0320f8	-0.032013863
14	0x3c56106f	0.0130654415
15	0x3c8f4635	0.017489532
16	0xbb2e51dd	-0.0026599087
17	0x3ea311ca	0.3184951
18	0x3b0c7759	0.0021433441
19	0x3c1b159d	0.009465602
20	0xbcc1c8fc	-0.023655407
21	0x3e6798aa	0.2261683
22	0x3c75ab45	0.014994447
23	0xbce8df11	-0.028426679
24	0x3d061fdb	0.032745223
25	0x3e19e852	0.1503003
26	0x3d20b1cd	0.039232064
27	0x3bf58245	0.007492336
28	0xbcf54985	-0.029942283
29	0x3bfc6f82	0.0077037225
30	0x3e8bf76b	0.27337202
31	0x3e969167	0.29407808
32	0x3e1686e2	0.14699891
33	0x3eb88537	0.36039135
34	0x3e30d2e5	0.1726795
35	0x3e96370f	0.2933888
36	0x3c17ea04	0.009272102
37	0x3e9d4158	0.30713916
38	0x3b2288d0	0.0024800785
39	0x3cf73dd6	0.030180853
40	0x3eca7e95	0.395497
41	0x3ea8f928	0.3300259
42	0x3ce9ff82	0.028564218
43	0x3c4bacba	0.012431318
44	0xbc6271ec	-0.013821106
45	0x3e36cbf0	0.17851233
46	0x3d210ad3	0.039316963
47	0x3ea552da	0.32289773
48	0x3eb7b3f0	0.3587947
49	0x3d5a5b3e	0.05330967
50	0x3d05270b	0.032507937
51	0xbd0940dd	-0.033509124
52	0x3c072d42	0.008250536
53	0xbc903688	-0.017604128
54	0xbce5bd8c	-0.028044485
55	0xbd1e96e4	-0.03871812
56	0x3ec5720c	0.38563573
57	0x3e143ca7	0.14476262
58	0xbc1d1282	-0.009586932
59	0xbd06530e	-0.03279405
60	0x38aae7c4	8.1494014e-05
61	0x3e1160bc	0.14197057
62	0x3db9345a	0.090431884
63	0xbc8a86a5	-0.016909907
64	0x3dadd277	0.084874086
65	0x3c089c24	0.008338008
66	0xbcc79873	-0.024364686
67	0x3cac3032	0.021019075
68	0x3c95e6ec	0.018298589
69	0xbd2e04dd	-0.042485107
70	0x3eafe68b	0.34355578
71	0x3c812f36	0.015769582
72	0xbccb5cad	-0.024824465
73	0xbccd3f99	-0.02505474
74	0x3ea0510f	0.31311843
75	0xbc0215cc	-0.007939767
76	0x3b906ba1	0.0044073616
77	0x3d014d95	0.03156813
78	0x3df7c714	0.12098518
79	0xbc043b38	-0.0080707595
80	0x3e94bc15	0.29049745
81	0x3e79f5c9	0.24410166
82	0x3c6fa216	0.014626047
83	0x3eaa1ddb	0.33225903
84	0xbd277e3d	-0.040891875
85	0xbd0b7d89	-0.034055267
86	0x3d803f77	0.06262105
87	0x3c40ddf3	0.011771667
88	0x3e871414	0.26382506
89	0x3e5ed8a0	0.21762323
90	0xbcb2d39b	-0.021829417
91	0x3e8136f2	0.25237232
92	0x3d0069c3	0.031350862
93	0xbbc4f8c1	-0.006011099
94	0xbcf96aa8	-0.030446365
95	0x3eb1a71d	0.3469781
96	0x3e992ff2	0.29919392
97	0x3eaed56c	0.34147203
98	0x3d8b2c43	0.06795552
99	0x3e52dccc	0.2059204
100	0x3eb5120f	0.3536534
101	0x3c9bf6c1	0.01903856
102	0x3e5af1f2	0.21381357
103	0xbbad4885	-0.005288186
104	0x3bb7337c	0.005590854
105	0x3e9e9605	0.3097383
106	0x3ea410c6	0.32044047
107	0xbc0d62ee	-0.008629544
108	0x3d0d7cc9	0.034542833
109	0xbbc1b58d	-0.005911535
110	0xbc99d781	-0.018779518
111	0x3eaa6769	0.3328202
112	0x3cf69d55	0.030104319
113	0x3e7f67f1	0.24941994
114	0x3e7e04ca	0.24806514
115	0x3ead6dcd	0.33872834
116	0xbd0ecad0	-0.034861386
117	0xbc97274c	-0.018451355
118	0xbb923ccc	-0.004462814
119	0x3cd6f91e	0.026241835
120	0x3eadce1f	0.3394632
121	0x3e7bc913	0.24588422
122	0x3eba1b58	0.36348987
123	0x3ce4f36b	0.027948102
124	0x3ca844e0	0.020540655
125	0x3e1eebc2	0.15519622
126	0x3bfb5512	0.0076700533
127	0x3e79d768	0.24398577

fc1.weight f4 [6, 128]
0	0xbd49b2d2	-0.049242802
1	0x3d9ee73c	0.07758948
2	0x3e1d264c	0.1534664
3	0x3c81b68c	0.015834115
4	0xbc0c4fbe	-0.008563934
5	0x3e18997f	0.14902304
6	0x3e1a6c2e	0.1508033
7	0xbc7153b2	-0.014729427
8	0x3e1a2e2a	0.15056673
9	0xbd1b283b	-0.037880164
10	0x3e192a76	0.14957604
11	0x3d0085b8	0.031377524
12	0xbd72b318	-0.05925283
13	0xbda4ecf7	-0.0805301
14	0x3da4dcaf	0.080499046
15	0x3db4efc1	0.08834792
16	0xbc680715	-0.014161845
17	0x3e155fe2	0.14587358
18	0x3a91858d	0.0011102423
19	0x3d904c61	0.07045818
20	0xbd8376f2	-0.064191714
21	0x3e1b0b9a	0.15141144
22	0xbd9f6b3d	-0.07784126
23	0xbd169a6d	-0.036768366
24	0x3d896111	0.06707967
25	0x3e0f51ce	0.1399605
26	0x3e1c5557	0.1526693
27	0x3d60148c	0.054707095
28	0xbd3a1fb6	-0.0454404
29	0x3e15bc49	0.14622606
30	0x3e181050	0.14849973
31	0x3e1a1820	0.15048265
32	0x3e1a514e	0.15070078
33	0x3e1b72e5	0.15180548
34	0x3e1ba262	0.15198663
35	0x3e1b4965	0.15164717
36	0xbda32f08	-0.07967955
37	0x3e136076	0.14392266
38	0xbd2daa5d	-0.0423988
39	0x3d8d300c	0.0689393
40	0x3e165a04	0.14682776
41	0x3e18fdd0	0.14940572
42	0xbd3fbda6	-0.046811722
43	0x3d1ff422	0.039051183
44	0x3d9064f4	0.07050505
45	0x3e14e3d3	0.14540033
46	0x3cbd6711	0.023120435
47	0x3e1857c4	0.1487723
48	0x3e191661	0.14949943
49	0x3e2b3a13	0.16721372
50	0x3e1c3622	0.15255025
51	0x3cb76ed1	0.022391709
52	0xbc538418	-0.012909912
53	0xbda09db5	-0.0784258
54	0xbd8d8e00	-0.0691185
55	0x3cf44410	0.029817611
56	0x3e1ad713	0.15121107
57	0x3e188a8c	0.14896601
58	0xbd306bd8	-0.043071598
59	0x3c480ed2	0.012210565
60	0x3d362bc8	0.044475347
61	0x3e14a725	0.14516886
62	0x3e16897e	0.14700887
63	0x3d566f75	0.052352387
64	0x3e15f7a2	0.14645246
65	0xbd248651	-0.040167157
66	0xbd1cfd65	-0.038327593
67	0x3e1b3add	0.15159173
68	0x3d929783	0.07157805
69	0x3cb9772d	0.022639835
70	0x3e1b8208	0.15186322
71	0x3d8c3815	0.06846634
72	0xbd181aef	-0.03713506
73	0xbc6985a3	-0.014253053
74	0x3e170708	0.14748776
75	0x3da88b98	0.082297504
76	0x3db1e714	0.08686653
77	0x3d0115e4	0.031515017
78	0x3e1aa8b4	0.15103418
79	0xbd116fba	-0.03550694
80	0x3e13dbd0	0.1443932
81	0x3e1f9bf3	0.15586834
82	0xbd2bcf8b	-0.041945975
83	0x3e1aef02	0.15130237
84	0xbd4334f4	-0.047657922
85	0xbc0c134e	-0.0085495245
86	0x3e1d372f	0.15353082
87	0x3b9a6b39	0.004712489
88	0x3e184da9	0.14873375
89	0x3e14899e	0.14505622
90	0xbcd916d7	-0.026500149
91	0x3e1969c9	0.1498176
92	0x3d2d3c1c	0.042293653
93	0xbcb68e6d	-0.02228471
94	0xbc97e2bc	-0.018540733
95	0x3e13e094	0.14441139
96	0x3e15d66d	0.14632578
97	0x3e1740c1	0.14770795
98	0x3e16b6b2	0.1471813
99	0x3e1bbfb3	0.15209846
100	0x3e1ac7a9	0.15115227
101	0x3d85af4a	0.06527574
102	0x3e166925	0.14688547
103	0xbd90bcef	-0.07067286
104	0xbc8407a6	-0.016116928
105	0x3e175ebb	0.1478223
106	0x3e12be64	0.14330441
107	0xbd8385a1	-0.06421972
108	0x3db2850a	0.087167814
109	0x3da42c1e	0.08016227
110	0x3d71c8bd	0.05902933
111	0x3e195557	0.14973961
112	0xbd909d94	-0.07061306
113	0x3e1c0648	0.15236771
114	0x3e1e0a59	0.15433635
115	0x3e16ba46	0.14719495
116	0xbd1dbcd2	-0.03851015
117	0x38309efb	4.2109732e-05
118	0x3d9dfbad	0.07714019
119	0x3d88acab	0.06673559
120	0x3e13dca4	0.14439636
121	0x3e20a11a	0.15686455
122	0x3e16d7b0	0.14730716
123	0x3b1b83eb	0.0023729752
124	0x3d2a14de	0.041523807
125	0x3e15f4b6	0.14644131
126	0xbd060cc5	-0.03272702
127	0x3e10a749	0.14126314
128	0xbce4d28a	-0.027932424
129	0xbd29a928	-0.041421086
130	0x3e5d06d7	0.2158464
131	0xbd304d55	-0.0430425
132	0x3cc72852	0.024311218
133	0x3e523e31	0.20531537
134	0x3e56cfac	0.20977658
135	0xbda27d60	-0.0793407
136	0x3e54c768	0.20779192
137	0xbd156c93	-0.036480498
138	0x3e518aec	0.2046315
139	0x3c77f199	0.015133285
140	0x3d89521b	0.067051135
141	0x3d084f4c	0.03327875
142	0xbc9d44c0	-0.019197822
143	0xbd6981cc	-0.05700855
144	0x3d8f44bc	0.06995532
145	0x3e51e74a	0.20498386
146	0x3d42ff6e	0.047606878
147	0x3cf687ce	0.030094054
148	0x3c115880	0.008871198
149	0x3e55c851	0.20877196
150	0xbb45f0e0	-0.0030203387
151	0xbd2a1409	-0.041523013
152	0xba9387b6	-0.0011255655
153	0x3e4f6acd	0.20255585
154	0x3e5864d2	0.2113221
155	0xbd8ed14e	-0.069735155
156	0xbd997b30	-0.07494199
157	0x3e52cd9e	0.20586249
158	0x3e512277	0.20423304
159	0x3e541aa8	0.20713294
160	0x3e4f7f11	0.20263316
161	0x3e503af2	0.20334986
162	0x3e58b884	0.21164137
163	0x3e56fdc1	0.20995237
164	0xbd636f57	-0.055526104
165	0x3e4f3546	0.20235166
166	0x3d1b32f9	0.03789041
167	0x3d36efd7	0.044662323
168	0x3e5040d5	0.20337231
169	0x3e52f3ab	0.20600764
170	0xbd658685	-0.05603649
171	0x3d71c57b	0.059026223
172	0xbd472cc2	-0.04862667
173	0x3e4fc3b2	0.20289496
174	0xbd1f195c	-0.038842544
175	0x3e57f7d6	0.21090636
176	0x3e5735bf	0.21016596
177	0x3e5ce503	0.21571736
178	0x3e5b9e15	0.21447022
179	0x3c8d7c3c	0.017271154
180	0xbc454c1f	-0.012042074
181	0xbcfe8f5b	-0.031074217
182	0xbc829d0b	-0.015944025
183	0x3ce4a250	0.027909428
184	0x3e55d698	0.20882642
185	0x3e54754a	0.20747867
186	0x3d63c1d2	0.055604763
187	0x3d2b3637	0.04179975
188	0x3d7b7a65	0.06139602
189	0x3e510708	0.20412838
190	0x3e55ef99	0.2089218
191	0x3d7c3ebf	0.061583277
192	0x3e5c212d	0.2149703
193	0xbd69abfd	-0.057048786
194	0xbdaa815d	-0.08325455
195	0x3e59848d	0.2124197
196	0xbd6fd3b2	-0.058551498
197	0xbcf9b3ef	-0.030481307
198	0x3e55b228	0.20868742
199	0x3c193349	0.009350606
200	0xbda7855f	-0.081797354
201	0x3c43bcfd	0.011946914
202	0x3e50e5cc	0.2040016
203	0xbd4c21a2	-0.049836762
204	0x3d24b0c3	0.040207636
205	0xbd176305	-0.036959667
206	0x3e54bc9e	0.20775077
207	0x3da16b56	0.07881801
208	0x3e4f77e5	0.2026058
209	0x3e57b4b4	0.21065027
210	0x3d03e1eb	0.032197874
211	0x3e53c690	0.20681214
212	0x3d55948f	0.05214363
213	0x3d2e202f	0.04251116
214	0x3e57864f	0.21047328
215	0x3bbc48b4	0.0057459716
216	0x3e59a947	0.2125598
217	0x3e51fa3c	0.20505613
218	0xbd837f81	-0.06420804
219	0x3e51e84a	0.20498767
220	0x3ca62138	0.020279512
221	0x3baacba3	0.0052122637
222	0x3d8c3dc0	0.068477154
223	0x3e5419ed	0.20713015
224	0x3e5363e8	0.2064358
225	0x3e5becfb	0.2147712
226	0x3e517203	0.20453648
227	0x3e59c8e2	0.21268037
228	0x3e564545	0.20924862
229	0xbd496f41	-0.049178366
230	0x3e52099c	0.20511478
231	0xbb1176a3	-0.0022195957
232	0xbbde5267	-0.0067847255
233	0x3e545784	0.2073651
234	0x3e4fb0e1	0.20282318
235	0x3bc726ab	0.0060776076
236	0xbcf5b092	-0.029991422
237	0xbb46617a	-0.0030270503
238	0x3d9b0740	0.07569742
239	0x3e57df59	0.21081294
240	0xbd2c915c	-0.042130813
241	0x3e54b882	0.20773509
242	0x3e57d446	0.2107707
243	0x3e518bc0	0.20463467
244	0x3c100a41	0.008791507
245	0x3d9cffe7	0.07665997
246	0xbda1f1fe	-0.079074845
247	0x3d41a18d	0.047273207
248	0x3e5130dc	0.20428795
249	0x3e60c58d	0.2195036
250	0x3e567bbd	0.2094564
251	0xba9f4f33	-0.001215434
252	0x3cb68d2d	0.022284115
253	0x3e556246	0.2083827
254	0x3d780b54	0.06055768
255	0x3e4f51d1	0.20246054

fc1.bias f4 [6]
0	0x3f400bfb	0.7501828
1	0x3f814eb2	1.0102141
2	0x3f6486c0	0.8926811
3	0x3f7f9bd3	0.99847144
4	0x3f670716	0.9024519
5	0x3f9612d0	1.1724491
