models/convNN2_ll_training_50-50_split.txt.pt (torch, 384591 bytes, 8 tensors)

conv1.weight f4 [32, 3, 5, 5]
000000 d4 e1 bc 3d 6e 96 c4 3d 2a 8d f2 bc 7f 3a d0 3d
       0.09222761 0.09599005 -0.029608328 0.10167407
000010 c1 06 fd bc 95 79 dd 3c 8a 59 68 bd 2d 17 84 3d
       -0.03088701 0.027035514 -0.056726016 0.06449733
000020 23 b5 c3 3d 31 52 be bd 5f cc d5 3d 33 20 b1 3c
       0.095560335 -0.092930205 0.10439371 0.0216218
000030 35 04 a8 3d ed 63 0d 3c 06 7c 40 3d 9d f2 4e bc
       0.082039274 0.008629781 0.046993278 -0.012631086
000040 d8 98 b6 3d 9c 14 59 3c ab d1 7c bd d1 8f a4 3c
       0.089158714 0.013249543 -0.061723392 0.020088108
000050 43 6f 4a bd 78 38 57 bc b3 2e 4d bd 31 27 8f 3d
       -0.049422514 -0.013136022 -0.050093364 0.06989897
000060 f8 78 cb bd 5c d8 9b bd e1 9d 73 bd 74 37 ca bd
       -0.09935182 -0.07609627 -0.059476737 -0.09873858
000070 51 2a a5 bc a3 3b 15 be f2 fa a5 3d 8f d2 00 be
       -0.02016178 -0.14573531 0.08104505 -0.12580322
000080 d2 eb 70 3d b2 ef 63 bc af 61 93 bd 74 a0 46 3d
       0.058818646 -0.013912128 -0.07196366 0.048492864
000090 17 ad 14 bc ad 4d 81 3d 69 8c ac bc 8e 07 92 bd
       -0.009074471 0.063136436 -0.021063047 -0.07130347
0000a0 cf 15 03 3c 82 23 6e bd 5b 34 94 3c 43 fe 8c 3d
       0.008000805 -0.05813933 0.018091371 0.06884434
0000b0 f2 b9 00 3d b7 75 95 bd 1a 55 26 3d b7 c4 0f bc
       0.03142733 -0.07297843 0.040608503 -0.008774928
0000c0 4a af d3 3c 2c 4c d5 bd 7c 6d 13 be 87 63 a0 bd
       0.02584042 -0.10414919 -0.14397234 -0.07831483
0000d0 28 30 ff bd 54 c9 69 3d 89 8a 9d bb 29 60 91 3c
       -0.12460357 0.057076767 -0.0048077744 0.017746048
0000e0 85 9a f7 3a 1f 4f 20 bd 28 e2 4e 3d 42 f9 fb bd
       0.0018890655 -0.039137956 0.05050865 -0.123034015
0000f0 7b 33 b7 bc 03 f7 e6 bd 91 bf a6 ba 0c 4d a4 bd
       -0.022363415 -0.112775825 -0.0012721886 -0.08022508
000100 cf 36 c1 bb 98 f6 5c bd 87 0a 7e 3d 4f bb d8 bd
       -0.0058964263 -0.053946108 0.06202176 -0.10582601
000110 eb 81 e1 bd fb e2 e2 bd e9 1f 99 3d b2 98 ba 3b
       -0.11011108 -0.11078449 0.074767895 0.005694472
000120 6e d0 99 3d 70 08 0a be 34 5c 1e be 00 04 b9 bd
       0.07510458 -0.13479781 -0.1546486 -0.09033966
000130 52 14 9f bd cb 91 3f 3d da 5a 29 3d 6b 7f c4 3d
       -0.07767548 0.0467699 0.04134641 0.095946155
000140 62 40 74 bd 88 36 a1 bd e9 f1 7a 3d c2 2c 3f bd
       -0.059631713 -0.07871729 0.06126586 -0.046673544
000150 e5 86 8f 3d d8 78 e0 bc 63 47 87 3d 4f bd b7 bd
       0.07008151 -0.027401373 0.06605413 -0.089716546
000160 92 ae 6e bd 26 32 10 3d 9a f9 c7 3c 55 2c f1 bc
       -0.058271952 0.035204075 0.024411011 -0.029440084
000170 c7 f5 8c 3d 59 c3 a0 3d ae 7d ab bd 12 80 7c bd
       0.06882816 0.078497596 -0.08373581 -0.061645575
000180 e4 89 d8 3d 88 97 1f bd 55 ac 27 bd c2 d1 e4 bd
       0.105731755 -0.03896287 -0.040935833 -0.11172821
000190 38 6d 87 bd 05 4c ec 3c b0 b6 79 bc 1f a9 ab bd
       -0.06612629 0.028844843 -0.01524131 -0.08381867
0001a0 aa 76 31 3b 7b 89 a1 bd 8e a1 c8 bd e0 38 82 bd
       0.0027078786 -0.078875504 -0.09796439 -0.06358504
0001b0 f7 f8 ce bd d5 93 96 bd bf 63 ec 3d 8b a9 b2 3c
       -0.1010608 -0.073524155 0.115424626 0.02180936
0001c0 b7 bf 11 3d 4f 90 dc bd cc 50 9b bd 20 6e 1d bd
       0.035583224 -0.10769712 -0.0758377 -0.0384351
0001d0 94 ea 93 3c 10 16 d0 bd bc c9 4b bd 22 93 8d bd
       0.018056192 -0.10160458 -0.049752936 -0.06912829
0001e0 66 df a7 39 ad fd 2f bd 30 17 03 bc 50 3f a0 bd
       0.00032019167 -0.042966533 -0.008001134 -0.07824576
0001f0 11 52 a2 bd e6 f6 89 bd 11 e5 21 bd bd a6 ba bd
       -0.07925809 -0.06736545 -0.039525095 -0.09113834
000200 4f 48 c6 3d 09 bd bb bc 07 78 cb 3d 16 5e 13 3d
       0.096817605 -0.022917287 0.09935003 0.0359784
000210 b8 40 c8 bd 80 a7 a3 3d 44 22 02 bd 04 4d 35 bd
       -0.09777969 0.079909325 -0.03177096 -0.0442629
000220 1e 4c c4 bd 0d 1a eb bd 05 52 07 3d fb a1 ce bc
       -0.09584831 -0.11479578 0.033037204 -0.025223723
000230 b2 22 38 3d 9b 12 c2 bd 53 92 af 3d 4b 97 ad bd
       0.044954963 -0.09476205 0.08572831 -0.084761225
000240 47 56 a3 bc 02 94 c5 3c 96 2b 74 3d 77 ea be 3d
       -0.019938601 0.024118427 0.05961188 0.09322064
000250 29 6d d7 3d 29 83 bb bd f4 36 ee 3c 56 5e 4b bd
       0.105188675 -0.09155876 0.029078938 -0.049650513
000260 3f f1 4e bc 20 f5 b0 bd d6 73 d7 3d 46 81 ad bd
       -0.01263076 -0.08640504 0.10520141 -0.084719226
000270 36 e2 7c 3d c7 4e 26 3d 6e c0 19 3d e9 a0 7f bd
       0.06173917 0.04060247 0.03753703 -0.062409315
000280 0b 11 d7 3d f3 45 d0 3c 8c e9 73 3c 76 5e d0 bd
       0.105012976 0.02542398 0.014887225 -0.10174267
000290 41 9e 46 3d 2e 6f 8d bc ef 73 58 bd e5 38 cb 3d
       0.048490766 -0.017264929 -0.052844938 0.09922961
0002a0 f9 23 d3 3c 08 cc 82 bd bb 2e 6f bd 72 09 b3 bb
       0.025773989 -0.06386572 -0.058394175 -0.0054637725
0002b0 97 22 84 3d 9a 76 f1 bc 7d e3 86 bd 10 d5 21 bd
       0.0645191 -0.029475499 -0.06586359 -0.039509833
0002c0 fd 9b b0 bd 6e d3 28 3d b4 1f b7 3d 06 8e de bd
       -0.086235024 0.04121726 0.08941594 -0.108669326
0002d0 72 0b dc 3c b8 7d 74 3d ac d0 ab 3c 8f 51 28 bd
       0.026860926 0.059690207 0.020973526 -0.041093405
0002e0 eb fe 76 3d 66 d4 78 3d e5 1b 31 3d 4e d7 a5 bc
       0.060301702 0.060749434 0.043239493 -0.020244267
0002f0 e9 3d fa bc 80 e8 4a 3c eb 88 a6 bc e0 ab 0c bd
       -0.0305471 0.012384534 -0.02032896 -0.0343436
000300 6f 48 97 3d 21 52 cb 3d 24 bb 3a bc 3d 4c d3 bc
       0.073868625 0.09927774 -0.011397157 -0.02579319
000310 d4 eb e4 3a 15 11 e0 bb e1 c3 e3 3c 1d ad 04 3d
       0.0017465302 -0.006837974 0.027803363 0.032391656
000320 64 bb d6 bd 0f 71 2e bd b3 36 c7 3d e3 60 38 3d
       -0.10484961 -0.04258829 0.0972723 0.045014273
000330 8e 13 bb bb 13 80 8e bd c3 9c 90 bd b6 c5 d3 bd
       -0.005709118 -0.06958022 -0.0706115 -0.10340445
000340 bf 12 1a bd 9d d6 1f 3d a6 e9 96 3d f3 97 5a 3d
       -0.037615534 0.03902303 0.07368784 0.053367566
000350 91 f4 d0 bd 85 29 8e bd 63 11 95 bc 6d e3 e4 3d
       -0.10202897 -0.06941513 -0.018196767 0.111761905
000360 84 52 89 3c 6d 8a f4 bc 9b d2 43 3d 34 07 34 bd
       0.01676298 -0.029851163 0.04780827 -0.043952182
000370 dd f4 98 bd 6b b7 ac 3d 2b db 56 bd 31 54 bd bc
       -0.07468579 0.08433422 -0.05245511 -0.023111435
000380 ed 32 eb bd 7a 91 a9 3d 9d 75 b8 3d e7 34 33 3d
       -0.11484323 0.082797006 0.09006808 0.043751623
000390 00 d0 a0 bd 6f a1 e0 bd 39 aa ba bd 24 a5 af 3d
       -0.07852173 -0.10968291 -0.09114499 0.0857642
0003a0 45 3d 5e 3d 3b dd c5 3d b4 23 80 3d 78 72 ff 3c
       0.05425765 0.09661337 0.0625681 0.031182513
0003b0 01 a5 25 bb 77 47 b8 bd 46 85 cd bd 3f 06 da bd
       -0.0025275352 -0.08998006 -0.100351855 -0.106457226
0003c0 6f 15 4d 3d d1 ce 6a bd 4c 1a c9 bc 81 de 88 bd
       0.05006927 -0.05732614 -0.024548672 -0.06683064
0003d0 d6 dc 94 bc a9 52 9b bd 73 9e 95 bd 03 71 25 3d
       -0.018171709 -0.075841255 -0.073056124 0.04039098
0003e0 b2 b4 fe bc f5 19 9f 3d e3 50 0f bd 8f a4 ae bd
       -0.031092022 0.07768623 -0.03498925 -0.08527481
0003f0 48 7e b1 bc 0f f2 68 bd e2 a3 0b bd 34 21 e2 bd
       -0.02166666 -0.05687147 -0.034091838 -0.11041489

conv1.bias f4 [32]
000000 7f 24 bb 3e 47 a6 8b bd d0 0c 42 bd 1b 55 af 3e
       0.36551282 -0.06818824 -0.0473755 0.34244618
000010 98 f9 05 3c 9c f4 42 bd 1c fe b7 3e f7 d3 86 bd
       0.008177184 -0.04759656 0.35936058 -0.06583398
000020 30 b4 c0 bd a5 08 b3 3e 63 7c 82 bd 06 cc 15 3f
       -0.09409368 0.34967533 -0.06371381 0.5851444
000030 cd cb 31 3f 5d a8 5f bd 23 22 ea 3d 3c b6 0e 3e
       0.694516 -0.054603923 0.11432292 0.13936704
000040 34 8e a0 bd 90 20 ce 3f b7 85 60 bd 16 70 b7 3e
       -0.07839623 1.6103687 -0.05481502 0.35827702
000050 ab 14 ae 3f 77 30 a1 bd 8b 92 5e 3f c3 dd f5 3f
       1.3600057 -0.07870572 0.86942357 1.9208301
000060 10 1b 63 3f 5d 24 3e 3f f6 12 da bb 4d 6d 86 bc
       0.8871317 0.74274236 -0.0066550924 -0.01640954
000070 7f b6 10 40 e5 aa db bc d5 a1 2e 3c 39 ea df bd
       2.2611387 -0.026814887 0.010658701 -0.10933346

conv2.weight f4 [64, 32, 3, 3]
000000 38 37 44 bd b5 67 23 3d dd cd 12 bd 89 95 41 3d
       -0.047904223 0.039893825 -0.035840858 0.04726175
000010 fe ad cf 3b 3f ae 5a 3c 3b 21 5f 3d ca 55 06 bd
       0.00633788 0.013347208 0.05447505 -0.03279666
000020 10 d6 23 bc cb 0b 2b 3c c2 ea a4 3c e1 e4 6a bd
       -0.009999767 0.010439823 0.020131472 -0.057347182
000030 2d 91 ab 3c ef 55 0e bd 3f 9f fd 3b 99 4a 23 3d
       0.020943249 -0.03474992 0.007739931 0.039866064
000040 23 58 c0 bb c2 53 f4 ba f9 33 90 bb ad 6a 49 3d
       -0.0058698817 -0.0018640684 -0.004400727 0.049174
000050 28 2c 09 3d d4 63 22 3c 94 3e 11 bd f6 0e 03 bd
       0.033489376 0.009911496 -0.03546007 -0.03199669
000060 f4 42 40 3d b0 a4 2d 3d bf c1 0b 3d f6 dc 35 bd
       0.04693885 0.042393386 0.034120318 -0.044400178
000070 10 f4 41 3d bf 14 90 bb 29 87 38 3d c3 bf 57 3d
       0.047351897 -0.0043970044 0.045050774 0.052673113
000080 f9 86 fb 3b a6 db bb bc dd dc 68 3d e7 12 f2 bc
       0.007676002 -0.022931885 0.056851257 -0.029550029
000090 cb 49 1e 3d 7b ca 66 bd ce 7f 96 bc 54 e3 51 bd
       0.038644593 -0.056345444 -0.018371489 -0.051242188
0000a0 11 4d d7 bc fc 4d ce 3c 03 67 2c bd d0 23 50 bd
       -0.026281865 0.02518367 -0.042090427 -0.050815403
0000b0 66 3a 2d 3d 47 f9 00 3d 2a 4c 1e ba e1 f2 29 bd
       0.04229202 0.03148773 -0.0006038571 -0.041491393
0000c0 1e 2c 7f bc 18 e5 9b bc 2f 47 15 3d 7b 97 9d bc
       -0.015574483 -0.019030139 0.03644484 -0.01923727
0000d0 94 9c 8a bc 0b e0 2a bd 52 2b d5 bc 27 0f 0b 3d
       -0.016920365 -0.04171757 -0.026021633 0.033949997
0000e0 4c 7b 24 3d cb 38 29 3c 27 13 a3 bc fa 0f 72 3d
       0.040156648 0.010328482 -0.019906593 0.059097268
0000f0 c7 f7 56 3c 91 6c ab bc 13 38 96 bc ec 58 03 bc
       0.013120598 -0.020925792 -0.018337285 -0.008016806
000100 09 25 e7 3c 51 b3 b2 3c 4c d3 2f 3d e2 19 1d bb
       0.028215902 0.02181402 0.042926118 -0.0023971726
000110 b6 a1 48 3d 22 79 c2 bc 25 44 dc bc 21 46 b0 bc
       0.048982345 -0.023739401 -0.026887963 -0.021517815
000120 93 71 62 bd b7 6f 1e bd 39 66 5a bd 39 34 64 bb
       -0.055284094 -0.03868076 -0.053320143 -0.0034821166
000130 65 ba 11 3a bc 91 7a bc 89 f0 24 bd ef fb 5a 3d
       0.0005559086 -0.015293535 -0.040268455 0.05346292
000140 54 f1 9f bc 23 d9 f4 3c 5f 8f 2e 3d 03 8a 1b bd
       -0.019524254 0.029888695 0.042617198 -0.037973415
000150 c1 7c ae bb f5 fe 13 3d 72 dd 6f 3d 74 1b c4 bb
       -0.0053249304 0.036131818 0.058560796 -0.005984718
000160 c1 b0 34 3d ea 96 39 bd c5 c3 1c bd a1 8c 46 3d
       0.04411388 -0.04530994 -0.038272638 0.048473958
000170 fb 45 b6 bb d2 80 6e 3d a0 f9 8c 3b 1a 0d c8 bc
       -0.0055625415 0.05822832 0.0043022186 -0.02442031
000180 0a 49 65 3d ef 23 53 3d b5 c4 b3 3b 4e 46 0b bd
       0.05597786 0.05154794 0.005486096 -0.034002595
000190 f4 61 a2 ba 8c 60 e1 bc 78 27 36 3d de 0c 78 3b
       -0.0012388811 -0.027511857 0.044471234 0.0037849466
0001a0 a3 8b 55 3c 9c 97 19 3d 10 db a9 3c bd 0f 13 bd
       0.01303378 0.0374981 0.02073434 -0.03590368
0001b0 aa 37 5b 3d 8b b5 26 3d d4 f3 03 bd 2b 1c 49 3d
       0.053519882 0.040700477 -0.032214954 0.04909913
0001c0 65 9b ac 3c 36 7f fb bb 73 60 1a bd ac 3e b6 bb
       0.021070192 -0.007675077 -0.037689637 -0.0055616703
0001d0 0b 4e 5d bd 4b c2 09 3d 4e ce 2e 3d 1d f9 8a bc
       -0.054029506 0.033632558 0.042677216 -0.01696449
0001e0 a3 c0 5f 3d a6 be b2 bc ba 54 25 3c 88 33 28 bd
       0.054627072 -0.021819424 0.010091001 -0.04106477
0001f0 b9 41 23 bb 30 21 c3 3c c3 95 d1 3c 12 3a 0a bb
       -0.0024911 0.023819536 0.025584107 -0.0021091742
000200 05 9f f7 bc df 3a 2b 3d 56 bf 21 3d f8 96 1b 3c
       -0.030227194 0.04180419 0.039489113 0.009496443
000210 88 43 dd bc 8c 42 4e 3c 4b 09 18 b8 35 c3 60 3d
       -0.02700974 0.012589108 -3.624828e-05 0.054873664
000220 80 68 1f 3c 20 8c bb 3b a8 2e 9c 3b 04 c6 02 3d
       0.009729505 0.0057234913 0.004766304 0.031927124
000230 6f d1 d2 b7 5c 09 53 3d bf 38 01 3d f3 b0 32 bd
       -2.5131476e-05 0.051522598 0.031548258 -0.043625783
000240 eb 10 ee b9 d4 88 4f bd ad 56 3c bd 6d e4 38 3c
       -0.00045407502 -0.0506676 -0.045981098 0.01128493
000250 e9 70 51 3c 7d 53 bd bb 41 70 65 3d ec d6 02 bd
       0.012783268 -0.005777775 0.056015257 -0.031943247
000260 b8 12 ce bc f3 87 ee bb 24 71 a4 3a 3f 30 af bb
       -0.02515541 -0.00727939 0.0012545926 -0.0053463276
000270 54 81 64 3d 03 1a c2 bc 4b 65 ff bc 78 2e 07 3c
       0.0557874 -0.023694044 -0.03117623 0.008250825
000280 2d 6a 3c 3d 9f a8 69 3c 70 0b 02 3d 10 f9 3a 3c
       0.045999695 0.014261394 0.03174919 0.01141192
000290 e3 b8 4d 3d 19 fb 10 3d bf b9 2c 3d 06 fb 01 bc
       0.05022515 0.035395715 0.04216933 -0.007933384
0002a0 8e ce 47 bd 4f f4 e4 bc 97 77 a4 3c 82 d5 31 3d
       -0.04878097 -0.027948527 0.020076556 0.043416508
0002b0 6a 5a ac bc 0d 79 4f 3d f7 4b 2c 3c 3a a2 0d 3b
       -0.021039207 0.050652552 0.010516158 0.0021611587
0002c0 9a 33 86 3b 6a 47 09 bc 6e e4 69 3d 73 d2 8f 3b
       0.004095507 -0.008378843 0.057102613 0.004389101
0002d0 b0 5e 15 3d b5 86 51 bd d0 76 09 bd 48 1f 00 3c
       0.036467254 -0.051153857 -0.033560574 0.007819958
0002e0 e7 31 3e 3d cf 6b d1 3c 26 ec 4d 3c aa a4 70 bd
       0.04643431 0.025564102 0.012568509 -0.058750786
0002f0 69 e8 94 ba b3 4b 1f bd 84 0c 4e bd 93 28 04 3c
       -0.0011360768 -0.03889055 -0.050304905 0.008066314
000300 a0 ae 18 bd 52 1c 5b 3d 4d 27 03 bd 82 9f 9b 3c
       -0.03727591 0.053493805 -0.032019902 0.018996958
000310 02 b7 0d 3d e2 8e 3b bd 32 7c 01 3d 1e a5 e3 bb
       0.034598358 -0.04579056 0.031612583 -0.0069471737
000320 e2 23 00 3d e9 d5 6f 3d 41 93 c6 bc 85 c6 cc bc
       0.03128422 0.05855361 -0.024240138 -0.024997005
000330 5e 9b 47 3d af ff 01 3c e8 fd 9e bb ac 16 3d 3d
       0.048732154 0.007934495 -0.0048520453 0.0461642
000340 bc 09 e9 bc f0 3b 99 bb 27 ae 2e 3d f6 ee c0 3c
       -0.028447025 -0.0046763346 0.042646553 0.023551445
000350 35 2d 23 bd 58 2d 93 3c ad 23 34 bd 67 75 08 bd
       -0.039838035 0.017965958 -0.043979336 -0.03331509
000360 d8 8c 23 3d 59 72 63 bc 11 d6 e8 bc 59 8f cf 3b
       0.03992924 -0.013882243 -0.028422387 0.006334227
000370 fc 88 86 3c 25 e8 0d bd d0 08 1a bd 0c 63 62 bd
       0.016422741 -0.03464522 -0.03760606 -0.05527024
000380 60 f7 8a 3c c2 ca 08 bd c4 a0 14 3c 92 29 12 bc
       0.01696366 -0.03339649 0.009071533 -0.008921044
000390 2b b6 0a bd f5 92 69 bc d9 73 28 bd cd 2f da bc
       -0.033865135 -0.014256229 -0.041126106 -0.026634121
0003a0 c1 cf 26 3b 22 1a 3e bd fd ad 53 bd f4 ca 34 3d
       0.002545342 -0.04641164 -0.0516796 0.044138864
0003b0 01 b2 b5 3b d3 7b d5 bc 13 65 00 bb d5 fb 32 3d
       0.0055449014 -0.02606002 -0.0019591495 0.043697197
0003c0 84 5b 49 bd d9 ed ff bc 56 89 2e bd 86 f4 8b bb
       -0.04915954 -0.031241344 -0.042611443 -0.004271093
0003d0 fc 07 04 bb b0 0a 3c bd 7f 93 27 3d cc 49 39 bd
       -0.002014636 -0.04590863 0.040912148 -0.045236394
0003e0 59 65 61 3d c5 1a 26 bd 9b 1d 04 bc c5 b0 34 3c
       0.055028293 -0.040552873 -0.008063699 0.011028473
0003f0 8d 93 c7 bc 72 cf 5e 3d d6 0b 2e bd df 6f 47 b9
       -0.02436235 0.054397054 -0.042491756 -0.00019019794

conv2.bias f4 [64]
000000 d5 b8 f2 3d 50 63 1a 3b b1 d4 92 3e 6b 60 fa bb
       0.1185166 0.002355773 0.28677896 -0.0076408884
000010 65 6e 5c bc f3 0f 64 3d 62 00 57 3d 38 06 58 3f
       -0.0134540545 0.055679273 0.0524906 0.8438449
000020 7d 57 57 3d 19 e6 19 3e 16 0b c6 bc ff 82 03 3d
       0.05257367 0.15029182 -0.024175208 0.03210735
000030 e6 dc d6 3c 66 94 e8 3e a2 ac 2e bd bb ff 26 3f
       0.02622838 0.4542572 -0.042645104 0.65233964
000040 6c d6 a8 3d f6 de 90 bc 89 b3 c9 bb 1f 44 63 3f
       0.08244023 -0.017684441 -0.0061554355 0.8877582
000050 78 67 60 3f 30 30 3c 3f e0 7f 78 bd 1c 87 04 bb
       0.8765788 0.7351103 -0.060668826 -0.0020222133
000060 d1 52 ad 3f 13 15 6b 3f 4a 8e 2e 3d 39 dc 5d bc
       1.3540899 0.9182903 0.042616166 -0.013541275
000070 10 d5 08 40 73 3b 87 3f 1d 2f a1 bc 60 c5 66 3e
       2.1380043 1.0565017 -0.019675786 0.2253623
000080 c5 7a 13 3d 1a a5 85 bc 46 3a a7 3b 85 0b e6 bc
       0.036005754 -0.016314078 0.0051033823 -0.028081665
000090 64 ad 45 3f 2a d2 8d 3c bc cb 26 3d 09 61 15 3f
       0.772177 0.017312128 0.04072164 0.5835119
0000a0 c8 b8 d1 3f 80 41 b7 bc c4 7e 2c bd 74 8f 00 3d
       1.6384516 -0.0223701 -0.04211308 0.031386808
0000b0 44 a3 04 3a 8d 51 34 bd 94 f6 ac 3b da 9f 98 3f
       0.0005059729 -0.044023085 0.005278418 1.1923783
0000c0 63 c1 b9 bb 1a 99 49 bd 51 d7 a0 3f ee 7e 2f 3d
       -0.0056688054 -0.049218275 1.2565709 0.04284566
0000d0 7e c8 82 3f 71 67 85 bd a2 84 4e bd 91 f3 59 3e
       1.0217435 -0.065138705 -0.050419457 0.2128432
0000e0 fd d4 c7 bc 7a b9 7e bd 80 3a 76 bb 71 60 f9 bc
       -0.024393553 -0.062188603 -0.003757149 -0.030441495
0000f0 12 76 97 3f 0f 83 be bc 9f ca 95 3e 9b e7 85 3f
       1.1832907 -0.023255853 0.2925615 1.0461305

conv3.weight f4 [128, 64, 3, 3]
000000 f3 e5 13 bc 78 a4 db bc eb b8 c6 bb 40 68 d8 bc
       -0.009026992 -0.026811823 -0.0060645244 -0.026416898
000010 63 54 17 3b 1f 8a ee 3c fd 9c 8e bc 34 a3 c0 bb
       0.002309107 0.029118596 -0.017408842 -0.0058788303
000020 1f cc f4 bb fa cc 64 bc 5e d7 ed bc fb 0c 2a 3c
       -0.007470622 -0.013964886 -0.02903336 0.010379071
000030 99 1e 74 bb 73 79 00 3b e0 73 32 bc 5f 08 db bc
       -0.0037249683 0.001960364 -0.010891885 -0.02673739
000040 f4 48 7c bc 67 fc ad 3c fb 74 ea 3c e9 83 5d bc
       -0.015398253 0.021238519 0.028620234 -0.013520219
000050 50 3f b1 3c 8a a4 c5 bc af 11 29 bb 3e e7 1a bd
       0.021636635 -0.02412631 -0.0025797894 -0.037818186
000060 ec ad c5 bb c5 98 43 3c c1 78 ce 3c b5 e5 6e 3c
       -0.006032696 0.011938279 0.025204064 0.014581134
000070 46 08 a1 3c 07 77 12 bc 3b dd 27 3d 6c 91 0d bd
       0.019657265 -0.008939511 0.040982466 -0.034562513
000080 74 d2 19 bc b6 41 d6 bb c1 59 e5 3c f5 1f 05 3c
       -0.009388555 -0.006538595 0.0279969 0.008125295
000090 30 9a 26 3d 93 5f e6 bc 0e 8c 62 3c 05 8e 0f bd
       0.04067439 -0.028121745 0.013827337 -0.03504755
0000a0 5c 29 58 3c 36 c5 9c bc c6 c2 95 bc 42 b2 95 3b
       0.013193455 -0.019137006 -0.018281352 0.004568369
0000b0 ee 40 87 3b 75 08 28 3d 7e 9e 08 3d e7 d2 09 3b
       0.0041276133 0.04102369 0.033354275 0.0021030249
0000c0 ef 26 68 3c b3 a3 0b 3c 39 4a 13 bc e4 49 f7 bc
       0.014169439 0.008522916 -0.008989864 -0.030186601
0000d0 6d 5a 09 bd b6 c2 81 3b f6 6b 86 bc 52 4b 1b 3d
       -0.033533502 0.003959979 -0.016408902 0.037913628
0000e0 0a 5e 97 bc 1f ab 36 3c 70 6d a6 bc c9 35 29 3d
       -0.018477459 0.011149197 -0.020315856 0.04131106
0000f0 b6 1f 91 3c 5e 22 ba 3c 34 6c 36 3c f6 bc f0 bb
       0.017715316 0.022721466 0.011134196 -0.0073467446
000100 4c 44 7e bc d9 09 a3 bc ca 93 17 bd f6 ed 04 bc
       -0.015519213 -0.019902157 -0.037006177 -0.008113375
000110 b3 bd 92 bc 53 d0 16 3d 23 89 1e 3d 0b 6f e9 bc
       -0.017912721 0.036819767 0.038705003 -0.028495332
000120 a7 75 1d 3b f8 8d 0c bd fd 82 a1 3c 8b e8 fc 3c
       0.0024026425 -0.03431508 0.01971578 0.030872604
000130 f6 ef c6 bc 92 55 f6 bc 99 39 04 bc ee 74 07 3d
       -0.024284344 -0.0300701 -0.008070373 0.033070497
000140 4c ab eb 3c 73 fe b6 bc 85 f2 b9 3a a0 9e 04 bd
       0.028768204 -0.022338128 0.0014186656 -0.03237784
000150 fe 86 1d 3d ac 33 91 3c 7c e3 8d bc 89 4c 97 3c
       0.038458817 0.017724834 -0.017320387 0.018469112
000160 75 81 24 3b b3 f1 ce bc 7d 22 25 bd 0d 3e d1 3c
       0.0025101576 -0.025261736 -0.040316094 0.025542283
000170 d7 5d ff bc 56 76 e1 3c 33 25 4c bc 7c 01 c3 3c
       -0.031172676 0.027522247 -0.012460041 0.023804419
000180 55 63 8c 3c ad e1 d3 3c bc 27 98 bc 1a 8f a7 3c
       0.017137209 0.025864447 -0.018573634 0.020453978
000190 7e 5f 20 3c 4b 24 29 3a 78 fd d8 b9 97 0c 1a 3a
       0.009788392 0.00064522465 -0.0004138758 0.000587651
0001a0 ed 38 c6 3c a3 2f ca 3c 9a 09 7e bc b8 9e 81 ba
       0.024197066 0.024680918 -0.015505219 -0.0009889221
0001b0 70 17 19 bc 16 c7 75 bc 43 08 96 3c cf ba 1d 3d
       -0.009343967 -0.015001079 0.018314486 0.038508233
0001c0 13 73 ac 3c 62 82 2b bc 0a 3c cc 3c 77 55 25 3d
       0.021050965 -0.010468097 0.024930973 0.04036471
0001d0 14 36 33 3c 9a 05 13 3d 19 5c 4e 3c 43 c7 16 bc
       0.010938186 0.035894014 0.0125952 -0.009202781
0001e0 42 15 57 3c fc db 16 3c 78 f5 3a 3c 1f 82 34 bc
       0.013127627 0.009207722 0.011411063 -0.011017351
0001f0 2c 47 00 bd 14 2d 21 bd 8c 2d dc bc a7 27 ce 3c
       -0.031317875 -0.03934963 -0.026877187 0.025165392
000200 4b 37 23 bc eb 6b 0a bd 89 cc 01 3d 13 d6 1c bd
       -0.009961913 -0.033794325 0.0316892 -0.038290095
000210 ee eb f3 3b f3 29 13 3d 93 ea a9 bc 46 f5 bf ba
       0.0074438965 0.035928678 -0.020741737 -0.0014645241
000220 b1 90 26 3d ac 22 0f 3d 65 d9 ef 3c e4 ec 03 bc
       0.040665332 0.034945175 0.029278466 -0.008052085
000230 9a f6 c4 3c 53 2c 85 3c 55 fb ea 3a 41 6e 1b 3d
       0.02404337 0.016256487 0.0017927686 0.037946943
000240 b8 85 41 3c aa 30 d5 3c ec 48 01 bd 00 f2 4c 3c
       0.011811666 0.026024181 -0.031563684 0.012508869
000250 46 60 1d bd 71 bb e2 3b 38 a9 36 3c 34 ff c9 3c
       -0.03842189 0.0069193174 0.011148743 0.024657823
000260 23 12 b5 3c a6 30 98 bc 42 e2 ca 3c 48 55 2a bd
       0.022103375 -0.018577885 0.024766091 -0.041585237
000270 08 ef 0d 3d b5 e2 a3 3c 98 d8 d1 bb 0e 5f 48 3c
       0.034651786 0.020005563 -0.006403994 0.012229694
000280 45 0c bc 3c 97 e1 08 bd 0d 87 dd 3c 74 c3 4b 3c
       0.02295507 -0.033418264 0.027041936 0.012436736
000290 d7 19 26 3d 3f 87 f0 3a 46 50 88 3b 5c fa 1c 3c
       0.040551987 0.0018350853 0.00415996 0.009581175
0002a0 fe 08 0a 3d 2e 29 0e bd 83 b9 bc 3c f2 a7 b8 3c
       0.033699982 -0.03470724 0.023037678 0.02254102
0002b0 44 55 9c bb 17 81 f3 bc 93 c1 fc 3c a5 0f c5 3c
       -0.0047709066 -0.02972464 0.030854022 0.024055311
0002c0 12 40 33 bc ad 35 c8 3b 72 12 63 bc f3 dc a2 bc
       -0.0109405685 0.0061099143 -0.013859378 -0.019880747
0002d0 55 cd 24 3d 11 42 80 3c 67 99 cc 3a 5a 86 d1 3c
       0.040234882 0.015656503 0.0015609682 0.02557676
0002e0 ac 66 dd 3c 31 a5 af 3c 51 5c 92 3c 70 28 02 bd
       0.027026497 0.021441074 0.017866286 -0.031776845
0002f0 c1 e9 8d bc 67 8d 0a 3d bd bb 42 3c 6c 93 2e 3c
       -0.017323377 0.033826258 0.011885581 0.010655265
000300 65 73 e5 bc 54 bf a8 bc bc c0 85 bc f3 8c 9d 3c
       -0.028009126 -0.020599045 -0.016327254 0.019232249
000310 24 ee 8d bc 73 18 00 3d 02 f9 f2 bc 72 e0 ed bb
       -0.017325468 0.031273317 -0.029659752 -0.007259422
000320 31 76 10 3d d2 e1 8f bc a7 63 2c 3a 6f 1f 4a bc
       0.035268966 -0.017563734 0.00065761287 -0.012336596
000330 00 14 70 3c 79 b0 ac bc 54 3b 01 bd 8f 88 80 bc
       0.014653206 -0.021080242 -0.03155072 -0.015690116
000340 50 97 89 3c fc 23 31 bc 3b e7 02 bd fd 8b 0e bc
       0.016795784 -0.010811802 -0.0319588 -0.008700368
000350 20 fc 94 bc fc dd 0d 3d 00 97 c6 bb 45 6e 97 3c
       -0.018186629 0.03463553 -0.006060481 0.018485198
000360 1e e5 1b 3d 7c 1f ff bc 60 22 66 3c be b5 83 3b
       0.0380603 -0.031142943 0.014046282 0.004019468
000370 af 0c 0a 3d 84 73 a9 b9 1d 13 32 3c 0e 61 2c bd
       0.033703502 -0.00032320258 0.010868815 -0.042084746
000380 49 1f 1e 3d d6 60 07 bd 87 99 f1 3c cd 43 ea bc
       0.038604055 -0.033051334 0.029492153 -0.028596783
000390 93 a8 fb 3b 3b e0 47 ba ee bd f4 3c 52 6c 23 bd
       0.0076800077 -0.00076246605 0.029875722 -0.039898224
0003a0 53 6a 0a 3d 3c e5 20 3d e2 ce 43 3c 0f 32 1d 3d
       0.033792805 0.039281115 0.01195118 0.038377818
0003b0 e5 67 09 3d 1e e6 f6 3a b6 91 bf 3c 41 88 35 3b
       0.033546347 0.0018836891 0.02338491 0.0027699622
0003c0 f8 52 25 3c a9 7b ed bc 5d 8f 39 bc e3 cc b9 bc
       0.010090582 -0.02898963 -0.011325684 -0.022680705
0003d0 80 f0 c8 bc 20 6c d9 bc 48 9a 91 bc 16 24 ee 3b
       -0.024528742 -0.026540816 -0.017773762 0.0072674854
0003e0 d6 c0 a3 ba d0 9f 99 3c bb 67 95 3c 10 b6 3f bc
       -0.0012493383 0.018752962 0.01823794 -0.011701122
0003f0 08 49 dc 3c 00 aa 00 bd 78 f8 d4 bc 01 8b 1c 3d
       0.026890293 -0.031412125 -0.025997385 0.038218502

conv3.bias f4 [128]
000000 73 a6 d8 3c 33 97 0b bd d4 0b b0 3e 2e 85 07 3c
       0.026446557 -0.03407974 0.34384024 0.008271499
000010 56 63 b9 bc f8 75 9a 3e ff b4 a5 3d c8 11 1e bd
       -0.022630375 0.30168128 0.08091163 -0.038591176
000020 9c d3 14 3c ab f6 bc ba f1 60 b6 3e 50 a6 86 bc
       0.009083655 -0.0014416775 0.35620835 -0.016436726
000030 01 a6 08 bd 76 23 03 bd 5c 0b 56 3c 91 fd 8f 3c
       -0.03336144 -0.03201624 0.013064232 0.017576965
000040 dc c1 30 bb 50 b9 72 3e 5a 63 11 3b 46 9d 1a 3c
       -0.0026971018 0.23703504 0.0022184462 0.009436911
000050 04 c9 c1 bc cd 8b 66 3e 98 ce 75 3c 81 2f e8 bc
       -0.023655422 0.22514267 0.015002869 -0.028342964
000060 ee 17 06 3d 80 8f 70 3e 3a af 6c bc 72 95 f3 3b
       0.032737665 0.23492241 -0.014446074 0.0074335868
000070 92 ba f5 bc 21 27 7e bc d2 5f 4e 3e a2 5e 98 3e
       -0.02999619 -0.015512259 0.2015374 0.297597
000080 b2 d9 a7 3d 93 20 85 3e 36 c8 3b 3e 49 60 6f 3e
       0.08195819 0.26001415 0.18338093 0.23376574
000090 91 3e 19 3c 1b 62 92 3e 19 e1 20 3b c9 b7 f7 3c
       0.009353296 0.28590474 0.002454823 0.030239003
0000a0 23 d2 96 3e 3e 94 66 3e 68 2f e8 3c 91 9a 4b 3c
       0.29457197 0.22517487 0.028342918 0.012426988
0000b0 bc bb 61 bc 82 67 04 3e 79 b3 20 3d cc c6 89 3e
       -0.0137776695 0.1293011 0.03923366 0.26909482
0000c0 05 49 a8 3e 3f 57 d0 3d 63 0f ff 3b b3 40 09 bd
       0.3286821 0.10172891 0.0077838167 -0.033508968
0000d0 70 46 07 3c b8 03 8f bc 31 bd e5 bc c2 62 1e bd
       0.00825654 -0.017457828 -0.028044315 -0.0386684
0000e0 d8 d0 a1 3e c2 c5 24 3e 94 03 1d bc 59 e7 05 bd
       0.31604648 0.16091064 -0.009583373 -0.032691333
0000f0 9b 8e b9 38 02 32 10 3e 88 de cc 3d 4a 4f 8c bc
       8.84805e-05 0.14081576 0.10003382 -0.017127652
000100 9b 6a 06 3d f3 38 0a 3c 8d ab c7 bc 5b 7d d3 bb
       0.03281651 0.008436429 -0.024373794 -0.0064541525
000110 d1 e6 95 3c 58 e7 2d bd 33 20 87 3e 6d 42 81 3c
       0.018298538 -0.042456955 0.26391754 0.015778745
000120 64 bf cb bc d4 a8 cc bc 97 a6 98 3e 0c 16 02 bc
       -0.024871536 -0.024982847 0.29814598 -0.007939827
000130 cd 5f 8f 3b 09 7b 01 3d ba 37 33 3e 3f f6 03 bc
       0.004375434 0.031611476 0.17501727 -0.008054315
000140 80 1f 85 3e 59 19 19 3e f2 5a 6f 3c 14 ab a2 3e
       0.26000595 0.14951076 0.014609085 0.31771147
000150 46 7e 27 bd 8e 7d 0b bd 4a 1a f4 3d d0 f3 35 3c
       -0.040891908 -0.034055285 0.11919077 0.011105493
000160 61 4f 17 3e 35 a3 3d 3e c3 d3 b2 bc 24 1b 0b 3e
       0.14776374 0.1851929 -0.021829491 0.13584572
000170 2f 64 00 3d 33 7b c1 bb 9b 66 f9 bc 53 70 93 3e
       0.031345543 -0.005904579 -0.030444434 0.28796634
000180 5e ac 89 3e fe 4a 9d 3e e1 d9 e4 3d 23 d4 51 3e
       0.26889318 0.30721277 0.111743696 0.2049108
000190 19 45 8a 3e 88 bb 9c 3c 5b e2 c7 3d 74 22 ab bb
       0.27005842 0.01913239 0.09759971 -0.005222613
0001a0 30 f5 b6 3b 49 56 a3 3e 04 77 b3 3e 31 4a 0e bc
       0.005583428 0.31901768 0.3505174 -0.008684681
0001b0 c9 59 0d 3d 15 1e be bb 5e db 99 bc ce a8 90 3e
       0.034509454 -0.005801926 -0.01878136 0.28253788
0001c0 ce 2b f6 3c ab b9 3e 3e 7e 21 0f 3e fc fd 6e 3e
       0.030050185 0.18625514 0.1397762 0.23339075
0001d0 4d 4b 0f bd d2 29 97 bc eb 4f a8 bb 5c 4e e2 3c
       -0.03498392 -0.018452559 -0.00513648 0.027625255
0001e0 8a 65 97 3e 33 83 5e 3e 8c 00 43 3e 1c 59 e6 3c
       0.29569656 0.21729736 0.19043177 0.028118663
0001f0 52 47 a8 3c da 50 29 3e 81 76 00 3c b1 41 64 3e
       0.02054182 0.16534749 0.0078407535 0.22290684

fc1.weight f4 [6, 128]
000000 fc c1 49 bd 49 93 9e 3d fa 34 dd 3d c0 ff 81 3c
       -0.049257264 0.07742936 0.1080112 0.015869021
000010 be 4f 0c bc 6b a6 bb 3d 0d 1d ba 3c 8e 55 71 bc
       -0.008563934 0.09162601 0.02271893 -0.0147298705
000020 c5 fc 9b 3d f8 0a 1b bd aa 52 ca 3d c7 85 00 3d
       0.07616571 -0.037852257 0.09879048 0.03137758
000030 c5 b1 72 bd e2 ec a4 bd a9 dc a4 3d 95 eb b4 3d
       -0.059251565 -0.08052994 0.080499 0.08833996
000040 cb 39 68 bc 96 86 c5 3d a7 d8 96 3a f7 46 90 3d
       -0.014173935 0.09644811 0.0011508659 0.070447855
000050 f2 76 83 bd 2b 8b b9 3d 06 6d 9f bd 8f 9d 16 bd
       -0.064191714 0.09059747 -0.077844664 -0.036771353
000060 0f 65 89 3d c4 e3 ac 3d fc 85 6a 3b 04 1f 60 3d
       0.067087285 0.0844188 0.0035785427 0.05471708
000070 34 4e 3a bd 64 f3 ac bd 81 9f 76 3d d6 36 e1 3d
       -0.045484737 -0.084448606 0.06021071 0.10996787
000080 d5 7e 08 bc ca 9a a8 3d ed 56 d8 3d 58 fb e8 3d
       -0.00833102 0.08232649 0.10563455 0.11376065
000090 2e 47 a3 bd 0c ee e0 3d a5 bb 2d bd 04 33 8d 3d
       -0.07972561 0.10982904 -0.04241528 0.06894496
0000a0 09 9e ee 3d 03 98 97 3d 9e bb 3f bd 4b f4 1f 3d
       0.116512366 0.07402041 -0.046809785 0.039051335
0000b0 35 5d 90 3d 17 ae 04 3e ac 66 bd 3c 1d c3 d8 3d
       0.07049028 0.12957035 0.023120247 0.1058409
0000c0 77 ff f4 3d f1 9a 1c 3e f3 4a 1a bd ce 6e b7 3c
       0.119627886 0.1529348 -0.037669133 0.022391703
0000d0 d6 85 53 bc 2e 91 a0 bd 07 8e 8d bd 0e 18 f4 3c
       -0.012910327 -0.07840191 -0.06911855 0.029796626
0000e0 5a 17 03 3e 3a b6 d5 3d d6 6b 30 bd 2b af 46 3c
       0.12801877 0.104351476 -0.04307159 0.012126724
0000f0 c5 43 36 3d b4 81 f6 3d 7e 5c 23 3d cc 54 56 3d
       0.044498224 0.12036458 0.03988313 0.052326962
000100 12 b6 0e bd ed 8c 24 bd 2e fa 1c bd 93 bc 63 bd
       -0.034841605 -0.04017346 -0.038324527 -0.05559976
000110 85 97 92 3d 97 23 b9 3c 30 12 fc 3d 20 38 8c 3d
       0.07157806 0.022599978 0.123081565 0.068466425
000120 0a 1b 18 bd 09 91 6a bc ff d1 bb 3d 9d 8b a8 3d
       -0.03713516 -0.014316806 0.09170913 0.08229754
000130 5a f0 b1 3d ef 7e 01 3d de 19 a5 3d ba 6d 11 bd
       0.086884215 0.031615194 0.080615744 -0.035505034
000140 81 67 be 3d e4 24 ae 3d 14 e3 2b bd 64 fd d9 3d
       0.092970856 0.0850313 -0.041964605 0.106440336
000150 f3 34 43 bd 79 13 0c bc e6 fc 05 3e 05 3b 98 3b
       -0.04765792 -0.0085495645 0.13084754 0.0046457076
000160 8d 16 ab 3d 1e 1c df 3d 9a 16 d9 bc 93 00 a6 3d
       0.083539106 0.10894035 -0.026500035 0.08105578
000170 05 37 2d 3d 88 d1 b7 bc 06 da 97 bc 26 43 c3 3d
       0.0422888 -0.02243878 -0.018536579 0.09534292
000180 35 5d d4 3d 77 a0 f9 3d 6d 01 db 3d d8 af 86 3d
       0.1036934 0.12188809 0.10693631 0.06576508
000190 93 8b e3 3d 6a b2 85 3d d1 10 8d 3d 81 b5 90 bd
       0.11110606 0.065281704 0.06887973 -0.07065869
0001a0 e2 07 84 bc 8a d0 0e 3e 14 11 19 3e 0c 8a 83 bd
       -0.01611704 0.13946739 0.14947921 -0.06422815
0001b0 a0 80 b2 3d d2 28 a4 3d b0 c8 71 3d 12 24 dc 3d
       0.087159395 0.08015598 0.05902928 0.10749067
0001c0 e1 96 90 bd d1 92 2a 3e 65 5b ad 3d 7e 33 b7 3d
       -0.07060028 0.16657569 0.08464698 0.08945368
0001d0 f0 0f 1e bd cf bb 31 38 28 e2 9d 3d 91 1c 8a 3d
       -0.038589418 4.2375e-05 0.077091515 0.0674373
0001e0 e9 9a c6 3d fb 92 b1 3d 62 f0 d5 3d 94 2a 15 3b
       0.096975155 0.086706124 0.1044624 0.0022760974
0001f0 51 1d 2a 3d 40 bd e1 3d 38 67 06 bd d9 60 a5 3d
       0.041531865 0.11022425 -0.03281328 0.08075113
000200 8e fa e4 bc 31 8f 2a bd 96 0d 17 3e ac 10 30 bd
       -0.027951505 -0.041640464 0.14751276 -0.04298465
000210 52 28 c7 3c c1 c4 09 3e a8 85 0e 3e 0b 7e a2 bd
       0.024311218 0.13453962 0.13918173 -0.07934197
000220 c3 57 fb 3c 96 43 15 bd 40 49 0f 3e e7 f1 77 3c
       0.030681496 -0.036441408 0.13992786 0.015133358
000230 f4 52 89 3d 7b 4f 08 3d d2 44 9d bc e9 8d 69 bd
       0.06705275 0.033278923 -0.019197855 -0.0570201
000240 90 3c 8f 3d c9 06 0b 3e 0b 57 43 3d ce 6b f6 3c
       0.06993973 0.13576807 0.047690433 0.030080702
000250 80 58 11 3c 5e 21 13 3e 38 0d 46 bb d1 19 2a bd
       0.008871198 0.14368197 -0.0030220281 -0.041528527
000260 51 14 92 ba 0b e6 dd 3d c7 d8 97 3d f1 c9 8e bd
       -0.0011144971 0.10834893 0.07414394 -0.06972111
000270 88 8c 99 bd d1 21 51 3a af c6 16 3e 42 6b 11 3e
       -0.07497507 0.00079777563 0.1472423 0.14201072
000280 5c 37 f5 3b 82 a7 d9 3d cb 77 37 3e 21 40 1b 3e
       0.007483406 0.10627653 0.17916791 0.15161182
000290 7d b3 63 bd bf be 21 3e ea 16 1b 3d c2 f9 36 3d
       -0.055591095 0.1579542 0.03786365 0.04467178
0002a0 3b 9f 18 3e 83 90 e4 3d a2 83 65 bd aa c5 71 3d
       0.14904492 0.11160376 -0.056033738 0.059026398
0002b0 38 36 47 bd 29 9b 06 3e 35 1a 1f bd d9 cc 16 3e
       -0.04863569 0.13145126 -0.038843352 0.1472658
0002c0 6a 08 1e 3e 6a 04 ef 3d df 99 b8 3c 38 7c 8d 3c
       0.15432897 0.11670764 0.022534309 0.017271146
0002d0 93 4d 45 bc 88 40 fe bc 2e 9d 82 bc ba 6f e4 3c
       -0.012042421 -0.03103663 -0.01594409 0.027885307
0002e0 3c 45 2c 3e 8d 50 21 3e 8f c1 63 3d 04 c3 2a 3d
       0.16823286 0.15753384 0.055604514 0.041689888
0002f0 d3 9e 7b 3d bd 8a 14 3e c3 51 21 3e 03 19 7c 3d
       0.061430763 0.1450605 0.15753846 0.06154729
000300 05 cd 92 3d c6 b4 69 bd e2 7e aa bd b2 92 31 bd
       0.071680106 -0.057057165 -0.08324982 -0.04335279
000310 ae d3 6f bd 27 21 fa bc 29 eb 22 3e c0 33 19 3c
       -0.058551483 -0.030533386 0.15910019 0.009350717
000320 a4 87 a7 bd 32 09 43 3c 12 15 0f 3e 96 21 4c bd
       -0.08180168 0.011904048 0.13972881 -0.049836718
000330 be c8 24 3d 71 cd 16 bd de 9e 10 3e e5 6c a1 3d
       0.040230505 -0.036817018 0.14123103 0.07882098
000340 28 8b e4 3d 86 1b ff 3d e7 bf 03 3d e7 49 0f 3e
       0.111593544 0.124564216 0.032165434 0.13993035
000350 90 94 55 3d 24 20 2e 3d 48 be f9 3d 2f df b8 3b
       0.052143633 0.04251112 0.121944964 0.00564184
000360 ba c0 01 3e b9 d5 eb 3d 6b 7f 83 bd fd 44 40 3e
       0.12671176 0.11515374 -0.064207874 0.18776317
000370 47 1c a6 3c 44 68 a3 3b ab 40 8c 3d c8 2c 00 3e
       0.020277156 0.0049867947 0.06848272 0.12517083
000380 cb e3 15 3e bd dc 25 3e 3a 30 2b 3e 2f 8b c1 3d
       0.14637677 0.16197486 0.16717616 0.09450375
000390 6f bf 19 3e 89 63 49 bd 56 09 05 3e 9c e0 0f bb
       0.15014432 -0.04916719 0.12991843 -0.0021953946
0003a0 c3 53 de bb 00 c5 3d 3e 01 0e 57 3e 29 1c c7 3b
       -0.0067848875 0.18532181 0.21001436 0.006076355
0003b0 a4 c7 f5 bc d7 73 46 bb 37 07 9b 3d a7 53 19 3e
       -0.030002423 -0.0030281448 0.075697355 0.14973317
0003c0 a8 7c 2c bd 2a b3 46 3e 35 4a 09 3e 8c 88 db 3d
       -0.04211107 0.19404283 0.13407214 0.107194036
0003d0 53 0c 0e 3c 01 00 9d 3d 97 0e a2 bd c5 57 46 3d
       0.0086699305 0.07666016 -0.07912939 0.048423547
0003e0 f2 d4 0f 3e c7 e0 1c 3e 39 f2 e3 3d 56 ef a9 ba
       0.14046076 0.15320121 0.11130185 -0.0012965004
0003f0 98 a4 b6 3c 32 ad a9 3d 8a 8f 77 3d 67 f7 0d 3e
       0.022295281 0.082849875 0.060439624 0.13863908

fc1.bias f4 [6]
000000 cb ce 16 3f 3c 3f 49 3f 55 65 36 3f 23 67 44 3f
       0.5890929 0.78612113 0.7124837 0.76719874
000010 4d 94 33 3f 57 a7 6f 3f
       0.70148164 0.93614715
