models/convNN2_tiny_list.txt.pt (torch, 384527 bytes, 8 tensors)

conv1.weight f4 [32, 3, 5, 5]
000000 b0 92 b4 3d ff 0e c4 3d 5e 7f de bc ba 02 d9 3d
       0.08817041 0.09573173 -0.027160343 0.10596223
000010 f5 27 d0 bc e0 f4 bd 3c c7 b8 66 bd a7 a7 8a 3d
       -0.025409678 0.023188055 -0.05632856 0.067702584
000020 9e 3d d0 3d f8 b7 ad bd 08 51 cd 3d 6a 1d b0 3c
       0.101680025 -0.08482355 0.10025221 0.0214984
000030 51 7c ae 3d 62 5e 7e 3c a7 98 63 3d de 7d 86 bc
       0.08519805 0.015525432 0.055565502 -0.01641744
000040 86 11 b6 3d bd e4 8a 3c 0d 43 5d bd 5a 30 f0 3c
       0.08890061 0.016954774 -0.054019023 0.02931993
000050 cd 5f 5a bd 0b b6 5f bc ee 8e 40 bd 62 a5 9c 3d
       -0.05331402 -0.013654242 -0.04701131 0.07648732
000060 a7 e6 ba bd fe 6a 5a bd 43 ec 05 bd d7 5f 8e bd
       -0.09126025 -0.053324692 -0.03269602 -0.06951874
000070 93 13 31 3c 14 c1 e9 bd 86 60 d5 3d 02 13 c9 bd
       0.0108078895 -0.1141378 0.10418801 -0.098180786
000080 d5 61 b6 3d 20 a9 9c 3c da f3 19 bd 55 f0 91 3d
       0.08905379 0.019123614 -0.03758607 0.07125918
000090 58 a6 92 3c 8a e0 be 3d a4 46 4d 3c ab 8b 15 bd
       0.017901585 0.09320171 0.012529049 -0.03651015
0000a0 9b 5e fd 3c 4d a6 00 bd e0 a9 46 3d 73 f1 d2 3d
       0.0309289 -0.031408597 0.04850185 0.10299959
0000b0 e2 81 88 3d d0 27 4f bd ae 51 88 3d 08 7b a8 3c
       0.06665398 -0.050575078 0.06656204 0.020566478
0000c0 d0 cd 6f 3d ff 53 90 bd cd 44 ea bd e5 12 37 bd
       0.058545887 -0.07047271 -0.11438904 -0.044695754
0000d0 59 8e b5 bd 7d df c1 3d 9a e3 07 3d c7 8d 43 3d
       -0.08865041 0.09466455 0.033176042 0.04774263
0000e0 34 3b 15 3d b3 34 09 bb ec e5 b8 3d c5 32 a8 bd
       0.036433414 -0.0020935952 0.09028229 -0.082128085
0000f0 21 58 eb 3b 72 96 a1 bd 30 7c 11 3d 9a 3c 23 bd
       0.0071821366 -0.07890023 0.035518825 -0.039852716
000100 a2 91 10 3d 15 ce c5 bc aa f4 c3 3d be 57 8c bd
       0.035295136 -0.02414612 0.0956815 -0.06852673
000110 87 37 8d bd ad 39 8d bd d4 85 d4 3d ad 41 1d 3d
       -0.068953566 -0.068957664 0.10377088 0.03839271
000120 8e 60 e3 3d 61 57 c3 bd dc bc ea bd f6 03 b9 bd
       0.11102401 -0.095381506 -0.11461803 -0.090339586
000130 4d 14 9f bd e8 91 3f 3d 83 5b 29 3d cd 7f c4 3d
       -0.07767544 0.046770006 0.041347038 0.095946886
000140 55 40 74 bd 89 36 a1 bd f0 f1 7a 3d ba 2c 3f bd
       -0.059631664 -0.0787173 0.061265886 -0.046673514
000150 e7 86 8f 3d 4e 78 e0 bc 69 47 87 3d 4e bd b7 bd
       0.070081525 -0.027401116 0.06605417 -0.08971654
000160 8d ae 6e bd 2c 32 10 3d 15 fa c7 3c 5d 2c f1 bc
       -0.058271933 0.035204098 0.02441124 -0.0294401
000170 c9 f5 8c 3d 5a c3 a0 3d ad 7d ab bd 4b 80 7c bd
       0.06882817 0.0784976 -0.0837358 -0.061645787
000180 c6 89 d8 3d 08 98 1f bd 89 ac 27 bd c1 d1 e4 bd
       0.10573153 -0.038963348 -0.040936027 -0.1117282
000190 34 6d 87 bd 05 4c ec 3c 79 b6 79 bc d2 a8 ab bd
       -0.06612626 0.028844843 -0.015241259 -0.08381809
0001a0 da 81 31 3b 75 89 a1 bd 90 a1 c8 bd e0 38 82 bd
       0.0027085454 -0.07887546 -0.097964406 -0.06358504
0001b0 f5 f8 ce bd d8 93 96 bd e2 63 ec 3d a1 a9 b2 3c
       -0.101060785 -0.07352418 0.11542489 0.021809401
0001c0 b5 bf 11 3d 4d 90 dc bd cd 50 9b bd e4 6d 1d bd
       0.035583217 -0.10769711 -0.07583771 -0.038434878
0001d0 8e ea 93 3c 0d 16 d0 bd bb c9 4b bd 22 93 8d bd
       0.01805618 -0.10160456 -0.049752932 -0.06912829
0001e0 51 c5 a7 39 ee fd 2f bd 15 19 03 bc 68 3f a0 bd
       0.00031999734 -0.042966776 -0.0080015855 -0.07824594
0001f0 10 52 a2 bd e4 f6 89 bd 13 e5 21 bd b8 a6 ba bd
       -0.079258084 -0.06736544 -0.039525103 -0.0911383
000200 99 48 c6 3d b4 bb bb bc 0b 78 cb 3d 16 5e 13 3d
       0.09681816 -0.022916652 0.09935006 0.0359784
000210 b8 40 c8 bd 82 a7 a3 3d 4b 22 02 bd c8 4c 35 bd
       -0.09777969 0.07990934 -0.031770986 -0.044262677
000220 1b 4c c4 bd 0d 1a eb bd 07 52 07 3d fc a1 ce bc
       -0.095848285 -0.11479578 0.03303721 -0.025223725
000230 e7 22 38 3d 9b 12 c2 bd 56 92 af 3d 4b 97 ad bd
       0.04495516 -0.09476205 0.08572833 -0.084761225
000240 46 56 a3 bc 85 93 c5 3c 51 2b 74 3d 37 ea be 3d
       -0.0199386 0.024118194 0.059611622 0.09322017
000250 13 6d d7 3d 29 83 bb bd 6d 0d ee 3c 30 70 4b bd
       0.10518851 -0.09155876 0.029059136 -0.049667537
000260 60 55 4f bc ba 01 b1 bd 88 66 d7 3d 84 91 ad bd
       -0.012654632 -0.086429074 0.10517603 -0.084750205
000270 f5 c5 7c 3d 20 37 26 3d 8a b0 19 3d d5 b5 7f bd
       0.061712224 0.040579915 0.037521876 -0.062429268
000280 06 f3 d6 3d 88 dc cf 3c 7a 5b 73 3c 23 67 d0 bd
       0.10495572 0.025373712 0.014853353 -0.10175922
000290 e9 8a 46 3d 4b ea 8d bc 11 ae 58 bd df 1f cb 3d
       0.04847232 -0.017323634 -0.052900378 0.09918188
0002a0 80 e3 d2 3c 64 d7 82 bd 24 63 6f bd 8d b3 b4 bb
       0.025743246 -0.06388739 -0.058444157 -0.005514568
0002b0 da 0a 84 3d 06 b8 f1 bc 6b ee 86 bd 61 f7 21 bd
       0.06447382 -0.029506695 -0.06588443 -0.03954256
0002c0 ed ab b0 bd 12 ac 28 3d b6 0b b7 3d b8 a2 de bd
       -0.08626542 0.041179724 0.089377806 -0.1087088
0002d0 fa af db 3c c4 53 74 3d 15 85 ab 3c e5 6f 28 bd
       0.02681731 0.059650198 0.020937482 -0.041122336
0002e0 a2 db 76 3d dd 8b 78 3d 0c da 30 3d 8b 39 a6 bc
       0.060268052 0.06068026 0.043176696 -0.02029111
0002f0 e8 7c fa bc 68 62 4a 3c 81 1b a7 bc 55 f2 0c bd
       -0.030577138 0.012352563 -0.020398857 -0.034410793
000300 ff 28 97 3d 65 3b cb 3d bb 4b 3b bc cc ca d3 bc
       0.07380866 0.09923438 -0.01143163 -0.025853537
000310 5d d6 dc 3a 36 ec e1 bb 5d 69 e3 3c 67 8a 04 3d
       0.0016848553 -0.0068946136 0.027760202 0.032358553
000320 b1 c9 d6 bd 30 8b 2e bd f1 25 c7 3d 88 3e 38 3d
       -0.10487688 -0.04261321 0.097240336 0.04498151
000330 db 34 bc bb e5 93 8e bd a9 ae 90 bd 8d d5 d3 bd
       -0.0057436056 -0.069618024 -0.07064564 -0.10343466
000340 a9 2b 1a bd 7a b8 1f 3d 05 c9 96 3d 5c 5d 5a 3d
       -0.037639294 0.03899429 0.0736256 0.05331169
000350 c9 09 d1 bd 6b 36 8e bd 6c 49 95 bc ad c2 e4 3d
       -0.102069445 -0.06943973 -0.018223487 0.11169944
000360 05 d5 88 3c e6 f8 f4 bc d4 ab 43 3d 22 25 34 bd
       0.016703138 -0.02990384 0.04777129 -0.043980725
000370 a1 10 99 bd 00 9b ac 3d fc 0e 57 bd d7 a0 bd bc
       -0.07473875 0.084280014 -0.052504525 -0.023147983
000380 07 41 eb bd 2f 45 9e 3d d3 2a b3 3d fa 5e 2c 3d
       -0.11487012 0.077280395 0.087484024 0.042082764
000390 bb e4 a4 bd f9 64 e9 bd 07 11 c0 bd 4c 58 b0 3d
       -0.080514394 -0.11396212 -0.09378248 0.08610591
0003a0 b0 12 63 3d 40 00 c7 3d 8f c5 77 3d 0c 68 ef 3c
       0.055437744 0.097168446 0.06049114 0.029224418
0003b0 c7 39 94 ba c1 d8 b3 bd ac 9c ca bd ad 31 dd bd
       -0.0011308723 -0.08781577 -0.09893164 -0.108004905
0003c0 04 9d 41 3d 17 36 68 bd 3a 5f be bc ea 18 88 bd
       0.047268882 -0.05669221 -0.023238767 -0.06645377
0003d0 54 5f ac bc f2 71 a6 bd 94 85 9a bd 18 e3 1c 3d
       -0.02104155 -0.08127202 -0.07545009 0.03830251
0003e0 7b 90 0c bd 92 fd 91 3d 99 bb 17 bd e4 79 ad bd
       -0.034317475 0.07128443 -0.03704414 -0.084705144
0003f0 51 e6 a6 bc e4 44 65 bd 3d b3 10 bd 76 21 e1 bd
       -0.020373495 -0.055973902 -0.035327185 -0.1099271

conv1.bias f4 [32]
000000 80 3f b6 bd e9 a5 8b bd 4a a1 42 bd 42 04 8e 3d
       -0.088988304 -0.06818754 -0.0475171 0.06934406
000010 5e c8 1a 3d 80 4d 36 bd f2 6f a3 3d c7 e6 92 bd
       0.03778874 -0.044507504 0.07980336 -0.071729235
000020 e7 a8 c0 bd 64 29 d0 3c 1d 66 82 bd 21 d3 06 3d
       -0.094072156 0.025410362 -0.06367133 0.032916192
000030 9f 3d c8 3d 23 ab 5f bd 1e 5c a4 bd a6 1f 34 3d
       0.09777378 -0.054606568 -0.080253825 0.043975495
000040 19 49 d7 bd 16 1a d4 3d d0 5c 5f bd 9f a6 64 3d
       -0.10511989 0.10356538 -0.054531872 0.055822965
000050 4d e8 bb bd 84 11 a0 bd 48 85 58 3c 3a ba 29 3d
       -0.09175167 -0.07815841 0.0132153705 0.041437365
000060 4a 90 b6 3d 8e d2 c5 3d 94 9c d9 bb 17 38 73 bc
       0.0891424 0.09659301 -0.00664098 -0.014844916
000070 31 f1 99 3c 09 bb db bc 25 da 80 3b e0 f5 df bd
       0.018791767 -0.026822584 0.003932255 -0.10935569

conv2.weight f4 [64, 32, 3, 3]
000000 ea a8 46 bd 87 e0 24 3d e7 8c 0d bd c7 8c 3d 3d
       -0.048500933 0.04025319 -0.034558203 0.046276834
000010 e6 d7 cf 3b e3 29 69 3c 21 dd 5a 3d 17 bd 06 bd
       0.006342876 0.014231178 0.05343354 -0.032895174
000020 51 62 1a bc bc 0b 2b 3c ae ea a4 3c e6 e4 6a bd
       -0.0094228545 0.010439809 0.020131435 -0.0573472
000030 28 91 ab 3c f3 55 0e bd c8 9e fd 3b 9b 4a 23 3d
       0.02094324 -0.034749936 0.0077398755 0.03986607
000040 26 58 c0 bb c8 54 f4 ba 65 44 90 bb f8 68 49 3d
       -0.005869883 -0.001864099 -0.0044026845 0.04917237
000050 e7 2b 09 3d 3b 5b 22 3c f6 40 11 bd 27 11 03 bd
       0.033489134 0.009909446 -0.035462342 -0.03199878
000060 75 41 40 3d 85 a3 2d 3d ce bf 0b 3d 1d 31 3c bd
       0.046937425 0.042392273 0.034118466 -0.045945276
000070 fc f7 3b 3d 97 93 b8 bb a5 d2 31 3d d4 a1 51 3d
       0.045890793 -0.0056328285 0.043413777 0.051179722
000080 af a4 d3 3b 50 de c8 bc cd 08 63 3d fe 8d fb bc
       0.006458841 -0.02452007 0.055428315 -0.030707356
000090 37 b5 1d 3d b3 6f 67 bd f7 d1 97 bc 19 6e 52 bd
       0.038502898 -0.05650301 -0.018532736 -0.05137453
0000a0 35 89 d8 bc b0 f8 cc 3c d4 f0 2c bd 80 ba 50 bd
       -0.026432613 0.025020927 -0.04222186 -0.05095911
0000b0 7d 94 2c 3d ac d7 00 3d fa e9 28 ba 13 26 2a bd
       0.042133797 0.03145568 -0.00064435566 -0.041540217
0000c0 3f c7 7f bc 6d 4b 9c bc c3 0f 15 3d dd e3 9d bc
       -0.015611469 -0.019078935 0.036391985 -0.019273693
0000d0 c7 07 8b bc da 16 2b bd 6a e9 e3 bc fa 68 02 3d
       -0.016971482 -0.04176984 -0.027821261 0.031838395
0000e0 ee 3b 1b 3d bb 30 0b 3c eb a7 b5 bc 92 8d 67 3d
       0.03789895 0.008495505 -0.022174796 0.056531496
0000f0 e4 80 3d 3c 08 dd ba bc e9 d8 a7 bc 6d 1d 07 bc
       0.011566374 -0.022810474 -0.020489173 -0.008246762
000100 d2 da e4 3c d9 8f b0 3c 9e f9 2e 3d 46 02 2e bb
       0.027936373 0.021552967 0.042718522 -0.0026551648
000110 20 a0 47 3d b5 13 c4 bc bd 51 de bc a0 44 b2 bc
       0.04873669 -0.023935178 -0.027138585 -0.021761239
000120 ef 71 62 bd 13 70 1e bd 58 66 5a bd 6b 38 64 bb
       -0.055284437 -0.0386811 -0.05332026 -0.0034823667
000130 15 a0 11 3a 48 92 7a bc dc f0 24 bd 7c fb 5a 3d
       0.0005555165 -0.015293665 -0.040268764 0.05346249
000140 a7 f1 9f bc 9a 1f e5 3c f5 a1 27 3d e0 19 1f bd
       -0.019524409 0.02796917 0.04092594 -0.038843036
000150 20 fd f4 bb 8e 0c 0b 3d f9 85 69 3d 58 17 f7 bb
       -0.007476464 0.03394752 0.057012532 -0.0075406246
000160 e7 73 2e 3d 91 df 3d bd 05 d2 1c bd 66 7a 46 3d
       0.042591 -0.046355788 -0.038286228 0.048456572
000170 a0 d0 b6 bb ac 71 6e 3d 83 68 8c 3b 05 30 c8 bc
       -0.0055790693 0.058213875 0.0042849197 -0.02443696
000180 f9 38 65 3d 94 10 53 3d 70 32 b3 3b 03 a3 12 bd
       0.055962536 0.051529482 0.005468659 -0.03579999
000190 3a 57 2c bb f0 c6 e8 bc a8 8c 2f 3d bb c5 2d 3b
       -0.0026297108 -0.028415173 0.04285875 0.0026515562
0001a0 54 00 4a 3c ff 0e 12 3d 77 45 9f 3c 84 fa 16 bd
       0.01232918 0.035658833 0.019442303 -0.036860004
0001b0 15 82 48 3d 3e 48 14 3d b5 fe 14 bd 54 7e 36 3d
       0.04895218 0.036201708 -0.03637572 0.04455407
0001c0 4e f3 88 3c 28 0b 3e bc ef 9c 2c bd 2c 31 20 bc
       0.01671758 -0.01159934 -0.04214185 -0.0097773485
0001d0 12 a4 6c bd 24 c2 09 3d 21 ce 2e 3d 41 f9 8a bc
       -0.057773657 0.033632413 0.04267705 -0.016964557
0001e0 7b c0 5f 3d 16 bf b2 bc 57 54 25 3c a5 33 28 bd
       0.054626923 -0.021819633 0.010090909 -0.041064877
0001f0 ba 44 23 bb 0a 21 c3 3c 46 2c cf 3c 19 5c 07 bb
       -0.002491279 0.023819465 0.025289666 -0.002065426
000200 d8 23 f4 bc b1 56 28 3d 6e 6e 1f 3d 06 80 19 3c
       -0.029802248 0.0410983 0.038923673 0.009368902
000210 f3 b5 de bc e6 40 4b 3c f1 83 93 38 fe 5e 5c 3d
       -0.02718637 0.01240561 7.034082e-05 0.05380153
000220 ca 85 0e 3c 6f d2 93 3b c7 d9 82 3b f9 43 00 3d
       0.00869889 0.0045111696 0.0039932462 0.031314824
000230 19 b3 47 ba ad bb 4e 3d 40 36 fb 3c 48 83 36 bd
       -0.0007617935 0.05047195 0.030665517 -0.044558793
000240 63 7d b6 b8 46 37 4d bd 4b a9 39 bd cf 2e 3a 3c
       -8.7017914e-05 -0.05010154 -0.045327466 0.011363699
000250 ef 97 57 3c 98 a6 ab bb 12 10 65 3d b2 fe 01 bd
       0.013158782 -0.0052383654 0.05592353 -0.031737037
000260 34 f6 ca bc 68 0f 1d bc 5b 9c 5a 39 fd 65 a8 bb
       -0.024775602 -0.009586193 0.00020848347 -0.005139111
000270 54 b4 58 3d 64 15 cd bc 81 b1 fd bc c1 1b a1 3b
       0.05290635 -0.025034614 -0.03096843 0.0049166386
000280 6d ae 34 3d 99 c6 62 3c 26 07 02 3d e9 e4 3a 3c
       0.044111658 0.013841295 0.0317451 0.0114071155
000290 20 b5 4d 3d 46 f7 10 3d 81 b5 2c 3d f6 08 02 bc
       0.050221562 0.03539207 0.042165283 -0.007936707
0002a0 fa d1 47 bd 07 fc e4 bc 4f 72 a4 3c 0e 53 29 3d
       -0.048784234 -0.027952207 0.020074038 0.041338973
0002b0 b7 99 bc bc 69 b4 47 3d ca c1 0a 3c a2 5c 75 39
       -0.023022516 0.048756037 0.0084690545 0.00023399529
0002c0 9b 8a 16 3b ea 91 2a bc e5 f4 61 3d 75 b9 27 3b
       0.00229708 -0.010410765 0.05516519 0.0025592719
0002d0 22 e3 12 3d 8b a4 4c bd 22 8c fa bc 4a a4 d1 3b
       0.035861142 -0.049961608 -0.030584399 0.0063977586
0002e0 ee cd 3f 3d 87 fe e3 3c 70 39 34 3c 28 5e 6f bd
       0.04682725 0.027831329 0.011000022 -0.058439404
0002f0 01 bb 68 3a 50 52 1f bd fc 16 4e bd 57 04 04 3c
       0.00088779634 -0.03889686 -0.05031489 0.008057675
000300 8e b5 18 bd 26 11 5b 3d 4e 30 03 bd 90 90 9b 3c
       -0.03728252 0.05348315 -0.03202849 0.018989831
000310 38 ab 0d 3d dd 97 3b bd 9e 8b f6 3c 8e 41 02 bc
       0.034587115 -0.045799125 0.030095872 -0.0079502
000320 57 a2 f9 3c c7 51 69 3d f2 34 ce bc dc 8c d1 bc
       0.030472917 0.056962755 -0.02517173 -0.025579862
000330 a9 85 3f 3d be c4 d4 3b 82 7b c2 bb 26 a2 36 3d
       0.046758328 0.00649318 -0.0059351334 0.04458823
000340 39 2e ea bc 00 54 46 bb b1 4d 25 3d 37 b1 bb 3c
       -0.028586494 -0.003026247 0.040357295 0.022911651
000350 31 97 1c bd ba 04 79 3c 98 7f 38 bd 13 8c 03 bd
       -0.038230125 0.015198881 -0.045043558 -0.032116007
000360 ac a7 1a 3d fd b6 81 bc 3c ec f6 bc 8b a0 84 3b
       0.03775756 -0.015834326 -0.030141942 0.0040474585
000370 fe d1 69 3c d4 8d 16 bd 43 48 23 bd 6c 44 6a bd
       0.014271257 -0.03675635 -0.039863836 -0.05719416
000380 9e 62 77 3c f0 ba 1b bd 10 2a 93 3b 34 eb 57 bc
       0.015099196 -0.038020074 0.004491098 -0.013178635
000390 8c d0 1d bd aa 08 9a bc 92 87 39 bd fa 84 ff bc
       -0.038528964 -0.01880296 -0.045295306 -0.031191338
0003a0 1b c0 f0 ba 64 57 4e bd 14 ae 53 bd e7 ca 34 3d
       -0.0018367799 -0.05037631 -0.051679686 0.044138815
0003b0 03 b1 b5 3b e6 7b d5 bc dc 65 00 bb c7 fb 32 3d
       0.005544783 -0.026060056 -0.0019591963 0.043697145
0003c0 8c 5b 49 bd e4 ed ff bc 5b 89 2e bd 15 60 8c bb
       -0.04915957 -0.031241365 -0.04261146 -0.004283915
0003d0 8f e3 04 bb a9 17 3c bd 0b 86 27 3d 3b 58 39 bd
       -0.0020277237 -0.045921 0.040899318 -0.04525016
0003e0 79 57 61 3d eb 24 26 bd 8d 4f 04 bc 00 86 34 3c
       0.05501506 -0.04056255 -0.008075607 0.011018276
0003f0 ad 71 d9 bc 30 89 5c 3d 74 d0 27 bd ae e5 6c bb
       -0.026543463 0.05384177 -0.04097028 -0.0036147642

conv2.bias f4 [64]
000000 94 ef c8 bc 65 fc 3f 3c 15 4e 18 3d 81 de fa bb
       -0.024528302 0.01171789 0.03718384 -0.007655919
000010 6b 02 1b bc ce ed 59 3d 5d 40 64 3d 59 2d 00 3d
       -0.009461026 0.053205304 0.055725444 0.031293247
000020 26 82 5f 39 74 44 7d ba 23 e6 16 bd b7 c2 23 3d
       0.00021315421 -0.00096613844 -0.03684057 0.039980616
000030 04 8b d6 3c 3b d7 45 3d b7 77 1f bd 4c c6 60 3c
       0.026189335 0.048300963 -0.03893253 0.013719153
000040 22 42 3d 3c 13 b7 8f bc 25 7b c9 bb 6b 0e 3a 3c
       0.011551412 -0.017543351 -0.006148713 0.011355977
000050 0c 1f 84 bc d5 a1 69 3d 77 2a 5d bd a8 d6 09 bc
       -0.016128086 0.0570391 -0.053995576 -0.008412994
000060 62 07 db bc eb bb 32 3d 00 b1 ae bc 48 eb 5d bc
       -0.026736919 0.043636244 -0.021324635 -0.013544865
000070 8c 43 56 3d 12 51 4c bd 33 3e a1 bc d8 ae 4f 3d
       0.05231051 -0.049882002 -0.01968298 0.050703853
000080 0d e3 28 3d e8 84 89 bc a0 9a 35 bc 25 0e e6 bc
       0.041232157 -0.016787007 -0.011084229 -0.028082917
000090 aa a0 34 3c 23 7d 8d 3c a0 12 23 3d 13 72 d5 3c
       0.011024633 0.017271584 0.039812684 0.026055371
0000a0 70 18 fc 3c e5 c1 4a bc a4 7e 2c bd 9c 39 05 3d
       0.030773371 -0.01237533 -0.04211296 0.032525644
0000b0 c0 93 86 ba c6 e2 20 bd d5 c2 ac 3b f4 77 6f 3d
       -0.0010267422 -0.039278768 0.005272249 0.058464006
0000c0 37 09 a3 bb 12 a1 49 bd 06 9a 13 3d d8 67 33 3d
       -0.0049754637 -0.049225874 0.03603556 0.043800205
0000d0 b9 4e 1a bd 12 3e 58 bd 20 36 2d bd 29 88 c6 3c
       -0.037672732 -0.05279357 -0.042287946 0.024234848
0000e0 c1 16 c6 bc 88 0a 6d bd 98 5c 8a bb 00 3a f5 bc
       -0.024180772 -0.05787137 -0.004222464 -0.029934883
0000f0 67 97 85 bc 5a 84 be bc f1 3c a1 bc 00 83 15 bd
       -0.016307546 -0.02325647 -0.01968238 -0.036501884

conv3.weight f4 [128, 64, 3, 3]
000000 f7 17 0e bc da d8 d8 bc 04 86 bb bb a6 55 d6 bc
       -0.008672706 -0.02647059 -0.005722763 -0.026163887
000010 58 dd 25 3b 26 5a f0 3c ff ab 8c bc d1 4a ba bb
       0.0025308933 0.029339861 -0.017171858 -0.0056851883
000020 20 eb ee bb 25 a0 63 bc 03 45 ed bc a7 39 2b 3c
       -0.0072912127 -0.013893162 -0.028963571 0.010450757
000030 dd 7c 6e bb b7 de 05 3b 8e 2a 31 bc 54 2d da bc
       -0.0036390342 0.0020426938 -0.0108133685 -0.026632942
000040 d7 b7 7a bc 1f ad ae 3c 79 45 ec 3c f6 03 5a bc
       -0.01530262 0.021322785 0.02884172 -0.013306608
000050 ad ec b2 3c 04 d4 c3 bc 63 31 1b bb 62 13 1a bd
       0.021841371 -0.023904808 -0.002368056 -0.03761614
000060 1c 09 bf bb 1d d5 46 3c ae 09 d0 3c b6 e5 6e 3c
       -0.0058299433 0.012135771 0.02539524 0.014581135
000070 46 08 a1 3c 06 77 12 bc 44 dd 27 3d 60 91 0d bd
       0.019657265 -0.00893951 0.0409825 -0.03456247
000080 4b d2 19 bc 56 41 d6 bb db 59 e5 3c 20 20 05 3c
       -0.009388517 -0.0065385504 0.027996948 0.008125335
000090 40 a7 26 3d 11 43 e6 bc 71 c8 62 3c 78 81 0f bd
       0.040686846 -0.028108152 0.013841734 -0.03503558
0000a0 21 6e 58 3c df 9a 9c bc 40 ba 95 bc f7 ec 95 3b
       0.0132098505 -0.019116817 -0.018277287 0.0045753676
0000b0 a2 a7 87 3b 9a 38 28 3d f8 cc 08 3d 02 ab 0c 3b
       0.0041398564 0.041069604 0.0333986 0.0021464233
0000c0 f2 04 69 3c 28 7a 0c 3c de 78 12 bc d9 cc f6 bc
       0.01422237 0.008574046 -0.00893995 -0.030126976
0000d0 a1 1b 09 bd dc 9a 83 3b 50 9d 85 bc f3 b8 1b 3d
       -0.033473615 0.0040162634 -0.016310364 0.03801818
0000e0 0b 89 96 bc e1 17 38 3c e7 ac a5 bc 60 97 29 3d
       -0.018375894 0.011236162 -0.020224048 0.041404128
0000f0 38 b8 91 3c 3c bd ba 3c 55 b9 37 3c 68 7f cf bb
       0.017788038 0.022795312 0.01121362 -0.0063323267
000100 02 06 6e bc d3 f6 9a bc 2d 09 14 bd 7c 65 ee bb
       -0.0145278 -0.018916523 -0.036141563 -0.0072752815
000110 be d8 8b bc 08 e3 19 3d 3e 7b 21 3d 41 68 e3 bc
       -0.017071124 0.03757003 0.039424174 -0.027759673
000120 56 c1 37 3b cd e3 0a bd 2b e1 a4 3c 57 ad ff 3c
       0.0028038821 -0.033908654 0.0201269 0.031210585
000130 09 29 c4 bc bd 5e f3 bc d8 65 fd bb 61 d7 08 3d
       -0.023945348 -0.02970826 -0.007733088 0.033408526
000140 04 9a ee 3c bf 67 b4 bc 9a 16 e2 3a 45 5a 03 bd
       0.029126175 -0.022022126 0.0017249167 -0.03206851
000150 23 9a 1e 3d ab 2f 93 3c 8f e5 8b bc 8c 98 99 3c
       0.038721215 0.017967066 -0.017077236 0.018749498
000160 4d 28 35 3b c1 fb cc bc 99 f5 24 bd f2 86 d1 3c
       0.002764243 -0.02502239 -0.040273283 0.025577042
000170 fa 14 ff bc a3 a1 e1 3c d0 ea 4b bc ae 25 c3 3c
       -0.031137932 0.027542895 -0.01244612 0.023821678
000180 00 c3 8c 3c ee 40 d4 3c ba c1 97 bc 58 2a a8 3c
       0.017182827 0.025909867 -0.018524993 0.020528004
000190 e3 88 21 3c cf 4d 3b 3a 58 d9 a9 b9 ed 82 30 3a
       0.0098592965 0.0007145078 -0.00032396126 0.00067333766
0001a0 b6 df c6 3c b5 06 cb 3c e3 6a 7c bc 8d 41 6b ba
       0.024276596 0.024783472 -0.015406343 -0.00089743064
0001b0 70 17 19 bc 16 c7 75 bc 43 08 96 3c cf ba 1d 3d
       -0.009343967 -0.015001079 0.018314486 0.038508233
0001c0 13 73 ac 3c 60 82 2b bc 0e 3c cc 3c 78 55 25 3d
       0.021050965 -0.010468096 0.02493098 0.040364712
0001d0 1b 36 33 3c 5b d2 15 3d 70 76 59 3c 2a a5 0b bc
       0.010938193 0.036577564 0.013272867 -0.008523265
0001e0 bf 7f 61 3c 29 3e 21 3c 9a 7f 45 3c 90 48 2a bc
       0.013763367 0.00984148 0.012054348 -0.010393277
0001f0 4a 85 fb bc 07 a5 1e bd 89 10 dc bc b4 40 ce 3c
       -0.030703206 -0.0387316 -0.026863353 0.025177337
000200 68 09 23 bc 31 63 0a bd fd d4 01 3d 3a ce 1c bd
       -0.009950973 -0.033786003 0.031697262 -0.03828261
000210 44 09 f4 3b 8c 2f 13 3d 9b d9 a9 bc 43 15 65 ba
       0.0074473936 0.035934016 -0.020733645 -0.0008738825
000220 1e ec 28 3d b2 73 11 3d 16 a7 f3 3c 95 4e f9 bb
       0.041240804 0.035510726 0.029742759 -0.0076082447
000230 79 9b c8 3c 3d 23 88 3c d8 3e 0c 3b 7d f4 1c 3d
       0.024488198 0.016618365 0.0021399762 0.0383191
000240 3c ea 41 3c f4 68 d5 3c fd 2d 01 bd 31 94 4d 3c
       0.011835631 0.026051022 -0.031538 0.012547539
000250 00 34 1d bd 6b 1d e4 3b 6c 83 37 3c 52 76 ca 3c
       -0.03837967 0.0069615147 0.011200767 0.024714623
000260 d0 89 b5 3c 22 1a 98 bc 84 f6 ca 3c e4 4d 2a bd
       0.02216044 -0.018567149 0.024775751 -0.04157819
000270 c2 fd 0d 3d cf f9 a3 3c 9a 9d d1 bb 3d 8d 48 3c
       0.03466583 0.020016579 -0.0063969614 0.012240705
000280 63 18 bc 3c b9 de 08 bd f9 87 dd 3c 2d c5 4b 3c
       0.022960847 -0.03341553 0.027042376 0.012437147
000290 4e 1a 26 3d 3f 98 f0 3a c8 55 88 3b 13 fd 1c 3c
       0.04055243 0.001835592 0.0041606165 0.009581822
0002a0 31 09 0a 3d ee 28 0e bd 62 ba bc 3c f4 df c1 3c
       0.03370017 -0.034707002 0.023038093 0.02366636
0002b0 fb b7 70 bb 42 a4 ea bc 3b 80 02 3d dd 1f cd 3c
       -0.0036730755 -0.028642777 0.03186057 0.025039608
0002c0 d3 53 23 bc 6d 58 e3 3b c4 05 56 bc a9 49 9c bc
       -0.009968716 0.0069380314 -0.013062898 -0.019078093
0002d0 c2 ae 28 3d 0a af 87 3c 42 2d 20 3b c0 5c d7 3c
       0.041182287 0.016562957 0.0024441038 0.026289344
0002e0 de cd e2 3c c6 fd b4 3c 41 66 96 3c 1a 6b 00 bd
       0.027686056 0.022093665 0.018359305 -0.03135214
0002f0 c2 48 8a bc 6b 96 0d 3d 46 a7 4e 3c 53 73 3a 3c
       -0.016880397 0.034567278 0.012613123 0.0113800345
000300 57 4c e0 bc 1f b3 a3 bc b6 a7 80 bc 92 0d a2 3c
       -0.027380152 -0.019982873 -0.01570497 0.019781861
000310 cc ac 89 bc 52 3c 02 3d 10 c9 f2 bc aa fe ec bb
       -0.016806029 0.031795807 -0.02963689 -0.0072325068
000320 20 92 10 3d cb cd 8f bc 38 0e 31 3a 2b c0 49 bc
       0.035295606 -0.017554184 0.0006754133 -0.012313883
000330 42 fb 6f 3c a0 b4 ac bc b5 35 01 bd 18 7d 80 bc
       0.014647307 -0.021082222 -0.03154536 -0.01568465
000340 16 a3 89 3c b7 10 31 bc 5d e4 02 bd 48 7f 0e bc
       0.016801398 -0.010807208 -0.031956065 -0.008697338
000350 5b f5 94 bc f8 df 0d 3d 43 88 c6 bb b5 73 97 3c
       -0.0181834 0.03463742 -0.006058724 0.01848779
000360 9c a5 22 3d 1b fb f1 bc 51 12 80 3c e3 48 ae 3b
       0.03970872 -0.029538682 0.015633734 0.0053187474
000370 16 2c 0f 3d b9 cd 74 3a 53 9a 42 3c a1 7c 28 bd
       0.034954153 0.00093385164 0.011877614 -0.04113448
000380 82 41 22 3d 7b f1 02 bd 99 58 fa 3c d4 98 e1 bc
       0.039613254 -0.031968575 0.030559825 -0.027538694
000390 5b 35 0d 3c 21 52 25 39 1f 49 fc 3c 47 2f 20 bd
       0.008618678 0.00015766222 0.030796586 -0.039107587
0003a0 fc 99 0d 3d 3c 36 24 3d 6e 12 46 3c c1 b2 1d 3d
       0.03457068 0.040090784 0.012089355 0.03850055
0003b0 07 d9 09 3d f0 55 04 3b 67 76 c0 3c e3 2f 3b 3b
       0.03365424 0.0020192824 0.023493959 0.0028562478
0003c0 b9 f0 26 3c a4 f5 ec bc 11 d4 38 bc e3 cc b9 bc
       0.010189229 -0.028925724 -0.011281029 -0.022680705
0003d0 80 f0 c8 bc 20 6c d9 bc 48 9a 91 bc 16 24 ee 3b
       -0.024528742 -0.026540816 -0.017773762 0.0072674854
0003e0 d6 c0 a3 ba d0 9f 99 3c bb 67 95 3c 15 b6 3f bc
       -0.0012493383 0.018752962 0.01823794 -0.011701127
0003f0 e8 36 ee 3c 7c 06 f0 bc ff f1 c3 bc ab f5 23 3d
       0.029078916 -0.029299967 -0.023919104 0.04002921

conv3.bias f4 [128]
000000 f9 9e 02 3d b1 f5 d4 bc f5 44 15 3d 77 89 89 3c
       0.03188989 -0.025996061 0.036442716 0.016789181
000010 56 63 b9 bc 22 b5 16 bb 31 6f 43 3c 5e 0f 1e bd
       -0.022630375 -0.0022996147 0.011928366 -0.038588874
000020 a9 93 6a bc 16 bd 87 b9 44 73 ea 3c 62 a6 86 bc
       -0.0143174315 -0.00025890087 0.028619416 -0.01643676
000030 fc a6 08 bd f8 1c 03 bd ac 28 56 3c 88 13 a5 3c
       -0.033362374 -0.03201005 0.01307122 0.020150915
000040 16 01 44 bb 1b 8e 13 3b bb af c3 3b f9 1d 31 3c
       -0.0029907874 0.0022515121 0.0059718764 0.010810369
000050 de c8 c1 bc fb 09 05 bc 22 7c 7e 3c c1 04 e1 bc
       -0.023655351 -0.008120055 0.015532525 -0.027468087
000060 16 ed 08 3d 98 2d 94 3c 56 e6 07 bd 7d d7 fa 3b
       0.033429228 0.018088147 -0.03317865 0.0076550827
000070 2e b3 d9 bc a3 55 82 bc 5f a7 9b ba 56 4e 1a 3c
       -0.026574697 -0.015909975 -0.0011875442 0.009418091
000080 c4 76 13 3d cf e2 0e bd 18 0a 76 3c 0c a6 a8 bc
       0.036001936 -0.03488427 0.015017055 -0.02058699
000090 15 10 3c 3c 4a 07 df 3c a4 73 57 3c 52 0e 00 3d
       0.011478444 0.027225155 0.0131501295 0.031263657
0000a0 e2 45 16 3d 7b 16 d1 bc 56 4b f5 3c 9f 6b 4b 3c
       0.03668774 -0.025523415 0.02994315 0.012415796
0000b0 ee f0 7b bb b2 5d 15 bc 55 c6 16 3d fe e6 68 3c
       -0.0038443166 -0.009116577 0.036810238 0.014215229
0000c0 2f 91 29 3c 2f b0 12 3d 80 83 31 3b b3 40 09 bd
       0.010349556 0.035812553 0.0027086437 -0.033508968
0000d0 1f 4e 07 3c 31 bf 51 bb 68 bd e5 bc 5e 23 1f bd
       0.008258372 -0.0032004828 -0.028044418 -0.03885209
0000e0 c6 e8 2d 3d 2b c2 26 bd 7d c7 1c bc 43 80 01 bd
       0.04245832 -0.040712517 -0.009569046 -0.03161646
0000f0 71 a9 8f 37 2f 4c a6 bc 5e ad 07 bd 14 2d 93 bc
       1.712583e-05 -0.020299999 -0.03312432 -0.01796583
000100 bf d8 50 ba 8d 60 18 3c fd 1d c8 bc 19 24 cc bc
       -0.0007966868 0.009300363 -0.024428362 -0.024919556
000110 16 e7 95 3c e4 9a 27 bd 54 4c 51 bb 39 00 80 3c
       0.018298667 -0.0409192 -0.0031936364 0.015625106
000120 9b 66 c6 bc 17 1d 95 bc 34 71 cc 3c f0 10 02 bc
       -0.024218848 -0.018202348 0.024956323 -0.0079386085
000130 18 d9 c0 3b c4 90 15 3d d1 d6 91 3a 0e 1e 02 bc
       0.0058852546 0.036515012 0.0011126642 -0.007941736
000140 eb a7 d3 3c fe 3e 93 bc cd 4c 96 3c c2 9a 13 3d
       0.025836905 -0.017974373 0.018347168 0.03603626
000150 6e 7e 27 bd d4 7d 0b bd 06 f9 fe ba b2 de 80 3c
       -0.040892057 -0.034055546 -0.0019452877 0.01573119
000160 75 e7 56 bc ad fe c7 bb 40 d3 b2 bc 8f 71 16 3d
       -0.013116707 -0.0061033578 -0.021829247 0.03672939
000170 80 7a 01 3d 67 f2 0d 3c b8 5a f9 bc c3 66 4e 3c
       0.031610966 0.00866375 -0.030438766 0.0125977425
000180 76 f0 de 3c 17 88 2a 3d f4 df 24 3c 6d ba a9 3a
       0.02721427 0.04163369 0.01006316 0.0012949236
000190 8b 7b a4 3c 4a b4 bc 3c 8e 45 a3 3b 28 88 4f bb
       0.020078441 0.023035187 0.004982657 -0.0031666849
0001a0 ab 32 b6 3b 66 1f 52 3c 1c 28 58 3b d1 e9 b2 bb
       0.0055602393 0.012824869 0.0032982891 -0.005460002
0001b0 c6 2c 0c 3d e6 41 18 bb b3 dc 99 bc 75 a0 a3 bc
       0.034222387 -0.0023232638 -0.018781995 -0.019973973
0001c0 b2 1b 0b 3d 46 d6 2e 3b 4d be 1e bd 68 30 9c 3c
       0.03396196 0.002667801 -0.038755704 0.01906605
0001d0 7c c8 0b bd c0 2f 97 bc 60 18 32 3b c3 ae d6 3c
       -0.034126744 -0.018455386 0.0027175173 0.02620638
0001e0 e6 4c 3c 3b ff 1d 66 bb 9e 59 31 3d 6d 92 05 3d
       0.0028732358 -0.0035113094 0.043298356 0.032610346
0001f0 af 1c aa 3c 48 4c f6 3c 61 3b 93 3c e8 29 4d ba
       0.02076563 0.03006567 0.01797265 -0.0007826374

fc1.weight f4 [6, 128]
000000 f1 48 4b bd a1 f7 92 3d b5 db 62 3c 80 7c 7b 3c
       -0.04963011 0.07176138 0.013846328 0.015349507
000010 be 4f 0c bc 44 f1 a7 bd 26 b0 2d bd 8b 57 71 bc
       -0.008563934 -0.08200315 -0.042404316 -0.0147303445
000020 0e 5d 52 3d b6 86 1b bd 67 56 45 bd bb 85 00 3d
       0.051358275 -0.037970267 -0.048178103 0.031377535
000030 1a b3 72 bd 14 ed a4 bd ba dc a4 3d c8 85 b4 3d
       -0.059252836 -0.080530316 0.08049913 0.08814579
000040 a4 30 69 bc b2 a0 14 3c 97 d5 2d bb 7d d4 8f 3d
       -0.014232788 0.009071516 -0.0026525015 0.07022951
000050 f2 76 83 bd 2a a6 31 bd 6f 75 9f bd c6 78 17 bd
       -0.064191714 -0.043371357 -0.077860706 -0.036980413
000060 b8 31 89 3d 70 6d 23 bd 3d f8 66 bb 85 f9 5f 3d
       0.06698936 -0.03989929 -0.0035243176 0.05468132
000070 8e 58 3a bd 02 a8 ad bd 82 67 a1 bd a5 d7 24 bc
       -0.04549461 -0.084793106 -0.07881071 -0.010061179
000080 2f fd 70 bd 4f b3 3f 3d 8c 3a 90 bd e0 a7 4c 3d
       -0.058835205 0.04680186 -0.07042417 0.049964786
000090 3f 49 a5 bd 4e c8 d9 3c 64 79 32 bd bd 25 8d 3d
       -0.08070611 0.02658477 -0.0435728 0.06891964
0000a0 a6 31 fa 3c c6 0f c8 3b 6c d9 3f bd 2b f4 1f 3d
       0.030541252 0.006105396 -0.04683821 0.039051216
0000b0 a7 c2 8c 3d ec d0 93 3d 42 1e bc 3c 43 42 b2 3d
       0.068730645 0.07217583 0.022963647 0.08704045
0000c0 64 5c a3 3d 90 4a b2 3d 0f ad 19 bd ce 6e b7 3c
       0.079766065 0.08705628 -0.037518557 0.022391703
0000d0 25 17 54 bc 5b 02 a3 bd fb 8d 8d bd cf 83 f4 3c
       -0.012944971 -0.07959434 -0.06911846 0.029848007
0000e0 83 5d ae 3d 71 eb 94 bd 06 6d 30 bd 85 e8 3d 3c
       0.0851393 -0.072714694 -0.043072723 0.0115910815
0000f0 a1 1d 36 3d fa b5 01 3d f4 41 8e bd fb f9 55 3d
       0.04446185 0.031667687 -0.06946173 0.052240353
000100 75 0c 99 bd b2 e5 24 bd 5c f1 1c bd cd 49 9f bd
       -0.07473079 -0.040258117 -0.038316116 -0.07777748
000110 82 97 92 3d 00 43 b8 3c 55 21 43 3d 44 37 8c 3d
       0.07157804 0.022492886 0.04763921 0.068464786
000120 99 b0 18 bd d3 17 6b bc a6 2b 1e bd 91 8b a8 3d
       -0.03727779 -0.014348942 -0.038615845 0.08229745
000130 57 af b1 3d 7f 8d ef 3c 8a dc 80 bc c3 87 11 bd
       0.086760215 0.029242275 -0.015730161 -0.035529863
000140 a9 b9 87 3d d7 b7 24 3d b6 94 38 bd 4c 10 a4 3d
       0.06627209 0.040214386 -0.045063697 0.08010921
000150 f5 34 43 bd 46 14 0c bc ff ff 93 3d 3c cc 92 3b
       -0.047657926 -0.008549755 0.07226562 0.004479913
000160 9c 9a c0 3c 61 d9 ac 3d 9d 16 d9 bc 60 ff b8 bc
       0.023511223 0.08439899 -0.02650004 -0.02258271
000170 f8 c2 2b 3d 6b 93 ea bc c0 00 98 bc 75 4d c2 3c
       0.041933984 -0.028634747 -0.018555045 0.023718575
000180 97 4f 81 bc f5 d4 96 3d cf ba 3b bb fd 47 93 bd
       -0.015785022 0.07364837 -0.0028645282 -0.07191465
000190 29 b4 ea 3b 8f 27 85 3d 69 c7 5a 3c b4 a5 90 bd
       0.00716259 0.06501686 0.013353207 -0.07062855
0001a0 7a 08 84 bc a3 bd b7 3d 07 21 5e 3d 3a 76 84 bd
       -0.016117323 0.08971717 0.054230716 -0.064678624
0001b0 3e 43 b2 3d 94 a7 a2 3d b6 c8 71 3d c5 bd 6b 3d
       0.08704232 0.07942119 0.059029303 0.057554025
0001c0 06 c9 90 bd 92 6b 84 3d fd fe 2c 3c 5c a4 f5 3c
       -0.07069592 0.0646583 0.010558841 0.0299856
0001d0 8c 95 1d bd 62 4a 30 38 e4 84 9d 3d 6c e8 82 3d
       -0.038472697 4.2030944e-05 0.076913625 0.06391987
0001e0 e1 8f ae 3b f0 00 8b bd 82 23 b2 3d 3c 0c 06 bb
       0.0053272103 -0.06787288 0.08698179 -0.002045407
0001f0 80 b6 29 3d 14 9c 6c 3d 5e 4d 14 bd 10 f1 6b bd
       0.04143381 0.057766035 -0.036206596 -0.057602942
000200 a4 34 e9 bc cc fb 4a bd e8 82 b1 bc 17 0f 33 bd
       -0.028467484 -0.04955654 -0.021668866 -0.043715563
000210 52 28 c7 3c 41 b1 7a bd 25 fe 94 3d dd 7d a2 bd
       0.024311218 -0.0612042 0.07275037 -0.07934163
000220 4f 5a a4 bb 05 f3 15 bd a1 ff 26 3d a5 f1 77 3c
       -0.0050156484 -0.036608715 0.04077113 0.015133296
000230 27 52 89 3d fd 4e 08 3d 6e 44 9d bc 6e aa 6a bd
       0.067051224 0.033278454 -0.019197669 -0.05729144
000240 dd 10 8f 3d 5a 62 1c bc aa 5d 2d 3d 14 ec f3 3c
       0.06985638 -0.009544933 0.042325653 0.029775657
000250 7d 58 11 3c 0a 58 55 3d cd 8a 47 bb e1 4a 2b bd
       0.008871195 0.052085914 -0.0030447722 -0.041819457
000260 79 02 a4 ba ea 11 a1 bd ba e6 83 3d 16 e4 8e bd
       -0.0012512944 -0.07864745 0.06440492 -0.06977098
000270 60 a3 99 bd 54 27 9e 39 7f 31 a2 3d ff ae 0e bd
       -0.075018644 0.0003016541 0.07919597 -0.034834858
000280 04 53 6a bd a1 52 45 3d 83 ed 05 3c ec e3 6b 3d
       -0.057208076 0.048174504 0.008174303 0.05759041
000290 54 51 69 bd b3 a9 8c 3d bd 9c 14 3d 7b d3 36 3d
       -0.056962326 0.06868305 0.03628229 0.044635277
0002a0 3e ec 95 bd ac 00 ab 3d 5b ad 65 bd 77 c5 71 3d
       -0.0732045 0.083497375 -0.056073528 0.059026208
0002b0 ae 5f 51 bd a5 48 97 3c ed ff 1f bd 41 ab a2 3d
       -0.051116638 0.018467257 -0.03906243 0.0794282
0002c0 17 f9 38 3d a4 b1 47 bc 1e f4 b9 3c 38 7c 8d 3c
       0.045159426 -0.012188349 0.022699412 0.017271146
0002d0 4a 19 46 bc cf f2 05 bd f0 9c 82 bc f9 12 e5 3c
       -0.01209099 -0.032702263 -0.015943974 0.027963148
0002e0 ee fc 88 3d e4 f4 74 bb 48 c0 63 3d 5b a4 27 3d
       0.066888675 -0.0037377411 0.055603296 0.040928226
0002f0 aa 64 7b 3d a3 f7 bb bc 3a 68 b3 3d 31 9a 7b 3d
       0.061375298 -0.02294523 0.08760114 0.061426345
000300 4d 55 b3 3c 53 31 6a bd 62 78 aa bd b8 f8 94 bd
       0.02189126 -0.057175945 -0.083237424 -0.07274002
000310 b7 d3 6f bd 4d e8 fa bc 0e dd 67 bc 2b 2a 19 3c
       -0.058551516 -0.030628348 -0.014151825 0.0093484325
000320 24 e8 a7 bd da 48 42 3c 31 2f 55 3d b8 21 4c bd
       -0.08198574 0.0118581895 0.05204696 -0.049836844
000330 7f 11 24 3d 4a 60 24 bd 9c 37 96 3d c9 5a a1 3d
       0.040055748 -0.04013089 0.073348254 0.07878644
000340 69 e3 65 bc ba 88 88 3d a1 50 e4 3c de 44 f7 3a
       -0.01403127 0.066667035 0.027870478 0.0018865129
000350 8e 94 55 3d db 1f 2e 3d c6 a3 13 bc dd c5 b1 3b
       0.052143626 0.04251085 -0.009011215 0.0054251985
000360 73 c0 57 3d ee 29 16 bd 6d 7f 83 bd 8b 03 a9 3d
       0.05267377 -0.03666108 -0.06420789 0.08252629
000370 0a 07 a2 3c 2c 8a 6f bb dd 34 8c 3d 02 b5 29 bc
       0.019778747 -0.0036550863 0.0684602 -0.010358097
000380 21 5b b8 3c 35 ea 46 3d 47 af 1e 3d ed e8 93 bd
       0.022504391 0.0485632 0.038741376 -0.072221614
000390 d5 38 17 bd 91 ed 4a bd 2f ac 80 3d c3 29 0e bb
       -0.036919434 -0.049542967 0.062828414 -0.0021692372
0003a0 0f 57 de bb 71 8c fe 3c 62 80 93 3b 82 97 b2 3b
       -0.0067852805 0.031072827 0.0045013884 0.00545019
0003b0 d1 1d f7 bc d3 35 84 bb 3c 07 9b 3d d4 e2 95 3d
       -0.030165585 -0.0040347367 0.07569739 0.07318655
0003c0 3b 07 2d bd fa 7a 17 3c f7 ab 54 3d 6e 31 41 bd
       -0.042243224 0.0092456285 0.05192181 -0.04716628
0003d0 78 11 11 3c d7 ff 9c 3d 4a 9a a2 bd c1 26 31 3d
       0.0088542625 0.07665985 -0.079395846 0.04324985
0003e0 e0 72 9e 3d 48 26 83 3d 69 6e 64 3d f0 cd ef bb
       0.077367544 0.06403786 0.055769358 -0.007318251
0003f0 f4 84 b5 3c b8 6c 50 bd 88 2e 64 3d d4 8c 6e 3c
       0.022158124 -0.050884932 0.05570844 0.014559943

fc1.bias f4 [6]
000000 56 21 49 3c 1e c8 a7 bc 4b 9f 97 3d 48 dd 80 bd
       0.012276014 -0.020481165 0.074034296 -0.06292206
000010 2d 1c a2 bb b8 52 b1 3d
       -0.0049472065 0.086583555
