models/convNN2_ll_training_25-75_split_original.txt.pt (torch, 384591 bytes, 8 tensors)

conv1.weight f4 [32, 3, 5, 5]
00000000: 7577 af3d 0507 b63d 069d 17bd 859b c03d
00000010: 6527 1ebd fd71 a73c 1be7 82bd fe75 693d
00000020: 43a1 b33d cfc9 cebd d49e c83d d497 6f3c
00000030: 1fe4 983d 77df 473a 518d 1f3d 036b 9bbc
00000040: 2997 a83d dc4a c23b 1886 8ebd 36f3 453c
00000050: e35c 63bd 9b5d a1bc ce07 6abd fd4a 7f3d
00000060: 7749 dbbd 1b0e 9dbd 2e2b 78bd 4419 cdbd
00000070: 3055 b2bc 5904 17be a7d3 a43d 08f9 01be
00000080: 8513 6b3d 976a 80bc a675 97bd b415 453d
00000090: 4183 23bc 904c 7d3d 9ff8 babc 1e13 96bd
000000a0: 63f3 fc3b 0c33 71bd 9722 8a3c e65f 893d
000000b0: df80 f13c 309b 95bd e735 243d 1e45 20bc
000000c0: e128 c73c 93d1 d8bd 6b9c 11be f0c0 9dbd
000000d0: 0521 fdbd 2225 6d3d 94de 86bb 5d43 a03c
000000e0: 6d4a 503b 7d34 1cbd 81ad 513d 7608 fbbd
000000f0: 32b8 a6bc 16da e3bd 1a40 01b9 71dc a2bd
00000100: c316 b1bb a357 54bd a375 823d 3d3e d6bd
00000110: 1314 e0bd c1d0 e1bd b8d8 9d3d 05da f83b
00000120: cbc0 9c3d 7f13 09be 9397 1dbe fa03 b9bd
00000130: 4f14 9fbd dc91 3f3d d65a 293d 797f c43d
00000140: 1040 74bd 8736 a1bd e3f1 7a3d c52c 3fbd
00000150: e886 8f3d 6677 e0bc 6847 873d 4ebd b7bd
00000160: 89ae 6ebd 1d32 103d c4fa c73c 7a2c f1bc
00000170: c3f5 8c3d 56c3 a03d af7d abbd a07f 7cbd
00000180: 228a d83d b597 1fbd 66ac 27bd c2d1 e4bd
00000190: 376d 87bd 034c ec3c 87b6 79bc 26a9 abbd
000001a0: 5877 313b 5289 a1bd 8da1 c8bd de38 82bd
000001b0: f9f8 cebd d793 96bd 1964 ec3d a3a9 b23c
000001c0: b8bf 113d 4d90 dcbd cf50 9bbd 8c6d 1dbd
000001d0: 6fea 933c 1416 d0bd bec9 4bbd 2293 8dbd
000001e0: 8f1a a839 32fd 2fbd d417 03bc 593f a0bd
000001f0: 1052 a2bd e6f6 89bd 13e5 21bd c0a6 babd
00000200: 4848 c63d fbbc bbbc 2e78 cb3d 1c5e 133d
00000210: b840 c8bd 81a7 a33d 4922 02bd 544c 35bd
00000220: 1d4c c4bd 0c1a ebbd 0852 073d 0da2 cebc
00000230: 3a23 383d a412 c2bd 4d92 af3d 5097 adbd
00000240: 4b56 a3bc cf94 c53c 082c 743d 5dea be3d
00000250: 1f6d d73d 2d83 bbbd 05b2 ee3c 3f1e 4bbd
00000260: a0ed 4dbc 5cd5 b0bd 0a93 d73d f562 adbd
00000270: 2720 7d3d ba8c 263d 62fe 193d f363 7fbd
00000280: dd2d d73d cdb7 d03c 3cdb 743c ba3e d0bd
00000290: 7bdb 463d 8df9 8cbc 7d3a 58bd 3255 cb3d
000002a0: a69b d33c 82ad 82bd f4f5 6ebd 8e50 b1bb
000002b0: 443e 843d 8401 f1bc 5ac5 86bd 98a8 21bd
000002c0: 8c84 b0bd f202 293d b036 b73d b777 debd
000002d0: 9763 dc3c e3aa 743d ac2a ac3c bd24 28bd
000002e0: e72a 773d fdfd 783d 7044 313d b07f a5bc
000002f0: 45e0 f9bc 0f9a 4b3c 7532 a6bc 2282 0cbd
00000300: b15c 973d 0368 cb3d a707 3abc 96f8 d2bc
00000310: 15ec e93a 64d1 debb 8119 e43c 92d9 043d
00000320: fcb7 d6bd c668 2ebd bb3a c73d 2766 383d
00000330: 78fe babb b37c 8ebd 5899 90bd c9c2 d3bd
00000340: 690e 1abd c2d8 1f3d 0fec 963d 3b9b 5a3d
00000350: f0f1 d0bd 3226 8ebd 2c0b 95bc 1be7 e43d
00000360: 875c 893c 9484 f4bc 18d7 433d ef02 34bd
00000370: d0f1 98bd 56b9 ac3d 35d8 56bd 4d4b bdbc
00000380: 7230 ebbd 0042 a03d 3f46 af3d 282e 213d
00000390: 8091 a9bd 652f e9bd 8453 c4bd 1d21 a63d
000003a0: 00ae 4b3d 80ed bc3d cfe9 6e3d 0658 d83c
000003b0: e797 edbb 90be c1bd 5696 d6bd 8cc7 e2bd
000003c0: bfc7 393d 3e04 7ebd f4c7 eebc ecd9 91bd
000003d0: 1d3d b7bc a292 a4bd 1ee2 9ebd 5a3c 133d
000003e0: db9e 10bd 99e4 963d ef39 13bd 4c69 b0bd
000003f0: 8deb b7bc 59d5 6bbd b065 0ebd b15d e4bd
0.085677065 0.088880576 -0.037014984 0.09404663 -0.03861179 0.020440096 -0.06391736 0.05699729
0.087709926 -0.10097086 0.09795919 0.014623601 0.07465386 0.00076245464 0.03895313 -0.018971926
0.082319565 0.005929334 -0.0695917 0.012081912 -0.055508506 -0.019697955 -0.05713635 0.062327374
-0.10707372 -0.07668706 -0.060588054 -0.10014585 -0.021769136 -0.14747752 0.08048182 -0.12692654
0.057391662 -0.015675826 -0.073954865 0.0481164 -0.009980024 0.061840594 -0.02282363 -0.07327865
0.0077194436 -0.058886573 0.016862197 0.06707744 0.029480396 -0.0730499 0.040090468 -0.009782104
0.024311485 -0.10586848 -0.14219825 -0.077028155 -0.123598136 0.05789674 -0.004115889 0.019563371
0.0031782642 -0.038135994 0.051190857 -0.12257473 -0.020351503 -0.11125581 -0.00012326278 -0.07952202
-0.0054043247 -0.05184139 0.06370094 -0.1046109 -0.10941329 -0.11026145 0.077073514 0.0075943493
0.0765396 -0.13386343 -0.15389852 -0.090339616 -0.077675454 0.04676996 0.041346394 0.09594626
-0.059631407 -0.078717284 0.061265837 -0.046673555 0.07008153 -0.027400684 0.066054165 -0.08971654
-0.05827192 0.03520404 0.024411567 -0.029440153 0.06882813 0.078497574 -0.083735816 -0.06164515
0.10573222 -0.03896304 -0.040935896 -0.11172821 -0.06612628 0.028844839 -0.015241272 -0.08381872
0.002707919 -0.0788752 -0.09796438 -0.06358503 -0.101060815 -0.07352417 0.115425296 0.021809405
0.035583228 -0.10769711 -0.075837724 -0.03843455 0.018056123 -0.10160461 -0.049752943 -0.06912829
0.00032063245 -0.042966075 -0.008001287 -0.078245826 -0.079258084 -0.06736545 -0.039525103 -0.09113836
0.09681755 -0.022917261 0.09935032 0.03597842 -0.09777969 0.07990933 -0.031770978 -0.044262245
-0.0958483 -0.114795774 0.033037215 -0.025223756 0.04495547 -0.09476212 0.085728265 -0.08476126
-0.019938609 0.024118809 0.059612304 0.09322045 0.1051886 -0.09155879 0.02913762 -0.04958939
-0.012568861 -0.08634445 0.10526092 -0.0846614 0.06179824 0.04066155 0.037596114 -0.06235118
0.105067946 0.025478268 0.014944848 -0.10168214 0.048549157 -0.017208839 -0.052790154 0.09928359
0.025831055 -0.0638075 -0.058340028 -0.005411214 0.06457189 -0.029419668 -0.065806106 -0.039467424
-0.08619031 0.041262574 0.08945978 -0.108626775 0.026902957 0.059733283 0.021016441 -0.04105066
0.06034365 0.060789097 0.043278158 -0.020202488 -0.030502448 0.012426867 -0.020287732 -0.03430379
0.07390726 0.09931948 -0.0113543635 -0.0257533 0.0017846847 -0.0067998637 0.027844192 0.032434054
-0.10484311 -0.04258039 0.09727999 0.045019295 -0.0057066046 -0.06957378 -0.07060498 -0.10339887
-0.0376114 0.039025076 0.07369243 0.053370696 -0.10202396 -0.06940879 -0.018193804 0.11176892
0.016767753 -0.029848374 0.04781255 -0.04394811 -0.07467997 0.084337875 -0.052452285 -0.023107195
-0.114838496 0.078250885 0.0855832 0.03935066 -0.08279705 -0.11385993 -0.09586242 0.081117846
0.049726486 0.09224987 0.058328446 0.02640916 -0.007250774 -0.09460175 -0.10477893 -0.11073217
0.04535651 -0.062015764 -0.02914808 -0.071216434 -0.022368008 -0.080357805 -0.07757972 0.035946228
-0.035307746 0.0736782 -0.03594392 -0.08613834 -0.022451187 -0.05757651 -0.034764946 -0.11150683

conv1.bias f4 [32]
00000000: d9d7 bf3e e8a5 8bbd c1b2 41bd ac15 ac3e
00000010: cff9 163c 9696 43bd 0bac ba3e 1ce5 82bd
00000020: 9cb3 c0bd 3eb7 b23e ca5d 82bd 6be9 1d3f
00000030: e8fb 333f 5eb6 5fbd b25a fa3d 0cfe 113e
00000040: f527 a6bd b050 d43f fd31 60bd c4f1 b63e
00000050: 4ba3 b43f 2a33 a1bd 7d68 683f 2647 f73f
00000060: 38cd 6f3f 78a5 493f 00f5 d9bb a314 88bc
00000070: ed29 1540 4fad dbbc 5e46 393c a0ef dfbd
0.37469366 -0.068187535 -0.047289614 0.33610284 0.009214832 -0.04775103 0.36459383 -0.063913554
-0.09409258 0.34905428 -0.06365545 0.6168429 0.70306253 -0.05461728 0.1222433 0.14257067
-0.0811309 1.6587124 -0.054735173 0.35731328 1.4112333 -0.07871087 0.90784436 1.9318588
0.93672514 0.7876811 -0.0066515207 -0.016611403 2.330684 -0.026816038 0.011308281 -0.10934377

conv2.weight f4 [64, 32, 3, 3]
00000000: 32ce 41bd ce10 243d 8094 13bd fa66 443d
00000010: b8a3 d73b 993e 593c 34d3 613d 1e4c 05bd
00000020: 5cc0 23bc c40b 2b3c c2ea a43c e5e4 6abd
00000030: 3391 ab3c f155 0ebd 039f fd3b 9b4a 233d
00000040: 2358 c0bb 6354 f4ba f831 90bb b06a 493d
00000050: 312c 093d 9b65 223c 7d3e 11bd dc0e 03bd
00000060: 8243 403d 80a4 2d3d cdc1 0b3d 7733 34bd
00000070: 155c 433d e7f2 87bb a36b 3a3d 6355 593d
00000080: 7346 023c db44 b8bc 4357 6a3d b3f1 efbc
00000090: aa73 1e3d dda1 66bd ca34 96bc 64ba 51bd
000000a0: b1fd d6bc 1897 ce3c 9d3d 2cbd 94fc 4fbd
000000b0: ef5e 2d3d ca09 013d 106c 18ba 4bd4 29bd
000000c0: 16e6 7ebc 12af 9bbc 0b66 153d f771 9dbc
000000d0: 4d63 8abc 50c3 2abd 7d67 dabc 6245 093d
000000e0: 6403 233d e306 223c 50a5 a4bc c0a2 713d
000000f0: 9b5e 513c b1d9 acbc 126c 97bc 9f98 fcbb
00000100: 2a9f ea3c d8ec b53c d0d6 303d 9335 03bb
00000110: f635 4a3d 6b31 c1bc 94a6 d9bc 8e71 adbc
00000120: 6971 62bd 996f 1ebd f565 5abd 9c30 64bb
00000130: 0bbf 113a 7f90 7abc 5cf0 24bd 03fc 5a3d
00000140: 03f1 9fbc b985 ef3c 09ee 2a3d c1a6 20bd
00000150: 41eb b9bb f9c8 113d 4c11 6c3d 047d cdbb
00000160: d865 323d 9084 3dbd 22bd 1cbd 1f94 463d
00000170: 3b00 b6bb 8d87 6e3d 6634 8d3b fafa c7bc
00000180: 614f 653d ad2b 533d 330f b43b 0d24 0dbd
00000190: 19fd 03bb 81d5 e9bc 65af 333d 3b9e 363b
000001a0: f562 413c c12b 173d ee7d a13c c6f7 17bd
000001b0: ab85 603d 23a7 2b3d d5af ffbc 989e 4e3d
000001c0: a1c2 b63c f83f dabb ca50 15bd 4645 91bb
000001d0: de82 59bd 55c2 093d 5ece 2e3d cdf8 8abc
000001e0: abc0 5f3d 64be b2bc 4a55 253c 7633 28bd
000001f0: 313f 23bb 8f21 c33c c024 d23c 00f7 0bbb
00000200: ba7a f8bc fb6c 2c3d a5c7 223d 3674 1d3c
00000210: 3387 dbbc a29d 513c 3edf 5738 7690 613d
00000220: a57e 233c 1b59 c63b d5cd 993b 329c 023d
00000230: dd7e 3038 d552 523d 9eb0 003d 8ca2 32bd
00000240: dd1a c1b9 014d 4fbd 6520 3cbd 6462 3a3c
00000250: aa3b 523c a7d1 bbbb 43d5 653d 0a98 02bd
00000260: 5795 cdbc f5e2 02bc f9c2 aab8 731d f4bb
00000270: e2cd 613d 8f83 cdbc 08c8 08bd 0f8a f63b
00000280: 2791 363d 2e99 463c 800c 023d 04fc 3a3c
00000290: f8b9 4d3d d3fb 103d 8dba 2c3d 8df5 01bc
000002a0: b9ce 47bd 4ef4 e4bc 3a79 a43c 7456 343d
000002b0: c8cf a7bc c57c 513d a540 363c a245 313b
000002c0: 4fbb 953b e39f ffbb aa0c 6c3d 2c5c 9f3b
000002d0: d08c 163d a41f 54bd 428f 0fbd 19ef 0b3c
000002e0: 216f 3d3d 2e6b c83c 98f8 593c 826e 71bd
000002f0: a264 0dbb e747 1fbd e007 4ebd 373f 043c
00000300: c0aa 18bd ae21 5b3d 1c22 03bd f9a7 9b3c
00000310: c4bc 0d3d 408a 3bbd 7674 ff3c 7e53 f5bb
00000320: 2d8c fa3c 1b4d 6d3d 0599 ccbc c4f6 d3bc
00000330: d592 443d 1aaf e93b cdea bbbb 762e 393d
00000340: 1c8a f5bc f29d ebbb 5df7 2b3d c309 b63c
00000350: a259 2dbd b1a6 8d3c 2af6 39bd b4d8 12bd
00000360: b900 1f3d 4701 78bc 5d94 f4bc cfd5 b23b
00000370: d3f8 7c3c c289 12bd bffe 1cbd ee31 66bd
00000380: 1cc0 813c 3f3c 02bd 08fa 2c3c b71b fbbb
00000390: 1ec7 03bd cec4 4fbc f403 23bd fc1c cdbc
000003a0: 64e7 833b 3df5 38bd fdad 53bd f6ca 343d
000003b0: 9eb1 b53b c67b d5bc 1165 00bb d2fb 323d
000003c0: 7a5b 49bd d0ed ffbc 5589 2ebd ecd8 8bbb
000003d0: ded4 03bb f307 3cbd 0597 273d 1f46 39bd
000003e0: ad67 613d 9017 26bd f00f 04bc 21b8 343c
000003f0: b854 d2bc 48cd 563d 4d58 3abd 4c7c 7cba
-0.047315784 0.04005509 -0.036030293 0.04794977 0.006580796 0.013259553 0.05513306 -0.032543294
-0.0099945925 0.010439817 0.020131472 -0.057347197 0.02094326 -0.03474993 0.007739903 0.03986607
-0.0058698817 -0.0018640872 -0.004400488 0.04917401 0.03348941 0.00991192 -0.035459984 -0.031996593
0.04693938 0.042393208 0.03412037 -0.043994393 0.04769524 -0.0041488293 0.045512807 0.053059947
0.007951367 -0.02249377 0.057212126 -0.029290056 0.038684525 -0.05630671 -0.018335719 -0.051203147
-0.026244016 0.025218531 -0.042050947 -0.050777987 0.042326864 0.031503476 -0.00058144424 -0.041462224
-0.015557786 -0.019004378 0.03647427 -0.019219382 -0.016893053 -0.04169017 -0.026660675 0.033513434
0.039798155 0.009889337 -0.020098358 0.0589931 0.012778903 -0.021099897 -0.01848415 -0.0077086235
0.028640348 0.022207662 0.04317361 -0.0020020946 0.049367867 -0.023583135 -0.026568688 -0.021172311
-0.055283938 -0.038680647 -0.05331989 -0.0034819013 0.00055597787 -0.01529324 -0.040268287 0.053462993
-0.019524103 0.029238569 0.041730914 -0.03922153 -0.0056737964 0.035592053 0.057633683 -0.0062710065
0.043554157 -0.046269 -0.03826631 0.048481103 -0.0055542267 0.05823474 0.004309225 -0.024411667
0.055983905 0.051555324 0.005494976 -0.03445821 -0.0020139872 -0.02854419 0.04386844 0.0027865309
0.011803378 0.03690696 0.019713368 -0.03710153 0.054814976 0.04190744 -0.031211773 0.050444216
0.022309603 -0.0066604577 -0.036454 -0.004433307 -0.05310332 0.033632595 0.042677276 -0.01696434
0.054627102 -0.021819301 0.010091135 -0.041064702 -0.0024909491 0.023819713 0.02565229 -0.002135694
-0.030331958 0.04209612 0.039741177 0.009610226 -0.026797866 0.01279393 5.1467905e-05 0.05506941
0.009978925 0.0060531027 0.0046937265 0.03188724 4.207982e-05 0.051348526 0.031418435 -0.043612048
-0.00036831843 -0.050610546 -0.04592933 0.011375997 0.012831608 -0.0057317796 0.056111585 -0.031883277
-0.025095625 -0.007988681 -8.142548e-05 -0.0074497997 0.055127986 -0.025087146 -0.03339389 0.007523782
0.04457202 0.012121482 0.031750202 0.011412624 0.05022618 0.03539641 0.042170096 -0.007932079
-0.04878113 -0.027948525 0.020077337 0.04402776 -0.02048482 0.05114438 0.011123811 0.002704956
0.004569448 -0.0078010424 0.057629265 0.0048632827 0.036755383 -0.051787987 -0.03504873 0.008540892
0.04624856 0.02446517 0.013303898 -0.05894328 -0.0021574874 -0.03888693 -0.05030048 0.008071712
-0.037272215 0.053498916 -0.03201495 0.019000994 0.03460385 -0.045786142 0.031183463 -0.0074867597
0.03058442 0.05793486 -0.02497531 -0.025874503 0.047991592 0.0071314694 -0.0057347775 0.045210324
-0.029973082 -0.0071904594 0.04198395 0.022221452 -0.04232181 0.017291399 -0.045400776 -0.035851195
0.03881905 -0.015137023 -0.029855901 0.005457617 0.015440184 -0.035775907 -0.038328882 -0.05619996
0.015838675 -0.031795736 0.010557659 -0.007663216 -0.032172315 -0.012681199 -0.039798692 -0.025038235
0.0040253866 -0.045155752 -0.0516796 0.04413887 0.0055448553 -0.026059996 -0.001959149 0.043697186
-0.049159504 -0.031241328 -0.04261144 -0.0042678025 -0.0020115892 -0.04590602 0.040915508 -0.04523289
0.055030514 -0.040549815 -0.00806044 0.011030228 -0.025675163 0.052441865 -0.045494366 -0.0009631559

conv2.bias f4 [64]
00000000: 6ad2 2e3e 5dfc 893b 8cbd a03e d88e fabb
00000010: 33b8 5bbc 1af2 613d 1686 593d fdf5 673f
00000020: 1e14 3d3d 8445 0e3e 2f80 4cbc 70f8 073d
00000030: 848b d63c 7915 013f a332 26bd 1565 343f
00000040: bfeb 803d bd29 8fbc 0417 cbbb dcf4 6e3f
00000050: 0794 803f d33e 493f 156a 80bd 7006 23bb
00000060: 6a7d c43f 1272 733f 2bc6 823d 46e8 5dbc
00000070: 541d 1340 6358 9a3f 223c a1bc 3ee4 5d3e
00000080: ad95 153d c930 87bc 3f65 47ba 980d e6bc
00000090: 1976 523f 8309 883c 17c8 253d 8e81 1c3f
000000a0: f608 e33f ef03 a6bc 207e 2cbd fac9 033d
000000b0: 233a 78ba 4da6 43bd 00e2 ac3b 4ecd a63f
000000c0: deef a9bb 9d9c 49bd f8dc af3f a5a6 303d
000000d0: 5a39 8f3f 7b27 88bd da93 50bd a0e9 833e
000000e0: 60aa c6bc c084 81bd 5e3c 74bb 86b9 01bd
000000f0: 2867 af3f 9b84 bebc 65f7 853e 80c4 973f
0.17072454 0.0042109923 0.31394613 -0.007646423 -0.013410616 0.055162527 0.05310639 0.90609723
0.046161763 0.13893706 -0.012481733 0.033195913 0.026189573 0.5042339 -0.040575635 0.7046674
0.06294965 -0.017475957 -0.006197812 0.93342376 1.0045174 0.7861149 -0.062702335 -0.0024875663
1.5350773 0.9509593 0.06385454 -0.013544148 2.298665 1.2058223 -0.019681994 0.21669099
0.036519695 -0.016502755 -0.00076063344 -0.028082654 0.8221145 0.016606098 0.040474024 0.61135185
1.773711 -0.020265548 -0.04211247 0.03217504 -0.0009469112 -0.04776602 0.0052759647 1.3031404
-0.005186065 -0.049221624 1.3739309 0.043127675 1.1189377 -0.06648155 -0.050922252 0.2576418
-0.024251163 -0.06324148 -0.0037267427 -0.03167107 1.3703356 -0.02325659 0.2616531 1.1856842

conv3.weight f4 [128, 64, 3, 3]
00000000: 6325 14bc 5bc1 dbbc 280e c7bb 937a d8bc
00000010: 5df2 163b a880 ee3c 39ab 8ebc 96c7 c0bb
00000020: 5de6 f4bb 02a7 64bc c0c3 edbc 3e32 2a3c
00000030: c794 73bb 750b 013b e551 32bc 87f7 dabc
00000040: 0627 7cbc f30b ae3c 4e62 ea3c 0199 5dbc
00000050: 2f3d b13c 3db9 c5bc a089 29bb 9aec 1abd
00000060: a4fd c5bb da76 433c c569 ce3c b4e5 6e3c
00000070: 4608 a13c 0677 12bc 44dd 273d 6291 0dbd
00000080: 58d2 19bc 7b41 d6bb d159 e53c 1620 053c
00000090: dc99 263d 545f e6bc 5790 623c b48e 0fbd
000000a0: bb27 583c 20c4 9cbc 9cc2 95bc 92b3 953b
000000b0: 5446 873b 720d 283d 81a3 083d dd1e 0a3b
000000c0: ff3a 683c 18b8 0b3c 8836 13bc 883f f7bc
000000d0: 0555 09bd c1e9 813b 1173 86bc ef47 1b3d
000000e0: 3565 97bc e5a0 363c 2972 a6bc dd32 293d
000000f0: 3c1b 913c 7c1d ba3c 4c61 363c 7d44 f3bb
00000100: 3644 7fbc 1262 a3bc a7d7 17bd 97c6 05bc
00000110: 7116 93bc fb98 163d d459 1e3d dfc4 e9bc
00000120: c533 1d3b 2c90 0cbd 5680 a13c 78ea fc3c
00000130: 17ec c6bc b051 f6bc d232 04bc 3d77 073d
00000140: d6b0 eb3c 43d6 b6bc 9998 bc3a 6788 04bd
00000150: 5a9a 1d3d 125e 913c bfb7 8dbc e96c 973c
00000160: 079e 253b bacc cebc 7f33 25bd d321 d13c
00000170: fe77 ffbc 5766 e13c e13c 4cbc f1f3 c23c
00000180: a44b 8c3c efcb d33c bc3c 98bc 0497 a73c
00000190: 7f6f 203c cff8 293a e397 d7b9 b6c9 1a3a
000001a0: 753e c63c b433 ca3c b400 7ebc 8f60 81ba
000001b0: 7017 19bc 16c7 75bc 4308 963c cfba 1d3d
000001c0: 1273 ac3c 6082 2bbc 0e3c cc3c 7755 253d
000001d0: 1b36 333c 27c7 123d cf87 4d3c a873 17bc
000001e0: 504d 563c 8735 163c ae60 3a3c 4d29 35bc
000001f0: 736b 00bd a84f 21bd 3b28 dcbc db2b ce3c
00000200: 612f 23bc 5c6a 0abd a2cd 013d 2ed5 1cbd
00000210: dcf5 f33b 492b 133d 37e7 a9bc 1047 c7ba
00000220: 0b66 263d c008 0f3d 647e ef3c 9d74 04bc
00000230: 15c2 c43c b1e4 843c 2456 e73a 6455 1b3d
00000240: d480 413c 1a32 d53c bc47 01bd fbef 4c3c
00000250: 1e5f 1dbd bdc8 e23b 28aa 363c 7401 ca3c
00000260: db14 b53c 252e 98bc f8e4 ca3c 6a53 2abd
00000270: cef0 0d3d 17e7 a33c 5fc7 d1bb 9565 483c
00000280: 1d0f bc3c 81e0 08bd d387 dd3c eac4 4b3c
00000290: 3e1a 263d 1f8b f03a f051 883b 86fb 1c3c
000002a0: 0509 0a3d 2d29 0ebd 8cb9 bc3c 97c8 b73c
000002b0: fa26 9fbb b905 f4bc f20a fc3c 897c c43c
000002c0: 3638 34bc 8511 c63b 6efb 63bc fa47 a3bc
000002d0: ad6a 243d 9a4a 7f3c c8dc c53a ceec d03c
000002e0: 5fed dc3c 0241 af3c 24e9 913c 7158 02bd
000002f0: 863e 8ebc cb52 0a3d 0506 423c 2f18 2e3c
00000300: 8bcd e5bc 3304 a9bc 1afa 85bc 3c46 9d3c
00000310: d727 8ebc f0fb ff3c 40e9 f2bc 7d9d edbb
00000320: eb7e 103d 80d2 8fbc b963 2e3a a5fc 49bc
00000330: 9730 703c 30a2 acbc 9b33 01bd d08a 80bc
00000340: 0995 893c a828 31bc c5e7 02bd be8d 0ebc
00000350: 81fd 94bc dedd 0d3d 8297 c6bb 966d 973c
00000360: 7c4c 1b3d 1a07 00bd 48e0 643c 610d 803b
00000370: 86b1 093d 5280 ceb9 35af 303c a8ab 2cbd
00000380: aedd 1d3d afa0 07bd 2d40 f13c 9773 eabc
00000390: e817 fa3b 7bb4 50ba 918a f43c 3292 23bd
000003a0: 6f4c 0a3d 78cc 203d 5176 433c 311d 1d3d
000003b0: b855 093d e38a f43a c16f bf3c 4f92 343b
000003c0: 3221 253c b491 edbc c0b8 39bc e3cc b9bc
000003d0: 80f0 c8bc 206c d9bc 489a 91bc 1624 ee3b
000003e0: d6c0 a3ba d09f 993c bb67 953c 10b6 3fbc
000003f0: c001 db3c 6125 01bd 4e8b d5bc ab06 1c3d
-0.009042117 -0.026825598 -0.0060746856 -0.026425635 0.0023032643 0.029114082 -0.01741563 -0.0058831675
-0.0074737505 -0.013955833 -0.029024005 0.010387955 -0.0037167536 0.0019690667 -0.010883783 -0.026729358
-0.015390163 0.021245932 0.028611328 -0.0135252485 0.02163562 -0.02413618 -0.0025869384 -0.037823297
-0.006042199 0.011930192 0.02519692 0.014581133 0.019657265 -0.00893951 0.0409825 -0.034562476
-0.009388529 -0.0065385676 0.02799693 0.008125326 0.040674075 -0.028121628 0.013828359 -0.0350482
0.013193066 -0.019136488 -0.018281274 0.0045685256 0.004128257 0.041028447 0.033359054 0.0021075525
0.014174222 0.008527778 -0.008985169 -0.030181661 -0.033528347 0.003964633 -0.01641229 0.037910398
-0.018480876 0.011146759 -0.020318108 0.041308273 0.017713182 0.022719137 0.011131596 -0.007423936
-0.015580228 -0.019944225 -0.037070896 -0.008165023 -0.017955037 0.036766987 0.038659886 -0.028536258
0.0023987156 -0.03431718 0.019714516 0.030873522 -0.024282498 -0.030068249 -0.008068757 0.0330727
0.028770845 -0.022318965 0.0014388739 -0.032356646 0.03847728 0.017745052 -0.017299531 0.01848455
0.0025271194 -0.025244106 -0.040332314 0.025528824 -0.031185146 0.02751462 -0.012465687 0.023797961
0.017125912 0.025854079 -0.018583648 0.020457752 0.009792208 0.0006483914 -0.0004112116 0.0005904691
0.024199704 0.024682857 -0.015503097 -0.0009870696 -0.009343967 -0.015001079 0.018314486 0.038508233
0.021050964 -0.010468096 0.02493098 0.04036471 0.010938193 0.035834458 0.012544586 -0.009243883
0.013079956 0.009168035 0.011375589 -0.01105721 -0.03135247 -0.039382607 -0.026874652 0.025167396
-0.0099600265 -0.03379284 0.031690247 -0.03828924 0.00744508 0.03592995 -0.020740135 -0.0015203673
0.04062466 0.034920454 0.029235072 -0.008084443 0.024018327 0.01622233 0.0017649573 0.03792323
0.0118105 0.026024867 -0.03156255 0.012508388 -0.03842079 0.0069209025 0.011148967 0.024658896
0.022104671 -0.01857669 0.024767384 -0.041583456 0.034653477 0.020007653 -0.0064019407 0.01223125
0.022956425 -0.03341723 0.027042305 0.012437085 0.04055237 0.0018352008 0.0041601583 0.009581452
0.033700008 -0.034707237 0.023037694 0.022434516 -0.0048569413 -0.029787885 0.030766938 0.023985164
-0.01099973 0.006044569 -0.013914926 -0.019931782 0.040140796 0.015581751 0.0015095705 0.025503542
0.026968656 0.021393303 0.017811365 -0.031822626 -0.017363798 0.033770364 0.0118422555 0.010625883
-0.028052112 -0.020631885 -0.01635461 0.01919853 -0.017352981 0.031248063 -0.029652238 -0.00725144
0.03527729 -0.017556429 0.0006652433 -0.012328302 0.014660022 -0.02107343 -0.031543355 -0.015691191
0.016794698 -0.010812916 -0.031959314 -0.008700786 -0.018187286 0.034635417 -0.0060605416 0.018484872
0.037914738 -0.031256773 0.013969488 0.003907845 0.033616565 -0.00039386988 0.01078396 -0.04215589
0.03854149 -0.033112224 0.029449547 -0.02861957 0.0076322444 -0.0007961464 0.02985123 -0.039934345
0.0337643 0.039257497 0.011930064 0.038357917 0.033529013 0.0018657114 0.023368718 0.0027553027
0.010078715 -0.02900014 -0.011335552 -0.022680705 -0.024528742 -0.026540816 -0.017773762 0.0072674854
-0.0012493383 0.018752962 0.01823794 -0.011701122 0.026734233 -0.031529788 -0.026067402 0.038092297

conv3.bias f4 [128]
00000000: b257 d83c 983e 0cbd 3551 983e 134a 0a3c
00000010: 5663 b9bc 935f 913e c10d 1f3e 2010 1ebd
00000020: ffa0 263d c2b1 c1ba 500d b83e f6a5 86bc
00000030: 9aa6 08bd f820 03bd 6f10 563c 1349 8f3c
00000040: 2a55 2ebb 7fe9 823e 0f1c 083b 8201 1b3c
00000050: fcc8 c1bc ee10 613e ed96 753c 4ad7 e8bc
00000060: df1f 063d afea 2b3e 4b84 5bbc 7282 f53b
00000070: d78f f2bc 7437 81bc 0f3b 733e dc26 9f3e
00000080: 3899 1c3e 7e57 8b3e 6169 713e 0888 983e
00000090: d9ea 173c 603d 923e 80b7 2d3b c53d f73c
000000a0: caaf 9f3e 73b2 613e acff e93c f6ab 4b3c
000000b0: e52e 61bc 5d14 ed3d b90a 213d c754 603e
000000c0: a3a6 8a3e 007b f43c 6bdb eb3b dd40 09bd
000000d0: 432d 073c d352 90bc 8dbd e5bc 30ac 1ebd
000000e0: 7066 a63e 676a ca3d 6a0f 1dbc f2fd 05bd
000000f0: 831d ae38 b23c 1a3e 5335 003e cb8a 8abc
00000100: 8e96 a73c 249c 083c 6c98 c7bc e27b c6bc
00000110: ece6 953c a923 2ebd ba4c 813e 362f 813c
00000120: 6031 cbbc cc64 c6bc 89c5 913e cc15 02bc
00000130: e3bb 903b 754f 013d d40b 123e 2c3b 04bc
00000140: ca59 853e e96b 6c3e 7c53 6f3c 263b 4d3e
00000150: 3d7e 27bd 897d 0bbd 069b 1e3e df69 383c
00000160: 4341 893e e128 b83d 90d3 b2bc 8b4d eb3d
00000170: c369 003d 6019 c5bb 7e68 f9bc b215 a73e
00000180: b795 b13e 25ee b33e 0835 703d 8d27 723e
00000190: 5630 863e 7fff 9b3c db23 3a3e 184a a2bb
000001a0: 7c33 b73b b6f9 973e 783c ac3e 17cd 0abc
000001b0: 237d 0d3d a0c1 c1bb 81d7 99bc c315 863e
000001c0: 809a f63c 9662 753e 1c07 893e b4c6 7f3e
000001d0: 058e 0ebd 9327 97bc d1b1 93bb 017b d53c
000001e0: 8223 aa3e b38c 8b3e 5bcd b23e 3e13 e63c
000001f0: fe44 a83c a4ff 5a3e d8dd fa3b be72 9a3e
0.026409004 -0.03423938 0.29749456 0.008440512 -0.022630375 0.2839323 0.1553259 -0.038589597
0.04068088 -0.0014777707 0.35947657 -0.016436558 -0.03336201 -0.032013863 0.0130654415 0.0174909
-0.0026601055 0.25568768 0.0020768677 0.009460809 -0.023655407 0.21979114 0.014989597 -0.02842297
0.03274524 0.16788743 -0.01339824 0.007492357 -0.029609604 -0.015773512 0.23752998 0.31084335
0.15292823 0.2721519 0.23575355 0.29791284 0.009272301 0.2856245 0.002650708 0.030180821
0.31188804 0.22040729 0.028564297 0.012431135 -0.013744091 0.115761496 0.039316867 0.2190734
0.2708026 0.029843807 0.0071977875 -0.033509124 0.008250537 -0.017617619 -0.028044486 -0.03873843
0.3250003 0.09883576 -0.0095861945 -0.032712884 8.3024635e-05 0.15062216 0.12520342 -0.016911885
0.020457532 0.008338008 -0.024364673 -0.024228994 0.018298589 -0.042514477 0.2525385 0.015769582
-0.024803817 -0.024217986 0.2847102 -0.007939767 0.004416929 0.031569917 0.14262325 -0.008070748
0.26045066 0.2308804 0.014607307 0.20042095 -0.040891875 -0.034055267 0.15488824 0.01125571
0.26807603 0.08992172 -0.021829396 0.114893995 0.031350862 -0.006014988 -0.030445334 0.3263374
0.34684536 0.35142627 0.058644325 0.236479 0.26208752 0.019042728 0.1817774 -0.0049526803
0.005590854 0.29682702 0.33639884 -0.008471749 0.034543168 -0.0059129745 -0.018779518 0.26188478
0.030102968 0.23963389 0.26763237 0.24978143 -0.03480341 -0.018451488 -0.0045072814 0.02605963
0.33230215 0.27255782 0.349223 0.028085347 0.02054071 0.21386582 0.0076558404 0.30165666

fc1.weight f4 [6, 128]
00000000: ecb8 49bd 54e8 9e3d 3062 053e f7b1 813c
00000010: be4f 0cbc 7f3f e23d f407 a83d 8a5e 71bc
00000020: c015 ac3d c528 1bbd ad1c f13d b885 003d
00000030: 3bb3 72bd f7ec a4bd afdc a43d 66ef b43d
00000040: e409 68bc 6516 b73d ef91 833a 8649 903d
00000050: f276 83bd 1686 bb3d 2d6c 9fbd 5eab 16bd
00000060: 1161 893d 9f4c 893d ced9 393c 8c14 603d
00000070: 4437 3abd a874 adbd 3ae2 a73d 1450 fd3d
00000080: 6d39 033d c0b1 f63d 53d8 be3d 0945 d93d
00000090: 302f a3bd dffe f23d 71c4 2dbd 0c30 8d3d
000000a0: 6cee db3d 471b ab3d a8bd 3fbd 14f4 1f3d
000000b0: b25f 903d 41da 053e 0f67 bd3c 3bd9 083e
000000c0: f43c e23d 9bbb c63d a1f8 16bd d16e b73c
000000d0: 1884 53bc a79d a0bd 018e 8dbd 5c30 f43c
000000e0: 0ab8 f43d 7f1e 123d 3e6d 30bd c366 473c
000000f0: 8328 363d 4f2a c93d 54f7 a83d 286d 563d
00000100: 77f2 53bd 5186 24bd 65fd 1cbd b7cc 98bd
00000110: 8397 923d c0fc b83c 12a0 bd3d 1538 8c3d
00000120: 1843 18bd 0f7a 69bc df34 ab3d 988b a83d
00000130: 67e6 b13d 7513 013d 7db1 9d3d ba6f 11bd
00000140: 5ba6 cf3d 6d37 cf3d d5c9 2bbd f89e da3d
00000150: f434 43bd 4e13 0cbc 1274 083e 0e98 983b
00000160: c528 f03d 3c73 fc3d dd16 d9bc 00a9 f13c
00000170: 1e3c 2d3d 218a b6bc 6ade 97bc e4a7 e83d
00000180: 552b f63d 02e5 fb3d be53 833d 4fd8 db3d
00000190: b05f 903d 93ac 853d a527 053e 8bb8 90bd
000001a0: a607 84bc 5e99 bb3d 25b3 f93d b287 83bd
000001b0: df84 b23d 1311 a43d bdc8 713d c8e5 e83d
000001c0: 5b9e 90bd f4e4 f63d 2ae8 e13d 21fe e03d
000001d0: 3cee 1dbd e5d3 3038 b1f7 9d3d af41 873d
000001e0: ed5b db3d ee81 da3d 807a 053e 3ba0 163b
000001f0: 8e14 2a3d aa59 d03d 8b11 06bd 8d0a 053e
00000200: 11e7 e4bc 78a4 29bd 766c 303e a951 30bd
00000210: 5228 c73c b7d9 253e f284 2f3e 1e7f a2bd
00000220: fbe4 4c3d dc6b 15bd c6f8 283e 99f1 773c
00000230: 0d52 893d 4c4f 083d c044 9dbc a782 69bd
00000240: 4d44 8f3d 7c9d f73d 396b 423d ba79 f63c
00000250: 8058 113c 33eb 0b3e 3c13 46bb 3c2b 2abd
00000260: ae87 93ba e1b5 aa3d 3530 ad3d 4ed1 8ebd
00000270: 5986 99bd bf49 e639 5240 1b3e 642e 2b3e
00000280: 8678 743d e9bc 233e 43ba 163e 293b 143e
00000290: 906f 63bd d200 343e ed16 1b3d d7ef 363d
000002a0: 6650 063e 178d fa3d 8686 65bd 67c5 713d
000002b0: 143c 47bd 5820 fc3d 5d19 1fbd 0a22 2b3e
000002c0: f591 143e 596b ea3a ee57 c13c 3c7c 8d3c
000002d0: 204c 45bc 758f febc 079d 82bc 9e90 e43c
000002e0: 93a0 243e c1b3 c63d dfbf 633d 4af8 2a3d
000002f0: e876 7b3d 081a d83d dc9c 3d3e 843b 7c3d
00000300: a9aa 4e3d fdab 69bd 5d81 aabd 4b21 8cbd
00000310: b2d3 6fbd 4d49 fabc e255 de3d 4933 193c
00000320: f89e a7bd cd82 443c f918 043e a221 4cbd
00000330: 60af 243d 3f66 17bd 7a48 223e 566b a13d
00000340: 68c4 fa3d ca30 0c3e abeb 033d b777 d83d
00000350: 8f94 553d 2f20 2e3d c617 0e3e 6794 b93b
00000360: f9f6 233e 926f 623d 827f 83bd 3b6c 0b3e
00000370: 3e21 a63c 6eec aa3b c23f 8c3d bf55 1b3e
00000380: a044 313e ee56 303e 2493 fc3d 8e5b 1c3e
00000390: 4731 c33d 1074 49bd 405e 493e b601 11bb
000003a0: 6752 debb c32d f23d eff7 2a3e ea5c c73b
000003b0: f0b1 f5bc 178a 4abb 4007 9b3d 7b07 1b3e
000003c0: 4a93 2cbd 4241 1d3e 87f3 1e3e d442 033e
000003d0: 96e4 0e3c f0ff 9c3d b9f5 a1bd 9c78 3d3d
000003e0: 1b41 1e3e 0d41 2a3e 7454 333e 28cc a5ba
000003f0: 688c b63c 3826 cf3d de04 783d f32b 393e
-0.04924862 0.07759157 0.13025737 0.01583193 -0.008563934 0.11047267 0.08204642 -0.0147320125
0.08402586 -0.037880678 0.117730476 0.031377524 -0.05925296 -0.0805301 0.080499046 0.08834724
-0.014162514 0.08939818 0.0010037998 0.070452735 -0.064191714 0.09156434 -0.07784305 -0.036784522
0.06707967 0.067040674 0.011343433 0.054707095 -0.04546286 -0.08469516 0.08197446 0.12368789
0.032037187 0.12045622 0.09318604 0.106088705 -0.07967985 0.11865019 -0.04242367 0.0689393
0.10738835 0.08354812 -0.04681173 0.03905113 0.070495024 0.13071539 0.023120431 0.13364117
0.11046782 0.09703752 -0.036858205 0.022391709 -0.012909912 -0.0784257 -0.06911851 0.029808216
0.11949165 0.035673615 -0.04307293 0.012170496 0.04447223 0.09822523 0.08250299 0.052350193
-0.051744904 -0.040167157 -0.038327593 -0.07460921 0.07157805 0.022581458 0.092590466 0.06846634
-0.03717336 -0.014250292 0.08359694 0.082297504 0.08686524 0.031512696 0.07699869 -0.03550694
0.10139152 0.101179935 -0.04194053 0.10674852 -0.047657922 -0.0085495245 0.13325527 0.004656798
0.11726526 0.12326667 -0.02650016 0.02949953 0.04229366 -0.022282662 -0.018538672 0.113601476
0.12019984 0.12299539 0.06412457 0.10734617 0.07049501 0.065270565 0.13003404 -0.07066449
-0.016116928 0.09160112 0.12192372 -0.06422366 0.087167494 0.08011069 0.05902933 0.11371952
-0.07061454 0.12055388 0.1103061 0.10985971 -0.038557276 4.2159012e-05 0.07713259 0.06604325
0.10710893 0.10669313 0.13035011 0.0022983688 0.04152351 0.10173352 -0.032731574 0.12992306
-0.027942212 -0.041416615 0.17228875 -0.043046627 0.024311218 0.16196333 0.17140558 -0.07934402
0.05002306 -0.036479816 0.1650115 0.015133285 0.06705103 0.03327875 -0.019197822 -0.057009365
0.06995449 0.12090585 0.047465537 0.03008734 0.008871198 0.1366394 -0.0030223867 -0.041545138
-0.0011255646 0.08335472 0.084564604 -0.069735155 -0.07496328 0.00043923964 0.15161255 0.16716915
0.059685253 0.15990032 0.1471949 0.14475693 -0.055526316 0.17578438 0.03786366 0.044662323
0.13116607 0.12233942 -0.056036495 0.05902615 -0.04864128 0.123108566 -0.038842548 0.16712204
0.14508803 0.0017884775 0.023601498 0.017271154 -0.012042075 -0.031074265 -0.015944017 0.02790099
0.16076879 0.09702254 0.055602904 0.041740693 0.061392695 0.1055184 0.18516868 0.061580196
0.050455723 -0.057048786 -0.08325455 -0.06842288 -0.058551498 -0.03055253 0.108562246 0.009350606
-0.08184618 0.011994076 0.12900151 -0.049836762 0.040206313 -0.036962744 0.1584796 0.07881801
0.12244493 0.13690487 0.032207172 0.10569709 0.05214363 0.04251116 0.13876256 0.005663443
0.16012181 0.055282183 -0.064208046 0.13615505 0.020279523 0.005216173 0.06848098 0.15169428
0.17311335 0.17220661 0.12332752 0.152693 0.09530883 -0.04918295 0.1966486 -0.0022126264
-0.0067847255 0.118251346 0.16696142 0.0060840743 -0.029992074 -0.0030905062 0.07569742 0.15139572
-0.042132653 0.15356925 0.15522586 0.12818462 0.008721491 0.07666004 -0.07908196 0.0462576
0.15454523 0.16626377 0.17512685 -0.0012649344 0.022283748 0.101147115 0.060551517 0.18083172

fc1.bias f4 [6]
00000000: bac0 193f 48de 4c3f 5dcf 393f a131 483f
00000010: 7a89 373f 4f8b 733f
0.600597 0.80026674 0.72582036 0.7820073 0.7169415 0.95134443
