models/convNN2_ll_training_50-50_split_original.txt.pt (torch, 384591 bytes, 8 tensors)

conv1.weight f4 [32, 3, 5, 5]
000000 43 c7 ab 3d 11 8c b3 3d 59 94 1b bd d4 d5 be 3d
       0.083876155 0.0876695 -0.037983272 0.09318128
000010 cf d9 22 bd 15 e0 9b 3c 44 8c 84 bd 06 4b 67 3d
       -0.0397585 0.01902775 -0.06472066 0.056468032
000020 c1 f7 b2 3d b4 ef cf bd 64 00 c6 3d 55 02 64 3c
       0.087386616 -0.101531416 0.09668043 0.013916572
000030 2c 0f 98 3d e2 ec 24 3a f6 0d 1e 3d dc fe a4 bc
       0.07424769 0.0006291402 0.038587533 -0.020141058
000040 ae 4e a7 3d a7 e6 b8 3b 0d 89 8e bd fd ad 41 3c
       0.08169304 0.0056427303 -0.06959734 0.011821267
000050 65 d6 68 bd 62 0a a8 bc a7 18 6c bd 7c 26 7e 3d
       -0.056845088 -0.020512763 -0.057640698 0.06204842
000060 9f 67 dc bd 3d 63 a5 bd 6a 2b 83 bd 25 ae d3 bd
       -0.10761952 -0.08075569 -0.06404765 -0.1033595
000070 16 b8 cb bc cf 74 1a be e9 40 9d 3d 2e 1d 05 be
       -0.024868052 -0.15083621 0.07678396 -0.12999412
000080 87 ab 5f 3d bc 60 95 bc 81 25 9d bd 0e 82 36 3d
       0.05460694 -0.018234603 -0.07673169 0.044557624
000090 bd 1e 54 bc 4b 70 72 3d e3 56 ce bc 79 52 9b bd
       -0.012946782 0.059189122 -0.025187915 -0.0758409
0000a0 02 44 8c 3b 27 ee 7c bd d2 14 6b 3c 50 d6 84 3d
       0.004280568 -0.061750557 0.014348226 0.06486189
0000b0 68 98 dd 3c 9f eb 9c bd dc d6 17 3d 8c 50 4c bc
       0.027050212 -0.07662129 0.03707014 -0.012470376
0000c0 2e 37 b3 3c 61 46 de bd 57 88 13 be 86 5c a0 bd
       0.021876898 -0.108532675 -0.14407478 -0.078301474
0000d0 7d 2c ff bd af 7f 69 3d 6a 61 ac bb 0d 02 94 3c
       -0.12459657 0.057006534 -0.005260636 0.018067384
0000e0 de 9d 17 3b 80 7c 1e bd 44 48 50 3d a6 29 fc bd
       0.0023134868 -0.03869295 0.050850168 -0.12312631
0000f0 24 d8 b1 bc 90 6b e5 bd 30 c2 11 ba 27 29 a3 bd
       -0.02170951 -0.112021565 -0.0005560247 -0.079668336
000100 f4 6a bc bb 86 4d 59 bd d7 22 81 3d da ca d6 bd
       -0.0057500545 -0.053052448 0.06305473 -0.104879096
000110 7c 04 e0 bd db 34 e2 bd b3 17 9b 3d ac d9 de 3b
       -0.10938355 -0.11045238 0.0757288 0.006800851
000120 5a d5 9b 3d a1 46 09 be 21 08 1e be fd 03 b9 bd
       0.07609053 -0.13405849 -0.15432788 -0.09033964
000130 4e 14 9f bd df 91 3f 3d e3 5a 29 3d 54 7f c4 3d
       -0.07767545 0.046769973 0.041346442 0.095945984
000140 70 40 74 bd 88 36 a1 bd ea f1 7a 3d bd 2c 3f bd
       -0.059631765 -0.07871729 0.061265863 -0.046673525
000150 f0 86 8f 3d db 78 e0 bc 68 47 87 3d 50 bd b7 bd
       0.07008159 -0.027401378 0.066054165 -0.08971655
000160 8c ae 6e bd 28 32 10 3d 95 f9 c7 3c 5f 2c f1 bc
       -0.05827193 0.035204083 0.024411002 -0.029440103
000170 ca f5 8c 3d 5a c3 a0 3d ae 7d ab bd 63 80 7c bd
       0.06882818 0.0784976 -0.08373581 -0.061645877
000180 b5 89 d8 3d e8 97 1f bd 84 ac 27 bd c2 d1 e4 bd
       0.105731405 -0.03896323 -0.040936008 -0.11172821
000190 37 6d 87 bd 02 4c ec 3c 76 b6 79 bc 1f a9 ab bd
       -0.06612628 0.028844837 -0.015241256 -0.08381867
0001a0 8f 73 31 3b 7f 89 a1 bd 90 a1 c8 bd e0 38 82 bd
       0.0027076935 -0.078875534 -0.097964406 -0.06358504
0001b0 f7 f8 ce bd cb 93 96 bd bc 63 ec 3d 98 a9 b2 3c
       -0.1010608 -0.07352408 0.1154246 0.021809384
0001c0 b2 bf 11 3d 4d 90 dc bd cc 50 9b bd 23 6e 1d bd
       0.035583206 -0.10769711 -0.0758377 -0.038435113
0001d0 8c ea 93 3c 0e 16 d0 bd b7 c9 4b bd 22 93 8d bd
       0.018056177 -0.101604566 -0.049752917 -0.06912829
0001e0 0a b9 a7 39 10 fe 2f bd 9a 18 03 bc 6c 3f a0 bd
       0.00031990587 -0.042966902 -0.008001471 -0.07824597
0001f0 11 52 a2 bd e6 f6 89 bd 15 e5 21 bd b8 a6 ba bd
       -0.07925809 -0.06736545 -0.03952511 -0.0911383
000200 4c 48 c6 3d 83 bd bb bc 02 78 cb 3d 15 5e 13 3d
       0.09681758 -0.022917515 0.09934999 0.035978395
000210 b8 40 c8 bd 80 a7 a3 3d 36 22 02 bd 07 4d 35 bd
       -0.09777969 0.079909325 -0.031770907 -0.044262912
000220 1b 4c c4 bd 11 1a eb bd 05 52 07 3d 00 a2 ce bc
       -0.095848285 -0.11479581 0.033037204 -0.025223732
000230 af 22 38 3d 9a 12 c2 bd 56 92 af 3d 4d 97 ad bd
       0.04495495 -0.09476204 0.08572833 -0.08476124
000240 4c 56 a3 bc 6b 93 c5 3c 37 2b 74 3d 47 ea be 3d
       -0.01993861 0.024118146 0.059611525 0.093220286
000250 11 6d d7 3d 29 83 bb bd 70 fd ee 3c c7 fd 4a bd
       0.1051885 -0.09155876 0.029173583 -0.049558427
000260 6d 76 4d bc 2c ca b0 bd 27 9c d7 3d c0 4f ad bd
       -0.012540442 -0.08632311 0.105278306 -0.08462477
000270 e6 42 7d 3d c8 ac 26 3d 74 16 1a 3d 82 50 7f bd
       0.061831377 0.04069212 0.03761907 -0.062332638
000280 33 40 d7 3d c9 f8 d0 3c cf 4b 75 3c e6 34 d0 bd
       0.10510292 0.025509255 0.014971687 -0.101663396
000290 74 ea 46 3d f3 b1 8c bc ec 1b 58 bd d3 63 cb 3d
       0.048563436 -0.017174697 -0.052761003 0.09931149
0002a0 de c7 d3 3c af a5 82 bd 7c d1 6e bd 20 3e b0 bb
       0.02585214 -0.06379258 -0.05830525 -0.0053784996
0002b0 da 4d 84 3d f9 d1 f0 bc 37 bc 86 bd c0 92 21 bd
       0.064601615 -0.029396998 -0.06578868 -0.039446592
0002c0 0a 7c b0 bd 57 11 29 3d 22 3a b7 3d 48 76 de bd
       -0.086174086 0.041276302 0.08946635 -0.10862404
0002d0 a7 8f dc 3c bb bd 74 3d d3 4a ac 3c 65 1c 28 bd
       0.026923968 0.059751254 0.021031773 -0.041042704
0002e0 ae 2e 77 3d 08 12 79 3d be 54 31 3d 50 67 a5 bc
       0.06034725 0.06080821 0.043293707 -0.020190865
0002f0 07 d9 f9 bc 38 97 4b 3c e7 0b a6 bc e5 73 0c bd
       -0.030498995 0.01242619 -0.020269347 -0.034290213
000300 62 63 97 3d 0e 6b cb 3d ee 07 3a bc 9a d0 d2 bc
       0.07392003 0.099325284 -0.01135443 -0.025734235
000310 83 35 ec 3a 80 56 de bb b2 29 e4 3c 49 dc 04 3d
       0.0018021319 -0.006785214 0.027851913 0.032436643
000320 a8 b3 d6 bd 12 64 2e bd 65 3c c7 3d 88 63 38 3d
       -0.104834855 -0.042575903 0.09728316 0.045016795
000330 6d 25 bb bb a2 78 8e bd 54 96 90 bd a3 c0 d3 bd
       -0.0057112486 -0.06956603 -0.07059923 -0.10339477
000340 7b 10 1a bd 17 d4 1f 3d 26 ef 96 3d 4e 9e 5a 3d
       -0.037613373 0.039020624 0.07369833 0.053373627
000350 ec f1 d0 bd a9 29 8e bd 12 1e 95 bc 87 e9 e4 3d
       -0.10202393 -0.0694154 -0.018202815 0.11177354
000360 ff 5d 89 3c e5 82 f4 bc 48 d2 43 3d ed 0b 34 bd
       0.016768454 -0.029847572 0.04780796 -0.043956686
000370 07 ef 98 bd 8c bb ac 3d ce d5 56 bd 20 52 bd bc
       -0.07467466 0.08434209 -0.052449994 -0.02311045
000380 e6 33 eb bd dd a7 9b 3d 0c 49 aa 3d f4 cc 16 3d
       -0.11484508 0.07600377 0.08314714 0.036816552
000390 d1 d1 ae bd 47 48 ee bd fd e7 c8 bd 8d 20 a1 3d
       -0.08536113 -0.116348796 -0.09809873 0.07867537
0003a0 d0 28 41 3d 28 89 b7 3d 48 6a 64 3d 3c a9 c5 3c
       0.047158062 0.08961707 0.05576542 0.024128549
0003b0 ff fa 1f bc e2 15 c7 bd f1 15 dc bd 53 23 e8 bd
       -0.009764432 -0.09720971 -0.107463725 -0.113348626
0003c0 01 1d 30 3d 4d 52 84 bd 7d 52 02 bd 36 7c 97 bd
       0.04299641 -0.0646101 -0.03181695 -0.07396738
0003d0 5f 56 cd bc 49 b2 a9 bd d2 65 a4 bd 28 f1 07 3d
       -0.025065599 -0.08285958 -0.08027233 0.03318897
0003e0 87 4f 1c bd 0e 1a 91 3d d6 97 1c bd f3 79 b5 bd
       -0.03816178 0.07085048 -0.03823074 -0.088611506
0003f0 eb c0 cc bc 83 30 76 bd 0c 3f 18 bd 6a 01 e9 bd
       -0.024994334 -0.060104858 -0.0371695 -0.11377223

conv1.bias f4 [32]
000000 c9 ee b5 3e 8d a6 8b bd 36 a5 41 bd 4b 95 b6 3e
       0.3553374 -0.068188764 -0.047276698 0.35660776
000010 4e 73 04 3c 91 0d 44 bd 82 ab b1 3e ca 63 84 bd
       0.008084131 -0.0478645 0.34701163 -0.06464346
000020 5d af c0 bd 4f 98 ab 3e 13 64 82 bd 8e 4d 19 3f
       -0.09408448 0.3351464 -0.06366744 0.59883964
000030 9f 54 33 3f cb ae 5f bd 3c 0d eb 3d 82 3b 0c 3e
       0.70050997 -0.054610055 0.11477134 0.13694575
000040 b4 a8 a9 bd 74 73 cc 3f 68 61 60 bd d5 d5 b3 3e
       -0.08284131 1.5972733 -0.054780394 0.35124078
000050 4b c7 ad 3f 19 2c a1 bd 2e d2 60 3f 46 cf f0 3f
       1.3576444 -0.07869739 0.8782071 1.8813255
000060 79 6c 68 3f 56 c8 44 3f c7 f8 d9 bb 46 18 88 bc
       0.90790516 0.7686819 -0.006651971 -0.016613137
000070 be 31 10 40 94 ab db bc 63 55 38 3c 3c de df bd
       2.253036 -0.026815213 0.0112508265 -0.1093106

conv2.weight f4 [64, 32, 3, 3]
000000 92 3a 43 bd bc d1 23 3d 23 02 13 bd c6 f2 42 3d
       -0.04766328 0.03999494 -0.03589071 0.047594808
000010 6f 87 d5 3b 5e 04 5b 3c 6e 86 60 3d d8 7f 05 bd
       0.006516389 0.01336774 0.054815702 -0.032592624
000020 38 b9 22 bc cc 0b 2b 3c be ea a4 3c e3 e4 6a bd
       -0.009931855 0.010439824 0.020131465 -0.05734719
000030 31 91 ab 3c f1 55 0e bd fa 9e fd 3b 99 4a 23 3d
       0.020943256 -0.03474993 0.0077398987 0.039866064
000040 24 58 c0 bb 2d 54 f4 ba 30 22 90 bb cd 6c 49 3d
       -0.005869882 -0.0018640809 -0.0043986067 0.049176026
000050 27 2e 09 3d 90 6d 22 3c 39 3c 11 bd ba 0c 03 bd
       0.03349128 0.009913817 -0.035457823 -0.03199456
000060 1f 45 40 3d ca a6 2d 3d d9 c3 0b 3d 4f 44 34 bd
       0.04694092 0.04239539 0.03412232 -0.044010457
000070 8b 77 43 3d cd 4e 85 bb 03 43 3a 3d 49 61 59 3d
       0.047721427 -0.0040682317 0.045474064 0.053071294
000080 38 6a 03 3c 7d 7d b8 bc a3 6e 6a 3d d1 57 ef bc
       0.00802093 -0.022520775 0.057234418 -0.029216679
000090 c8 5f 1e 3d 57 b2 66 bd 0a 53 96 bc a5 cd 51 bd
       0.038665563 -0.056322422 -0.018350143 -0.05122151
0000a0 d8 1c d7 bc 20 7a ce 3c 6b 51 2c bd 47 0c 50 bd
       -0.026258871 0.025204718 -0.042069834 -0.05079296
0000b0 25 50 2d 3d 70 fd 00 3d 6d 6e 1c ba 94 e8 29 bd
       0.04231276 0.031491697 -0.00059673825 -0.04148157
0000c0 e5 1b 7f bc 2a d4 9b bc 5d 51 15 3d 41 8e 9d bc
       -0.015570615 -0.019022066 0.036454547 -0.019232871
0000d0 b5 8c 8a bc 89 d7 2a bd a5 e6 d4 bc b9 62 0b 3d
       -0.016912797 -0.041709457 -0.025988886 0.034029696
0000e0 54 d0 24 3d 0c e2 2b 3c 92 39 a1 bc 6a ef 72 3d
       0.04023774 0.0104909055 -0.019680772 0.059310354
0000f0 a2 d4 5a 3c be 1c a9 bc 9e 3a 94 bc 31 4e 01 bc
       0.01335636 -0.020643588 -0.018094357 -0.007892177
000100 68 85 e8 3c cb fe b3 3c 3f 42 30 3d 51 9c 12 bb
       0.028383926 0.02197208 0.043031927 -0.0022371004
000110 be 47 49 3d 37 e1 c1 bc 82 2c db bc 00 15 af bc
       0.049140684 -0.023666961 -0.026754621 -0.021372318
000120 ba 71 62 bd c1 6f 1e bd 67 66 5a bd dc 36 64 bb
       -0.05528424 -0.038680796 -0.053320315 -0.0034822738
000130 db b4 11 3a 69 92 7a bc ba f0 24 bd d5 fb 5a 3d
       0.00055582606 -0.015293696 -0.040268637 0.053462822
000140 87 f1 9f bc c7 09 f4 3c 16 a6 2d 3d b7 24 1d bd
       -0.019524349 0.029789818 0.04239472 -0.038365092
000150 a8 bc aa bb ed ed 13 3d 57 ec 6e 3d 6e 5b bc bb
       -0.005210478 0.036115576 0.05833086 -0.005748204
000160 af 08 35 3d 41 3a 3a bd e6 be 1c bd b5 91 46 3d
       0.044197734 -0.04546571 -0.038267992 0.0484788
000170 08 1a b6 bb 27 85 6e 3d 27 1e 8d 3b 9b 01 c8 bc
       -0.0055573024 0.058232453 0.004306573 -0.024414828
000180 ce 4c 65 3d 3a 28 53 3d 16 f2 b3 3b b4 05 09 bd
       0.05598145 0.051552035 0.0054915054 -0.033452705
000190 59 cb 60 ba 1f 8d df bc 9c 69 38 3d 67 50 87 3b
       -0.0008575223 -0.027288971 0.045022592 0.0041294578
0001a0 1e 84 58 3c 3c d1 1b 3d da 96 ac 3c 10 40 12 bd
       0.013215093 0.03804134 0.021068025 -0.035705626
0001b0 61 c2 5d 3d 7b 27 29 3d e6 c3 01 bd 52 c0 4b 3d
       0.054140452 0.041297417 -0.031680964 0.049743958
0001c0 9c b8 b1 3c e6 6d e9 bb 58 08 18 bd a7 16 a4 bb
       0.021694474 -0.0071236966 -0.037117332 -0.005007583
0001d0 97 43 5b bd 62 c2 09 3d 7f ce 2e 3d e0 f8 8a bc
       -0.053531256 0.033632644 0.0426774 -0.016964376
0001e0 c6 c0 5f 3d 2e be b2 bc 3d 55 25 3c 75 33 28 bd
       0.054627202 -0.0218192 0.010091123 -0.0410647
0001f0 e2 3e 23 bb 6b 21 c3 3c 5f 14 d2 3c c2 7e 09 bb
       -0.0024909307 0.023819646 0.02564448 -0.0020980095
000200 53 e0 f7 bc 72 ef 2b 3d 5d 46 22 3d 00 95 1c 3c
       -0.030258333 0.0419764 0.039617885 0.009557009
000210 73 8b db bc a8 1f 51 3c 47 c4 8a 38 4f 0a 62 3d
       -0.026799893 0.012763895 6.616912e-05 0.055185612
000220 6e eb 24 3c 6a 05 c7 3b 78 f0 a1 3b 98 95 03 3d
       0.010065896 0.0060736435 0.004941996 0.032125086
000230 54 c1 61 39 ad 45 53 3d ed 8b 01 3d 10 10 32 bd
       0.00021529692 0.05158012 0.031627584 -0.04347235
000240 d5 99 da b9 41 5b 4f bd f0 28 3c bd 74 59 39 3c
       -0.00041694814 -0.050624136 -0.04593748 0.011312831
000250 59 f2 51 3c 5f 1c bc bb df 8e 65 3d d4 b6 02 bd
       0.012814128 -0.005740687 0.056044456 -0.03191264
000260 f4 c7 cd bc f8 4f ef bb b4 ae 77 3a de 80 c7 bb
       -0.02511976 -0.007303234 0.0009448335 -0.00608836
000270 e9 2b 65 3d 11 7e c3 bc 9f 4d 02 bd 02 b4 09 3c
       0.05595008 -0.023863824 -0.031812306 0.008404734
000280 05 b3 3b 3d 37 fa 5f 3c c7 0b 02 3d 05 fb 3a 3c
       0.045825023 0.013670496 0.031749513 0.011412387
000290 60 b9 4d 3d d8 fa 10 3d ea b9 2c 3d ca f9 01 bc
       0.050225616 0.035395473 0.04216949 -0.0079330895
0002a0 fd ce 47 bd f7 f4 e4 bc b8 78 a4 3c de f6 32 3d
       -0.048781384 -0.02794884 0.020077094 0.043692462
0002b0 4c 2e aa bc 89 7e 50 3d 96 f8 30 3c a8 9e 1f 3b
       -0.02077403 0.050901923 0.010801455 0.002435604
0002c0 cb ba 8e 3b 0c de 04 bc 9e f2 6a 3d cb f0 97 3b
       0.0043557636 -0.008109581 0.057360284 0.004636859
0002d0 b9 dc 16 3d b4 aa 51 bd 75 77 0b bd 85 e1 0b 3c
       0.03683159 -0.051188186 -0.03404947 0.008537655
0002e0 25 88 3f 3d 4f e4 cf 3c 68 70 5a 3c 30 1b 6f bd
       0.046760697 0.02537742 0.013332464 -0.058375537
0002f0 6e a5 a0 ba 00 4b 1f bd 75 0a 4e bd f8 30 04 3c
       -0.0012256333 -0.038889885 -0.05030294 0.008068316
000300 32 ae 18 bd 77 1e 5b 3d 34 25 03 bd 85 a0 9b 3c
       -0.0372755 0.05349585 -0.0320179 0.01899744
000310 01 b9 0d 3d 15 8d 3b bd ab ea 02 3d a3 d7 da bb
       0.03460026 -0.045788843 0.031962078 -0.006678538
000320 1b 9e 00 3d 61 4a 71 3d ee 5b c4 bc 06 bc cb bc
       0.03140078 0.058908824 -0.023969617 -0.02486993
000330 0e d9 48 3d 36 b7 05 3c b4 44 9b bb a7 2e 39 3d
       0.049035124 0.008161357 -0.0047384147 0.045210507
000340 d8 9e f3 bc d5 88 d8 bb 3e 6e 2c 3d 5e 38 b9 3c
       -0.029738829 -0.0066081085 0.042097323 0.022609886
000350 f5 11 2a bd 25 39 8f 3c aa de 37 bd d3 18 0f bd
       -0.04152103 0.017483303 -0.044890083 -0.034935784
000360 c2 3c 24 3d 13 c1 62 bc c9 d9 e9 bc 27 13 dc 3b
       0.040097006 -0.013839978 -0.02854623 0.0067161503
000370 d9 b0 88 3c c8 90 0d bd 09 fb 17 bd 0c e1 60 bd
       0.01668589 -0.034561902 -0.03710464 -0.05490212
000380 19 5d 8c 3c f7 72 05 bd 90 54 21 3c 02 b5 06 bc
       0.017134236 -0.032580342 0.009846821 -0.008221867
000390 40 2e 07 bd 4a 04 5c bc d1 6b 25 bd e5 8e d3 bc
       -0.03300309 -0.013428757 -0.040386025 -0.025824973
0003a0 93 49 5a 3b dc 2d 3b bd fe ad 53 bd f8 ca 34 3d
       0.0033308014 -0.04569803 -0.051679604 0.04413888
0003b0 ba b1 b5 3b d5 7b d5 bc 36 65 00 bb cd fb 32 3d
       0.0055448683 -0.026060024 -0.0019591576 0.043697167
0003c0 8d 5b 49 bd d9 ed ff bc 56 89 2e bd d1 e4 8b bb
       -0.049159575 -0.031241344 -0.042611443 -0.0042692204
0003d0 31 df 03 bb 8c 08 3c bd 83 95 27 3d 56 47 39 bd
       -0.0020122046 -0.04590659 0.04091407 -0.045234047
0003e0 f1 66 61 3d d4 18 26 bd 0c 14 04 bc 18 b8 34 3c
       0.055029813 -0.04055102 -0.00806142 0.0110302195
0003f0 1a f4 c8 bc ce c7 5c 3d 04 96 32 bd bf ac 0b 39
       -0.02453046 0.053901486 -0.043600097 0.00013320426

conv2.bias f4 [64]
000000 a7 a7 0b 3e 73 3e 32 3b f5 00 96 3e f0 18 fa bb
       0.13638173 0.0027197867 0.29297605 -0.0076323673
000010 36 b7 5b bc 48 61 65 3d b4 ab 56 3d 16 19 5f 3f
       -0.01341038 0.056000978 0.052409843 0.87147653
000020 38 41 ae 3d fe a9 23 3e 73 df e2 3b 6c 28 00 3d
       0.08508533 0.15982816 0.00692361 0.03128855
000030 5e 94 d7 3c 37 4d ea 3e 66 df 2f bd 4e bd 2d 3f
       0.026315864 0.45762035 -0.04293766 0.6786698
000040 05 66 0b 3e 26 ec 90 bc fb ab d1 bb fa 63 6c 3f
       0.13613136 -0.01769073 -0.0063986755 0.9234005
000050 b5 da 6c 3f 41 59 46 3f 18 25 78 bd 44 67 be b9
       0.9252122 0.7747994 -0.06058225 -0.00036316563
000060 a2 df bb 3f 26 26 73 3f 71 9e 70 3d d0 d6 5d bc
       1.4677622 0.94980085 0.05874485 -0.013539985
000070 89 ec 0d 40 6e a0 8f 3f 09 30 a1 bc 29 ca 83 3e
       2.217562 1.1220834 -0.019676225 0.25740173
000080 3e ca 11 3d 20 96 85 bc 99 c5 85 b9 92 0b e6 bc
       0.035593264 -0.016306937 -0.00025514959 -0.028081689
000090 f4 b9 46 3f 50 1a 90 3c c7 82 26 3d d1 e8 1b 3f
       0.7762749 0.017590672 0.040652063 0.60902125
0000a0 2b 20 d4 3f 44 8b b9 bc e1 7e 2c bd f3 46 fd 3c
       1.6572317 -0.022649415 -0.04211319 0.03091762
0000b0 45 a0 18 3b 6b 86 44 bd d6 73 ad 3b 78 fd a1 3f
       0.0023288887 -0.047979753 0.0052933497 1.2655478
0000c0 ed 30 b5 bb 1e 99 49 bd 38 a0 a6 3f 32 ee 2e 3d
       -0.005529514 -0.04921829 1.3017645 0.04270763
0000d0 87 7e 8d 3f e6 28 89 bd 07 6a 52 bd cf b3 7d 3e
       1.1054238 -0.06697254 -0.051370647 0.24775623
0000e0 fa fa c6 bc 61 17 7d bd 75 57 78 bb c0 ca fc bc
       -0.024289597 -0.061789874 -0.0037893925 -0.030858397
0000f0 3c 68 9f 3f 2b 84 be bc ad b8 87 3e 98 ad 90 3f
       1.2453685 -0.023256382 0.26508084 1.1302977

conv3.weight f4 [128, 64, 3, 3]
000000 05 b4 13 bc 58 94 db bc cd 96 c6 bb 9c 51 d8 bc
       -0.009015088 -0.026804134 -0.0060604573 -0.026406102
000010 03 ba 17 3b c4 91 ee 3c cb 8d 8e bc ac 86 c0 bb
       0.0023151643 0.02912224 -0.017401597 -0.005875429
000020 15 b8 f4 bb 8d ca 64 bc 21 d6 ed bc 69 0d 2a 3c
       -0.0074682334 -0.0139643075 -0.029032769 0.010379174
000030 9d 15 74 bb 76 7d 00 3b 8e 74 32 bc 09 08 db bc
       -0.0037244328 0.001960603 -0.010892047 -0.02673723
000040 d0 49 7c bc b7 fb ad 3c 6f 88 ea 3c 5c 6a 5d bc
       -0.015398458 0.021238191 0.02862951 -0.013514128
000050 b7 4a b1 3c e7 96 c5 bc 54 d8 28 bb 2d e4 1a bd
       0.021642072 -0.024119807 -0.0025763707 -0.03781526
000060 55 8d c5 bb a3 9e 43 3c e8 7a ce 3c b5 e5 6e 3c
       -0.006028811 0.011939677 0.02520509 0.014581134
000070 46 08 a1 3c 08 77 12 bc 2f dd 27 3d 77 91 0d bd
       0.019657265 -0.008939512 0.04098242 -0.034562554
000080 b0 d2 19 bc f7 41 d6 bb b8 59 e5 3c e2 1f 05 3c
       -0.009388611 -0.0065386253 0.027996883 0.008125277
000090 37 9a 26 3d 46 5f e6 bc f5 8e 62 3c 3f 8e 0f bd
       0.040674414 -0.028121602 0.013828029 -0.035047766
0000a0 c9 28 58 3c 85 c4 9c bc f7 c2 95 bc 39 b2 95 3b
       0.013193318 -0.019136677 -0.018281443 0.004568365
0000b0 8c 42 87 3b 78 08 28 3d 7a 9e 08 3d 32 d2 09 3b
       0.004127806 0.0410237 0.03335426 0.0021029827
0000c0 c9 26 68 3c 5d a3 0b 3c 9f 4a 13 bc 38 4a f7 bc
       0.014169403 0.008522836 -0.008989959 -0.030186757
0000d0 a0 5a 09 bd 1b c1 81 3b fb 6b 86 bc 52 4b 1b 3d
       -0.033533692 0.0039597875 -0.016408911 0.037913628
0000e0 20 5e 97 bc a3 aa 36 3c b7 6d a6 bc a5 35 29 3d
       -0.0184775 0.011149081 -0.020315988 0.041310925
0000f0 72 1f 91 3c 22 22 ba 3c d1 6b 36 3c d7 77 ef bb
       0.01771519 0.022721354 0.011134104 -0.007307987
000100 de e4 7d bc cb e0 a2 bc 1e 75 17 bd 6a b3 04 bc
       -0.015496461 -0.01988258 -0.036976926 -0.008099416
000110 1c a5 92 bc f0 e3 16 3d c3 90 1e 3d 8e 63 e9 bc
       -0.017900996 0.036838472 0.038712274 -0.028489854
000120 1b 31 1e 3b 88 85 0c bd 62 92 a1 3c 10 fb fc 3c
       0.0024138156 -0.034307033 0.019723121 0.030881435
000130 dd e3 c6 bc 59 4b f6 bc df 25 04 bc 7c 77 07 3d
       -0.024278576 -0.030065225 -0.00806567 0.033072934
000140 73 b0 eb 3c aa f0 b6 bc 4e 7d ba 3a a2 9c 04 bd
       0.028770661 -0.022331554 0.0014228018 -0.03237594
000150 2e 8d 1d 3d 91 3a 91 3c 53 e0 8d bc c6 53 97 3c
       0.038464718 0.017728122 -0.01731888 0.018472563
000160 b7 8f 24 3b 71 f1 ce bc db 15 25 bd d3 4d d1 3c
       0.0025110075 -0.025261613 -0.040304046 0.025549805
000170 34 4f ff bc dd 88 e1 3c 94 0f 4c bc 78 0b c3 3c
       -0.031165697 0.027531082 -0.012454886 0.02380918
000180 52 6c 8c 3c 4c e6 d3 3c 0c 23 98 bc 8e 8f a7 3c
       0.017141495 0.02586665 -0.0185714 0.020454194
000190 38 60 20 3c d0 23 29 3a 48 f2 d8 b9 07 0a 1a 3a
       0.009788565 0.0006452175 -0.00041379244 0.0005876128
0001a0 ae 38 c6 3c 70 2f ca 3c 94 0a 7e bc 9d a7 81 ba
       0.024196949 0.024680823 -0.015505452 -0.0009891872
0001b0 70 17 19 bc 16 c7 75 bc 43 08 96 3c cf ba 1d 3d
       -0.009343967 -0.015001079 0.018314486 0.038508233
0001c0 13 73 ac 3c 62 82 2b bc 0a 3c cc 3c 77 55 25 3d
       0.021050965 -0.010468097 0.024930973 0.04036471
0001d0 15 36 33 3c 00 12 13 3d f5 76 4e 3c b4 af 16 bc
       0.010938187 0.035905838 0.012601604 -0.009197164
0001e0 ca 3b 57 3c 88 eb 16 3c 27 ff 3a 3c fa 6c 34 bc
       0.013136813 0.009211428 0.011413372 -0.01101231
0001f0 82 46 00 bd 4a 2d 21 bd 99 2c dc bc 81 27 ce 3c
       -0.03131724 -0.03934983 -0.026876735 0.025165321
000200 34 37 23 bc bc 6b 0a bd 8c cc 01 3d fc d5 1c bd
       -0.009961892 -0.03379415 0.03168921 -0.03829001
000210 d1 ec f3 3b 0c 2a 13 3d 39 ea a9 bc a5 b0 bb ba
       0.007444002 0.03592877 -0.020741569 -0.0014319612
000220 c1 a4 26 3d 69 35 0f 3d ec 0d f0 3c 31 b8 03 bc
       0.040684465 0.034963045 0.029303513 -0.00803952
000230 3c 0e c5 3c 34 4f 85 3c ae e8 eb 3a 58 74 1b 3d
       0.024054639 0.016273119 0.0017998421 0.03795275
000240 2f a5 41 3c 28 3d d5 3c 24 43 01 bd a3 08 4d 3c
       0.011819168 0.026030138 -0.03155817 0.012514266
000250 b5 5c 1d bd 9c d2 e2 3b c2 b5 36 3c ae 01 ca 3c
       -0.03841849 0.0069220793 0.011151733 0.024659004
000260 f4 13 b5 3c 1c 2d 98 bc 4d e5 ca 3c db 54 2a bd
       0.022104241 -0.018576197 0.024767542 -0.04158483
000270 08 f1 0d 3d 04 e5 a3 3c b4 d5 d1 bb c7 65 48 3c
       0.034653693 0.020006664 -0.006403649 0.012231297
000280 8b 0d bc 3c 7a e1 08 bd f1 86 dd 3c 1b c3 4b 3c
       0.022955677 -0.033418156 0.027041884 0.0124366535
000290 ea 19 26 3d 5f 7d f0 3a ce 4d 88 3b a3 f9 1c 3c
       0.040552057 0.001834791 0.0041596657 0.009581002
0002a0 f8 08 0a 3d 37 29 0e bd 83 b9 bc 3c 45 10 b9 3c
       0.03369996 -0.034707274 0.023037678 0.022590766
0002b0 85 58 9b bb b4 4a f3 bc b0 0e fd 3c 33 35 c5 3c
       -0.004740777 -0.029698707 0.030890793 0.024073219
0002c0 12 00 33 bc b7 ff c8 3b 52 e9 62 bc 6e cc a2 bc
       -0.01092531 0.006133999 -0.013849573 -0.01987287
0002d0 8a 07 25 3d e5 87 80 3c 94 2d d0 3a 13 e1 d1 3c
       0.040290393 0.0156898 0.0015882724 0.025620019
0002e0 3c 94 dd 3c 85 c9 af 3c 11 9b 92 3c 2f 1a 02 bd
       0.027048223 0.021458397 0.017896207 -0.031763252
0002f0 70 d3 8d bc 41 b2 0a 3d 34 17 43 3c c8 e4 2e 3c
       -0.017312735 0.033861402 0.0119073875 0.010674663
000300 6c 3b e5 bc 3e a2 a8 bc 73 a8 85 bc 37 b1 9d 3c
       -0.027982436 -0.020585176 -0.016315674 0.019249542
000310 3c de 8d bc be 1e 00 3d 36 f9 f2 bc 2a e0 ed bb
       -0.017317884 0.031279318 -0.029659849 -0.0072593885
000320 cc 76 10 3d e9 e1 8f bc c7 66 2c 3a 7d 1d 4a bc
       0.035269544 -0.017563777 0.00065765943 -0.012336132
000330 08 14 70 3c 4e b0 ac bc f1 3a 01 bd 90 88 80 bc
       0.014653213 -0.021080162 -0.03155035 -0.015690118
000340 50 97 89 3c 15 24 31 bc 3c e7 02 bd 32 8c 0e bc
       0.016795784 -0.010811825 -0.031958804 -0.008700417
000350 4e fc 94 bc ec dd 0d 3d b5 97 c6 bb 11 6e 97 3c
       -0.018186715 0.03463547 -0.0060605654 0.018485101
000360 c1 44 1c 3d 85 a9 fe bc 8f ef 66 3c 5d ff 85 3b
       0.038151506 -0.031086693 0.014095201 0.0040892796
000370 fd 32 0a 3d 85 05 99 b9 22 d5 32 3c 74 4a 2c bd
       0.033740032 -0.00029186546 0.010915073 -0.04206319
000380 1a 32 1e 3d 88 33 07 bd 58 d0 f1 3c a1 12 ea bc
       0.038622 -0.03300813 0.029518291 -0.028573336
000390 0d bc fc 3b 80 82 43 ba 5a dc f4 3c 12 56 23 bd
       0.007712847 -0.00074581057 0.029890228 -0.039877005
0003a0 94 73 0a 3d c3 ec 20 3d 76 f7 43 3c 74 38 1d 3d
       0.03380163 0.039288294 0.011960855 0.038383916
0003b0 fa 6a 09 3d f4 ec f7 3a 7b 99 bf 3c a1 a9 35 3b
       0.033549286 0.0018915222 0.023388615 0.0027719515
0003c0 fe 6b 25 3c 5e 76 ed bc 47 88 39 bc e3 cc b9 bc
       0.010096548 -0.028987106 -0.011323995 -0.022680705
0003d0 80 f0 c8 bc 20 6c d9 bc 48 9a 91 bc 16 24 ee 3b
       -0.024528742 -0.026540816 -0.017773762 0.0072674854
0003e0 d6 c0 a3 ba d0 9f 99 3c bb 67 95 3c 10 b6 3f bc
       -0.0012493383 0.018752962 0.01823794 -0.011701122
0003f0 d7 3b dd 3c 3e 60 00 bd 86 7d d4 bc 6a e8 1c 3d
       0.027006073 -0.031341784 -0.02593876 0.038307585

conv3.bias f4 [128]
000000 f9 75 d8 3c 1e 9c 0b bd 0c 5a a7 3e a9 0a 07 3c
       0.026423441 -0.03408443 0.32685888 0.008242288
000010 56 63 b9 bc 7b 57 87 3e 95 6e ab 3d 43 10 1e bd
       -0.022630375 0.2643393 0.08370701 -0.038589727
000020 64 16 64 3d 44 7d bc ba d1 e0 c9 3e 50 a6 86 bc
       0.055685416 -0.0014380594 0.39429334 -0.016436726
000030 cd a5 08 bd 76 23 03 bd 5c 0b 56 3c 73 00 90 3c
       -0.033361245 -0.03201624 0.013064232 0.01757834
000040 1b c5 30 bb 24 90 89 3e c6 06 14 3b 20 be 1a 3c
       -0.0026972953 0.26867783 0.0022587045 0.009444743
000050 04 c9 c1 bc 27 14 80 3e 40 d4 75 3c 7e 4c e8 bc
       -0.023655422 0.25015375 0.015004218 -0.028356787
000060 ee 17 06 3d 61 d8 8a 3e ba ca 59 3c 72 95 f3 3b
       0.032737665 0.2711821 0.013292963 0.0074335868
000070 81 a6 f6 bc 65 6e 80 bc dc c8 6e 3e a9 08 9e 3e
       -0.030108692 -0.01567764 0.2331881 0.30865982
000080 e4 cd bb 3d e6 f2 9f 3e d0 a5 2c 3e 79 c3 8f 3e
       0.0917013 0.31240004 0.16860127 0.2807882
000090 e3 3d 19 3c 24 24 2f 3e 76 7c 1f 3b ca b7 f7 3c
       0.009353134 0.1710363 0.002433566 0.030239005
0000a0 d4 47 ae 3e 4f 2b 91 3e 58 2f e8 3c 02 9c 4b 3c
       0.34039176 0.28353354 0.028342888 0.012427332
0000b0 0b 28 60 bc b5 75 24 3e 5d b3 20 3d 81 33 8a 3e
       -0.013681422 0.16060527 0.039233554 0.2699242
0000c0 1f 45 96 3e 24 dc 6d 3d 77 71 f0 3b b3 40 09 bd
       0.2934961 0.05807127 0.007337745 -0.033508968
0000d0 6c 46 07 3c 26 0b 8f bc 5d bd e5 bc 5a 74 1e bd
       0.008256536 -0.01746137 -0.028044397 -0.03868518
0000e0 24 86 9e 3e ca f5 30 3e f8 01 1d bc 0b a5 05 bd
       0.30961716 0.17281261 -0.009582989 -0.0326281
0000f0 fb 6f b8 38 c9 c8 a8 3d 42 7b 36 3d d0 4f 8c bc
       8.794662e-05 0.08241422 0.04455114 -0.017127901
000100 ab 6d 65 3d f4 38 0a 3c 8d ab c7 bc 26 4b b7 bc
       0.05601279 0.00843643 -0.024373794 -0.0223747
000110 d1 e6 95 3c 2f d0 2d bd 61 12 a7 3e 6d 42 81 3c
       0.018298538 -0.042434867 0.3263121 0.015778745
000120 5c 72 d0 bc 46 55 cf bc 27 53 99 3e 0c 16 02 bc
       -0.025445156 -0.025309216 0.29946253 -0.007939827
000130 cf 1f 8f 3b 62 82 01 3d 0e 6a bf 3d 44 f6 03 bc
       0.0043678056 0.031618483 0.093464 -0.00805432
000140 92 02 9b 3e 7f c0 d2 3d 68 b6 6f 3c 95 92 aa 3e
       0.30275398 0.10290622 0.014630891 0.33314958
000150 46 7e 27 bd 8e 7d 0b bd f7 bf d5 3d c3 e3 40 3c
       -0.040891908 -0.034055285 0.10437005 0.011773053
000160 3d 28 e2 3d 51 4e 14 3e d9 d3 b2 bc 65 3b 08 3e
       0.11042831 0.14483 -0.021829532 0.13303907
000170 31 64 00 3d f2 95 c2 bb 24 66 f9 bc c1 0e 9c 3e
       0.03134555 -0.005938285 -0.030444212 0.30480006
000180 a5 5c 8a 3e 64 3f 98 3e db fc c7 3d d1 03 f5 3d
       0.27023807 0.29735863 0.09765025 0.119636185
000190 3e 84 85 3e 55 c8 9c 3c bf 17 40 3e c2 05 b6 bb
       0.26077455 0.019138495 0.18759058 -0.0055548856
0001a0 23 f5 b6 3b 0b ee 9a 3e 49 ca 94 3e 34 99 0e bc
       0.005583422 0.30259737 0.2906058 -0.008703519
0001b0 92 59 0d 3d 81 8e c0 bb 5e db 99 bc d3 1f 93 3e
       0.03450925 -0.005876363 -0.01878136 0.28735217
0001c0 05 2e f6 3c 30 d5 6b 3e 7b 79 fb 3d 16 23 8b 3e
       0.03005124 0.23030543 0.1227903 0.27175206
0001d0 8c 42 0e bd 40 27 97 bc e7 15 8e bb da 81 df 3c
       -0.034731433 -0.018451333 -0.004336107 0.027283598
0001e0 d9 24 9b 3e 8b 95 6e 3e 95 c0 7d 3e cf e1 e5 3c
       0.3030155 0.23299234 0.24780495 0.028061775
0001f0 80 47 a8 3c 3b 4b 35 3e c5 de ff 3b db d9 5c 3e
       0.020541906 0.1770448 0.0078085386 0.2156748

fc1.weight f4 [6, 128]
000000 56 cf 49 bd df 8c 9e 3d 50 6a e6 3d a8 c3 81 3c
       -0.049269997 0.07741713 0.11250746 0.015840366
000010 be 4f 0c bc c9 fa c8 3d 21 6a 0e 3d f4 5a 71 bc
       -0.008563934 0.098134585 0.03476918 -0.014731158
000020 4b 20 ca 3d 1d 13 1b bd a3 5d ef 3d c7 85 00 3d
       0.09869441 -0.037860025 0.11687782 0.03137758
000030 2a b1 72 bd e2 ec a4 bd a9 dc a4 3d d7 ea b4 3d
       -0.059250988 -0.08052994 0.080499 0.08833855
000040 f0 3c 68 bc c6 44 be 3d 73 63 94 3a 1c 44 90 3d
       -0.014174685 0.09290461 0.0011321142 0.07044241
000050 f2 76 83 bd 1d c4 bf 3d 70 6b 9f bd 22 b0 16 bd
       -0.064191714 0.093635775 -0.07784164 -0.036789067
000060 0f 65 89 3d 93 31 e6 3d ab 91 07 3d 04 1f 60 3d
       0.067087285 0.11239924 0.033097904 0.05471708
000070 c6 23 3a bd 93 44 ad bd 92 33 9c 3d 23 7f 01 3e
       -0.045444272 -0.08460345 0.07627024 0.12646155
000080 79 73 c6 b7 49 4c dd 3d a6 da b8 3d 5e 47 e9 3d
       -2.365721e-05 0.10805566 0.09026079 0.11390565
000090 e9 46 a3 bd d6 18 a2 3d ef 86 2d bd 04 33 8d 3d
       -0.079725094 0.07914893 -0.04236501 0.06894496
0000a0 31 72 f3 3d d4 e8 ee 3d 9b bb 3f bd 57 f4 1f 3d
       0.11887015 0.11665502 -0.046809774 0.03905138
0000b0 bb 66 90 3d b3 28 f6 3d ac 66 bd 3c 09 19 f2 3d
       0.07050844 0.120194815 0.023120247 0.11821181
0000c0 96 4e e6 3d 74 8f 00 3e 1e 3b 18 bd ce 6e b7 3c
       0.11245458 0.12554723 -0.037165754 0.022391703
0000d0 b3 85 53 bc 99 92 a0 bd ff 8d 8d bd 5e 26 f4 3c
       -0.012910294 -0.07840461 -0.06911849 0.029803451
0000e0 83 ff e0 3d ea 2a c3 3d 5c 6c 30 bd ce b1 46 3c
       0.10986235 0.095296696 -0.04307209 0.012127353
0000f0 4c 35 36 3d 90 3f c8 3d c7 38 b5 b9 fe 54 56 3d
       0.04448442 0.097777486 -0.00034565313 0.05232715
000100 e7 0d a6 3a ec 8c 24 bd 2e fa 1c bd 2e e4 97 bd
       0.0012668938 -0.040173456 -0.038324527 -0.07416569
000110 85 97 92 3d 02 75 b9 3c a0 89 06 3e 20 38 8c 3d
       0.07157806 0.022638801 0.13138437 0.068466425
000120 30 2d 18 bd 37 76 6a bc 36 19 c2 3d 9d 8b a8 3d
       -0.03715247 -0.014310411 0.09477465 0.08229754
000130 b3 ea b1 3d 2c 7e 01 3d 82 fc 72 3d b7 6d 11 bd
       0.086873434 0.031614468 0.05932284 -0.035505023
000140 a6 ef f7 3d 0f 8f d8 3d 2d ef 2b bd 12 ad f1 3d
       0.12106256 0.10574161 -0.041976143 0.11800589
000150 f3 34 43 bd 79 13 0c bc a7 14 0a 3e 56 a2 9a 3b
       -0.04765792 -0.0085495645 0.1348444 0.004719059
000160 a0 87 bc 3d 25 51 11 3e 97 16 d9 bc 9d e8 71 3d
       0.09205556 0.1419111 -0.02650003 0.059059728
000170 05 37 2d 3d 04 d1 b7 bc 4e f1 97 bc 41 fc fe 3d
       0.0422888 -0.022438534 -0.01854768 0.12450457
000180 59 ea 03 3e bc e6 d0 3d b4 6b 72 3d f0 6b aa 3c
       0.12882365 0.10200259 0.059184745 0.020803422
000190 80 80 eb 3d 46 b2 85 3d 07 d5 df 3d ad d4 90 bd
       0.11499119 0.065281436 0.109293036 -0.07071815
0001a0 e5 07 84 bc 15 17 d1 3d eb 91 00 3e e9 80 83 bd
       -0.016117046 0.10209481 0.12555663 -0.06421072
0001b0 cb 7f b2 3d 1e 2b a4 3d b0 c8 71 3d d3 49 f4 3d
       0.08715781 0.080160365 0.05902928 0.11928143
0001c0 03 97 90 bd 07 b3 11 3e f3 2c ae 3d fa 8c b9 3d
       -0.07060053 0.1422845 0.08504667 0.09060092
0001d0 a1 f1 1d bd 61 77 32 38 da 00 9e 3d e1 e4 8a 3d
       -0.038560513 4.2549687e-05 0.07715006 0.067819364
0001e0 ee d4 f0 3d 29 1b d7 3d cb 62 d6 3d f5 d0 16 3b
       0.11759363 0.10503227 0.10468062 0.0023012732
0001f0 42 1d 2a 3d 4f f8 00 3e 4a 71 06 bd f0 99 d1 3d
       0.04153181 0.12594722 -0.032822885 0.102344394
000200 a8 29 e5 bc 09 a0 2a bd 00 01 1d 3e 59 3d 30 bd
       -0.027973965 -0.041656528 0.15332413 -0.043027256
000210 52 28 c7 3c 65 f9 16 3e 53 eb 1a 3e 09 7f a2 bd
       0.024311218 0.14743574 0.15128832 -0.07934386
000220 60 30 91 3d d9 4e 15 bd 97 b8 26 3e e7 f1 77 3c
       0.07089305 -0.036452148 0.16281353 0.015133358
000230 68 53 89 3d 7b 4f 08 3d d2 44 9d bc 41 90 69 bd
       0.067053616 0.033278923 -0.019197855 -0.057022337
000240 fc 3b 8f 3d bf 05 05 3e b5 2b 43 3d ad 59 f6 3c
       0.06993863 0.12990473 0.047649104 0.030072058
000250 80 58 11 3c ed 2b 18 3e 3e e0 45 bb cc 31 2a bd
       0.008871198 0.14860506 -0.0030193473 -0.041551396
000260 55 14 92 ba e1 37 17 3e b6 1b df 3d f1 c9 8e bd
       -0.0011144975 0.1476741 0.10893957 -0.06972111
000270 ee 71 99 bd 8b 0a 15 3a 74 af 17 3e a9 f5 28 3e
       -0.074924335 0.000568547 0.14813024 0.16499962
000280 c5 2d 94 3c 77 09 15 3e 21 79 29 3e e2 60 20 3e
       0.01808823 0.14554392 0.16550113 0.15661958
000290 bc b2 63 bd db 90 fe 3d ad 58 1b 3d c3 f9 36 3d
       -0.055590376 0.12429973 0.037926365 0.044671785
0002a0 2b f0 1e 3e 2f fd 27 3e a0 83 65 bd b7 c5 71 3d
       0.15521304 0.16405176 -0.05603373 0.059026446
0002b0 ef 21 47 bd 2b 23 03 3e 35 1a 1f bd b4 99 1e 3e
       -0.048616346 0.12806384 -0.038843352 0.1548832
0002c0 56 f7 13 3e 47 de 3b 3d 2d fc bd 3c 38 7c 8d 3c
       0.1444982 0.045866277 0.023191536 0.017271146
0002d0 5b 4d 45 bc 48 49 fe bc fd 9c 82 bc 34 7e e4 3c
       -0.012042369 -0.031040803 -0.015943998 0.02789221
0002e0 32 21 0f 3e 5c 8b 15 3e ae c0 63 3d 55 bd 2a 3d
       0.13977507 0.14603943 0.055603676 0.041684467
0002f0 d5 88 7b 3d ce 7a b2 3d 0d b0 15 3e da 18 7c 3d
       0.06140979 0.087148294 0.1461794 0.061547138
000300 14 99 db 3d c6 b4 69 bd e2 7e aa bd 1c 5f 8b bd
       0.10722557 -0.057057165 -0.08324982 -0.0680525
000310 ae d3 6f bd 75 b8 f9 bc 8e 04 38 3e c0 33 19 3c
       -0.058551483 -0.030483464 0.17970487 0.009350717
000320 24 9c a7 bd fa 38 43 3c 68 16 12 3e 96 21 4c bd
       -0.08184078 0.01191544 0.1426636 -0.049836718
000330 06 b9 24 3d 85 ce 16 bd c5 e8 13 3e e7 6c a1 3d
       0.040215515 -0.036818046 0.14444263 0.078820996
000340 2d 23 21 3e f1 1b 1d 3e 90 ad 03 3d 23 7e 1d 3e
       0.15736075 0.1534269 0.032147944 0.15380149
000350 90 94 55 3d 24 20 2e 3d 9b 56 e5 3d 28 9a bc 3b
       0.052143633 0.04251112 0.11198159 0.0057556815
000360 01 a4 0e 3e 80 cd 07 3e 6b 7f 83 bd c6 a2 20 3e
       0.1392975 0.13261986 -0.064207874 0.15687093
000370 45 1c a6 3c 42 6e a3 3b e6 37 8c 3d 5d 90 26 3e
       0.020277152 0.004987509 0.06846599 0.16266008
000380 71 8b 35 3e b9 2d 0c 3e fc da d9 3d f6 ed 41 3d
       0.17728974 0.13689317 0.10637471 0.047346078
000390 2c 18 19 3e 69 65 49 bd c8 a4 26 3e f7 c7 14 bb
       0.14950627 -0.049168978 0.16273797 -0.0022702196
0003a0 db 53 de bb e3 d0 0a 3e 25 c2 2d 3e 46 e8 c7 3b
       -0.0067848987 0.13556246 0.16968592 0.006100687
0003b0 32 cc f5 bc da 59 46 bb 37 07 9b 3d 1d f3 29 3e
       -0.030004594 -0.0030265958 0.075697355 0.16596647
0003c0 00 7d 2c bd 62 b1 37 3e 62 8c 0c 3e 8f 19 ea 3d
       -0.042111397 0.1793876 0.13725427 0.11430656
0003d0 ac bd 0e 3c 24 00 9d 3d a9 e8 a1 bd 45 26 48 3d
       0.0087122135 0.076660424 -0.079057045 0.04886462
0003e0 5d e4 28 3e 08 43 2a 3e a3 56 fa 3d df 41 a6 ba
       0.16493364 0.16627133 0.12223556 -0.0012684426
0003f0 35 a4 b6 3c c9 7d e4 3d 40 80 77 3d bd dc 2a 3e
       0.022295097 0.11156804 0.060425043 0.16685767

fc1.bias f4 [6]
000000 e9 32 17 3f 04 be 49 3f e6 d5 36 3f cd ea 44 3f
       0.5906206 0.78805566 0.71420133 0.7692078
000010 02 f7 33 3f 8d 2e 70 3f
       0.7029878 0.9382103
